GSI Encode/models/savedWeights/GSIGHI_processedFeatures.pth (torch, 11668 bytes, 19 tensors)

getCloudImpactVectornoSP.parseSZASAA.solarPosParse.0.weight f4 [4, 2]
000000 20 f0 96 40 b6 25 0c 40 11 e3 80 c0 41 48 cd 3d
       4.716812 2.1898017 -4.027718 0.10023547
000010 7a 52 42 40 2f d7 c5 c0 95 a3 47 3f db 9f ad c0
       3.036284 -6.1825175 0.7798398 -5.4257636

getCloudImpactVectornoSP.parseSZASAA.solarPosParse.0.bias f4 [4]
000000 aa b8 64 c0 3b 52 3d 40 31 23 40 3f 98 0d 2e c0
       -3.573771 2.958144 0.750537 -2.7195797

getCloudImpactVectornoSP.parseSZASAA.solarPosParse.2.weight f4 [8, 4]
000000 01 1d ec c0 af fb 5b 40 d9 57 b9 3a c7 57 a5 40
       -7.3785405 3.4372365 0.001414056 5.166965
000010 dd 93 a7 c0 11 f1 ad 40 5d 3c 11 40 9e 20 35 41
       -5.2367997 5.435677 2.2693093 11.320463
000020 14 5f a3 3f 48 6f 2b c0 63 9c af bf 95 59 8e 40
       1.276339 -2.678667 -1.37196 4.4484353
000030 87 d9 69 c0 91 22 ce 3f a5 af a1 40 af e5 4b c0
       -3.6539018 1.6104299 5.052691 -3.1858938
000040 27 04 b8 bf d5 1b d2 40 94 e8 83 bf 7b 6d ac c0
       -1.4376267 6.5658975 -1.0305352 -5.3883643
000050 09 d3 68 40 9a ad 60 c0 c0 5f 41 c0 c4 6f c8 c0
       3.6378806 -3.5105958 -3.021469 -6.2636433
000060 67 09 d7 bf 36 c7 9f bf 7c 03 12 40 39 73 9c 40
       -1.6799744 -1.2482669 2.2814627 4.8890653
000070 6e 9d bc c0 d9 c6 b5 40 3e c0 34 40 50 ea 57 be
       -5.8942175 5.6805234 2.8242335 -0.21085477

getCloudImpactVectornoSP.parseSZASAA.solarPosParse.2.bias f4 [8]
000000 12 14 af bf 7b 1d 09 bf 00 16 d3 bf de f9 da bf
       -1.3678 -0.5356061 -1.6491089 -1.7107503
000010 66 25 46 3f ba 82 f7 3d 72 b1 cf bf 80 3f 81 bd
       0.77400815 0.12085481 -1.6226027 -0.0631094

getCloudImpactVectornoSP.parseSZASAA.solarPosParse.4.weight f4 [16, 8]
000000 68 ba 02 c0 3f 02 9d 3f 08 e7 20 40 58 fd 0e 41
       -2.0426273 1.226631 2.514101 8.9368515
000010 1f 9c 5f 3e 1c 36 6d c0 85 e0 04 41 fb 1f 0d 40
       0.21836899 -3.7064276 8.304814 2.205077
000020 8d ed 8f 3f 6a 4d 92 40 19 24 37 40 ca ac 54 41
       1.124437 4.57195 2.8615782 13.292185
000030 da 12 1a 40 04 84 69 3f 16 80 1d 41 6c 28 62 40
       2.4074006 0.91217065 9.843771 3.5337172
000040 c6 b6 2e c1 9c 46 a6 3e 0a 0d ee 3f 73 95 74 c0
       -10.919622 0.32475746 1.8597729 -3.8216217
000050 d0 3b 8f 40 9c c6 c9 41 5e c0 6e c1 d0 6d e4 bf
       4.4760513 25.221977 -14.921965 -1.7846012
000060 78 24 1a 40 c9 43 81 40 0f 00 5a 40 a7 70 4f 40
       2.4084759 4.0395246 3.4062536 3.2412508
000070 b3 10 8b 40 54 b2 77 40 f7 d6 1d 40 53 df 10 40
       4.3457885 3.8702593 2.4662454 2.2636306
000080 8d 81 1d 41 88 d9 c2 3f 31 fc e1 bf 5d 07 1f c1
       9.844129 1.5222635 -1.7655088 -9.939298
000090 51 6b 7c 3f a0 e4 86 c0 83 25 d2 c0 96 21 b6 40
       0.9860125 -4.2154083 -6.567079 5.6916
0000a0 14 c0 87 3f ae eb 8c be 3f bd c7 bf 36 e9 f8 bd
       1.0605493 -0.2752356 -1.5604628 -0.121538565
0000b0 9d 5f 69 3f d9 fc 30 c0 a1 29 a2 bf 2f 55 6c 40
       0.9116152 -2.7654326 -1.2668954 3.6926992
0000c0 49 91 45 bf 61 5a 09 bf bf fd 80 3f ca 31 36 be
       -0.7717481 -0.5365353 1.0077437 -0.1779243
0000d0 3e 56 2c bf 3c 1e 3c 40 45 23 46 3d fe 35 95 bf
       -0.67319095 2.9393454 0.04837348 -1.1657102
0000e0 45 a7 31 40 c1 19 79 40 d2 b9 79 40 f1 42 7d 40
       2.7758343 3.892197 3.9019666 3.9572108
0000f0 e2 42 84 40 2f da ae 40 10 c1 35 40 2c 6f 28 40
       4.1331644 5.4641337 2.8399086 2.6317854
000100 62 f5 93 41 9b 1b 0e 3f f1 87 7f c0 bf 28 0d 3c
       18.494816 0.5551087 -3.9926722 0.008615672
000110 16 e1 06 bf bf 2e 10 c1 6f ae 39 3f 3b 8d a2 40
       -0.52687204 -9.011413 0.7253179 5.07974
000120 c1 51 54 3d 49 0b a9 3d d3 65 d7 be c9 92 40 bf
       0.05183578 0.082541056 -0.42069873 -0.75223976
000130 cf 76 ac 3f 3d 35 83 40 f9 fc 82 bf db 4f db ba
       1.3473758 4.100249 -1.0233451 -0.0016732173
000140 41 c8 f7 3e c7 8b bb 3f cc d5 5b 40 c3 e2 0b 3f
       0.4839497 1.4652032 3.4349241 0.54642886
000150 4d 74 d7 bf 58 75 75 bf 25 f6 aa 3e 77 3d 57 be
       -1.6832367 -0.9588218 0.33390918 -0.2101954
000160 fe 8a e4 40 9f 55 24 41 9c 99 82 c0 43 f2 10 41
       7.141967 10.270904 -4.081251 9.059146
000170 50 80 c8 3e f5 4c 83 c0 09 d2 28 40 ba d8 0e 41
       0.39160395 -4.103144 2.6378195 8.927912
000180 c6 6b 0c 40 84 03 59 40 97 73 55 40 ce 2b 5f 40
       2.194078 3.3908396 3.33518 3.4870486
000190 f0 b3 7a 40 29 65 ad 40 df 61 56 40 5d b2 2f 40
       3.9172325 5.4185987 3.3497236 2.7452614
0001a0 aa 78 14 41 36 e9 8f 40 1e 70 c2 bf bc be ae 40
       9.279459 4.497218 -1.5190465 5.460783
0001b0 35 e8 d8 bf 99 ed a6 c0 7a b1 89 40 5f 40 90 40
       -1.6945864 -5.2165036 4.3029146 4.507858
0001c0 43 5b 03 c1 b7 6f 5f bf ec 2e 19 40 b0 9f 14 41
       -8.209781 -0.8727984 2.393489 9.288986
0001d0 84 4f 71 c0 de 13 ea 3f d0 de bf 40 98 9f 00 c0
       -3.7704782 1.8287313 5.995949 -2.0097408
0001e0 4b 34 05 c0 72 6d 4a 3f 7c 2d 39 c0 0f 11 13 40
       -2.0813167 0.7907325 -2.8934011 2.2979162
0001f0 59 78 0d c0 7c 67 e0 3f 45 d0 fe 3f b3 e5 88 3f
       -2.2104704 1.7531581 1.9907309 1.0695099

getCloudImpactVectornoSP.parseSZASAA.solarPosParse.4.bias f4 [16]
000000 71 39 2b c0 1c 68 d4 3f 40 8b a6 40 38 fd a6 40
       -2.675381 1.6594272 5.2044983 5.2184105
000010 4d 83 9a bf 1f d5 ef bf 71 4c b7 3e ad 22 d2 40
       -1.207132 -1.8736914 0.35800508 6.566733
000020 18 50 55 c0 18 9c 24 3f 4e 2d 19 bf d8 f3 29 3f
       -3.3330135 0.6430068 -0.59834754 0.663877
000030 fb 17 bb 40 20 3c f9 bf d3 a4 8a be ae 6c 21 bf
       5.8466773 -1.9471474 -0.27078876 -0.6305646

impactVectorAndCSMToGHI.0.weight f4 [8, 17]
000000 73 37 3f bb 9f f2 0f bd 5f b0 e8 3d e5 22 6b 3e
       -0.0029177337 -0.03514349 0.11361765 0.2296253
000010 69 10 de 3a 52 2e 59 bd e2 f5 6f be 3b 55 0f 3e
       0.0016942146 -0.05302269 -0.2343364 0.13997357
000020 54 54 64 be 1f 9b 3e be b8 a3 5c 3e 89 e3 de 3d
       -0.22297794 -0.18613862 0.21546829 0.10883243
000030 2d 72 2e be c0 e0 76 3e 20 cb 91 3d 86 dc 8a bd
       -0.17035742 0.24109173 0.07118821 -0.06780343
000040 f1 85 95 3a 1b 3c 17 3e a7 d6 58 3e 9f 18 1d 3d
       0.0011407716 0.14769022 0.21175633 0.03835356
000050 5d c3 60 3e 7f af 6b be 94 18 73 3d ac ea 42 3d
       0.21949525 -0.23016165 0.05934961 0.04758708
000060 f7 38 fd 3d 27 bc 8c 3d 0c de 2f be 05 fb a7 bb
       0.12364381 0.06871825 -0.17174548 -0.0051263594
000070 66 15 45 3e 98 76 c9 bd d3 62 f3 bd 60 18 a6 bc
       0.19246444 -0.09837073 -0.118840836 -0.020275295
000080 d8 a9 75 be 5a c6 e4 3c 6b b2 00 3e 13 2f 07 be
       -0.23990571 0.027926613 0.12568061 -0.13201551
000090 d6 b0 40 3d 08 98 8f 3d 92 26 73 be 7e 80 5a be
       0.047043644 0.070114195 -0.23745182 -0.21338078
0000a0 99 0c d3 3d 1a 38 1e 3e 17 51 f3 3d 5b 47 f4 3d
       0.10305137 0.15451089 0.11880701 0.119276725
0000b0 f9 32 6a 3e 0b c6 33 3e 69 6d a7 3d 65 b1 4d 3c
       0.22871007 0.17556016 0.08175165 0.012554501
0000c0 90 91 af 3d 6b 96 51 be 8c b6 4d 3e cc 6e a1 3d
       0.08572686 -0.20467536 0.20089167 0.07882461
0000d0 78 71 2a be 28 e8 db 3d ba ad fe bd aa 45 4d be
       -0.16644847 0.1073764 -0.124354795 -0.20046106
0000e0 f5 51 55 3e 81 24 d3 3d 0f 8d bd 3d 62 fd 55 3e
       0.20832045 0.10309697 0.092554204 0.20897439
0000f0 2f 5e 29 3e d9 32 5e 3c 05 76 d1 3c f3 8c 14 3e
       0.16539834 0.013561928 0.025568971 0.14506893
000100 39 d4 35 3d 9d 79 12 bd f0 bd 34 3e 4d c0 60 3e
       0.044391844 -0.03576051 0.1765058 0.21948357
000110 c6 d7 54 3e 6e 8b 66 3e cd fd ba bd 91 23 be 3c
       0.20785436 0.22514126 -0.0913044 0.023210319
000120 94 b8 3f 3e 58 fe bb 3c a1 4f 19 be 8b ac 64 be
       0.18722755 0.022948429 -0.14971782 -0.22331445
000130 ba 54 87 3d bc 4b 47 3e 1f e3 04 be 6f 85 e6 bd
       0.06607957 0.19462484 -0.12977265 -0.11255919
000140 7c a3 03 3e d9 4b fb 3d d0 66 09 be 35 28 14 bd
       0.12855333 0.12270326 -0.13418126 -0.036171157
000150 16 b9 15 be 7a 84 fb bd 86 61 d5 bd 82 e3 3a 3e
       -0.14621386 -0.12281127 -0.10418992 0.1825085
000160 7f 6d ca 3c 9b 5f 3b bc 21 17 04 be a8 90 62 3e
       0.024710415 -0.011436368 -0.12899448 0.22125494
000170 1d 28 23 be fb 2f a9 3d 62 bb 3a be 37 35 2e 3e
       -0.15933271 0.08261105 -0.18235543 0.17012487
000180 27 9d 88 3d bb 7a 69 be eb be 01 bd bb 3d c6 3c
       0.066705994 -0.22800724 -0.031676214 0.024199357
000190 3f c4 76 be 77 fd 01 3c 0b 52 35 3d c9 75 57 3e
       -0.240983 0.007933966 0.044267695 0.21041025
0001a0 e9 94 73 bd 39 6a eb 3c fe 78 9f bd bc 2c ba bc
       -0.059468184 0.028737174 -0.07786749 -0.02272641
0001b0 39 0c ef bd da e7 02 be c7 e1 4e bc c6 2e 41 3d
       -0.11672253 -0.12783757 -0.012627072 0.047163747
0001c0 a6 33 e8 3d 1e a0 89 bc 51 c7 85 3d 42 31 07 bd
       0.11337976 -0.016799983 0.06532157 -0.03300596
0001d0 0f 9a 19 bd 02 67 37 3e 4f 87 ca 3d 9a 7e e9 3b
       -0.037500437 0.17910388 0.09889089 0.007125688
0001e0 88 f9 87 3d c5 04 59 3e 23 56 8b bd 86 a2 f2 bc
       0.06639391 0.21193226 -0.06803539 -0.029618513
0001f0 17 e4 f9 bd 83 16 68 3e 84 db 44 be 27 a2 64 3c
       -0.12201708 0.22664838 -0.19224364 0.013954676
000200 f5 44 47 3e aa 00 23 be aa f8 61 3e 3e 51 c9 bd
       0.19459899 -0.15918222 0.22067514 -0.09829949
000210 26 08 0d be 0e 1f 68 3e 1e ad 33 be 2c 64 71 be
       -0.1377264 0.22668096 -0.17546508 -0.23573369

impactVectorAndCSMToGHI.0.bias f4 [8]
000000 13 f5 07 3d 54 b0 40 be ee a5 3e be 2a d5 3d 3d
       0.033192705 -0.18817264 -0.18617985 0.046345867
000010 47 23 ec 3b 57 e6 71 3e 69 3d 95 3d 48 ae 7c 3d
       0.007206354 0.23623024 0.07287104 0.061689645

impactVectorAndCSMToGHI.2.weight f4 [4, 8]
000000 3b 7c 78 3e 11 0a a0 be 31 c4 80 3d ba 72 8f bd
       0.2426614 -0.3125768 0.062874205 -0.07004304
000010 15 15 3d bd 5d ad 52 be 38 50 77 bd 2b 51 8d be
       -0.046162684 -0.20573945 -0.060379237 -0.2760099
000020 ec f0 07 3e 44 c7 92 3e 1f 74 97 3e e4 b0 49 3e
       0.13275498 0.28667653 0.2958078 0.19696385
000030 45 0b 3d 3e d5 8d fa bc fa a3 a1 3c 29 e4 e6 bd
       0.1846133 -0.030585209 0.01973151 -0.11273987
000040 bd 1b 7d be fc 1b b4 be 8a c2 59 3e 47 fc 92 3e
       -0.24717613 -0.351776 0.21265617 0.28708097
000050 50 db 6c 3e 93 86 9e 3e 5c e9 8c 3e 9d cc 32 3d
       0.23130536 0.30962047 0.2752179 0.043652166
000060 a1 7f 03 be 43 8e a5 be f3 96 a0 3e 0f 41 25 be
       -0.12841655 -0.323351 0.31365165 -0.16138099
000070 a9 6e 6c bd de 69 ce bd 47 84 86 3e 06 4f b8 bd
       -0.05772272 -0.10078786 0.26272795 -0.089994475

impactVectorAndCSMToGHI.2.bias f4 [4]
000000 86 32 09 bc 27 cb d4 3d 88 cb 10 3e a4 6f a7 bd
       -0.008373862 0.10390311 0.14140141 -0.08175591

impactVectorAndCSMToGHI.4.weight f4 [1, 4]
000000 b2 9a 94 3e f0 2c b8 3d 2c c0 25 3e 12 57 95 be
       0.29024273 0.08992946 0.16186589 -0.29167992

impactVectorToImpactScalar.0.weight f4 [8, 16]
000000 49 c1 2f 41 6d 75 a0 c0 5f 89 80 c1 9d fc 01 c1
       10.984689 -5.014334 -16.067076 -8.124173
000010 68 ea 82 c1 cd 88 da bf 40 19 f3 be 17 52 aa c2
       -16.364456 -1.7072998 -0.47480202 -85.16033
000020 b4 92 7b c1 4e 1b 00 bf 23 aa 3b bf a5 1a a0 c0
       -15.723316 -0.50041664 -0.73306483 -5.0032525
000030 51 9d a8 3f bd ee 90 c1 f5 ff b1 40 81 3a 2b 3f
       1.3173009 -18.116571 5.5624948 0.66886145
000040 72 d7 2f 40 19 f9 f5 3f 9b 06 1b 41 66 55 e8 c1
       2.7475247 1.9216644 9.689113 -29.041698
000050 a2 1b e5 c1 4a 5d 59 3f 6e 26 a6 3f 6e c1 fc c2
       -28.638493 0.8490797 1.2980478 -126.37779
000060 a5 da d9 c0 62 a6 b3 bf 33 fa e6 3e 9e 50 45 c0
       -6.80794 -1.4035151 0.45112762 -3.0830455
000070 62 0d 6d c0 d8 03 0b c2 b4 c4 61 40 f7 f5 b0 bf
       -3.7039418 -34.753754 3.5276308 -1.3825063
000080 ca 81 96 c0 db d1 b1 41 ec 13 bf 41 ba 85 ce c1
       -4.7033434 22.227468 23.884727 -25.815296
000090 29 3c 77 c1 c1 33 10 3e 79 33 f1 bf 2f 5a 9a c2
       -15.452188 0.14082243 -1.8843833 -77.17614
0000a0 a0 5e f4 c1 8b 95 9e bf 89 3e 09 c0 06 bc 7a c2
       -30.546204 -1.2389387 -2.1444418 -62.683617
0000b0 63 f3 1b 42 59 34 aa c1 4f fc 26 c2 5d cf 18 c1
       38.987682 -21.27556 -41.746395 -9.550626
0000c0 18 85 1a c1 f6 1f 1c c0 9e 2e ca 3f 5d c2 f4 40
       -9.657494 -2.4394507 1.5795476 7.648726
0000d0 86 9f 4e c1 cf 81 23 3f 97 0e 80 3f bc ee 81 42
       -12.913946 0.6386995 1.0004452 64.96628
0000e0 5c 2d 90 40 d6 55 21 c0 11 f2 d6 bf 28 0d 09 40
       4.505537 -2.520864 -1.6792623 2.141428
0000f0 17 ce 03 c0 5c db d9 bf a3 b9 7f 40 3e 6a 0c be
       -2.0594537 -1.7020068 3.9957054 -0.13712403
000100 99 ec c9 41 25 c9 b3 c0 85 a8 2d 41 58 5b 1c c2
       25.240526 -5.618304 10.853642 -39.089203
000110 be 40 24 40 f6 a2 37 3e e4 a0 1c 3f 77 20 a4 c2
       2.5664515 0.17933258 0.61183 -82.06341
000120 25 ad 1d c0 4b b7 83 3f c8 60 6b 3e ed ec 14 c0
       -2.463693 1.0290312 0.22986138 -2.3269608
000130 20 90 e7 be 18 0b a4 c0 db 04 0a 41 ed 04 ee 3e
       -0.45227146 -5.126354 8.626185 0.46488133
000140 06 41 fe c0 4e 5b e1 c1 46 f0 09 41 8f 83 54 41
       -7.9454374 -28.169582 8.6211605 13.282119
000150 00 70 fb bf 48 c8 32 3f f4 c4 85 be f2 bd a9 41
       -1.9643555 0.69836855 -0.26126826 21.217747
000160 a0 43 57 c1 eb 3d b1 bf 41 06 bf bf cb 21 d1 c0
       -13.45401 -1.3847021 -1.4923784 -6.535375
000170 bd ce 0f c2 93 f5 c6 c1 d4 c6 11 40 8e 9b b2 3f
       -35.951893 -24.86991 2.2777605 1.3953722
000180 38 5f ee 41 33 d3 3a c0 67 e0 b7 c0 4c 09 8b c1
       29.796494 -2.9191406 -5.746143 -17.37954
000190 04 7a d9 c1 0c 04 cb 3e 4f d4 01 40 d3 1c bd c2
       -27.184578 0.39651525 2.0285833 -94.5563
0001a0 90 eb 7e c0 51 ae 58 40 86 d6 84 3f 4d 11 e9 be
       -3.9831276 3.3856394 1.0377967 -0.45521012
0001b0 dd 0b f1 40 99 23 8e c1 54 98 e4 c0 e3 c1 86 3f
       7.532698 -17.767382 -7.1435947 1.052792
0001c0 9d c6 d3 40 b3 67 da 3e 53 b6 8e c0 40 3b 97 c1
       6.617995 0.4265724 -4.4597564 -18.90393
0001d0 56 bf b1 c1 26 5b 49 3f d8 3a 96 be 6a 88 ba c2
       -22.218426 0.78654706 -0.2934177 -93.26643
0001e0 e4 38 e9 c0 56 0e 6b bf 14 61 03 40 09 31 0d c0
       -7.2881947 -0.9181875 2.0528002 -2.2061179
0001f0 78 5a 46 40 78 1a 9a c1 3f 07 0d 41 aa 73 92 3f
       3.0992718 -19.262924 8.814269 1.1441548

impactVectorToImpactScalar.0.bias f4 [8]
000000 7d 5b 99 3e 8b cf c2 be 17 66 2b 3e c0 bd 98 3f
       0.29952613 -0.38048968 0.16738163 1.1932907
000010 00 04 dc bd 3d b5 23 bf c4 d2 e8 bf 45 3f 74 3e
       -0.107429504 -0.6394842 -1.818932 0.2385226

impactVectorToImpactScalar.2.weight f4 [4, 8]
000000 ed 9d bc 3f 32 d9 01 c0 6c 83 23 c0 08 ea 39 40
       1.4735695 -2.0288815 -2.5548964 2.9049091
000010 ef 96 75 c0 23 c8 0d 40 7d de 76 3f bd ec 8a 3e
       -3.8373373 2.2153404 0.9643324 0.27133742
000020 bf 58 3a 3f 23 f6 27 40 07 6a c3 bc bb 83 72 40
       0.72791666 2.624398 -0.023854269 3.7892902
000030 ad 94 79 3e 7e 9d ff 3f 2d 03 40 40 40 4f d7 3f
       0.24373122 1.9969938 3.0001938 1.682106
000040 3a 41 62 bf 5c c5 a0 be 9f 15 70 bf 90 e6 c6 3e
       -0.8838078 -0.31400573 -0.9378299 0.3884778
000050 bc f8 86 3f df 1c 02 40 9e 90 0e bf 19 3f c9 be
       1.0544658 2.0330122 -0.5568942 -0.39305952
000060 cf d8 65 3f 05 e4 13 bf 07 56 c9 3f eb 56 a4 c0
       0.8978395 -0.57769805 1.5729378 -5.13561
000070 9b fa 13 40 e9 09 0f c0 81 61 ef bf 8c 57 2c 3e
       2.3121707 -2.2349799 -1.8701631 0.16830271

impactVectorToImpactScalar.2.bias f4 [4]
000000 f9 80 fe bf c1 a2 60 be 4f d5 83 be 2f de 9c 3f
       -1.9883109 -0.21937086 -0.2574868 1.2255305

impactVectorToImpactScalar.4.weight f4 [1, 4]
000000 9a 80 0c 40 f2 53 e5 3f d4 9c c0 bf ac eb 01 40
       2.1953492 1.7916243 -1.504786 2.0300093

impactCSMToGHI.0.weight f4 [4, 2]
000000 fe f0 13 c0 55 55 6d be 8b 78 d8 3e d7 a5 84 bf
       -2.311584 -0.23177083 0.42279467 -1.036311
000010 7c 4b f7 3f 8a 98 ee 3e 0c 21 e9 3f 70 57 91 be
       1.9319911 0.46600753 1.821321 -0.28387022

impactCSMToGHI.0.bias f4 [4]
000000 0a bc 84 bf fa a6 d1 be 01 ce b7 3f 9f 6d fc 3f
       -1.0369885 -0.40947706 1.4359742 1.9720954

impactCSMToGHI.2.weight f4 [1, 4]
000000 68 49 97 3f f5 21 9b be d0 60 ca 3f 0e 65 bc bf
       1.1819277 -0.30299345 1.5810795 -1.471834
