models/savedWeights/GHIforecasting.pth (torch, 101027 bytes, 10 tensors)

lstm.weight_ih_l0 f4 [128, 86]
00000000: 8c7a 0e3e 1441 3b3e a142 1b3d 32ef 4abd
00000010: dc55 093e a7bb 12bd 269c da3d c461 cdbc
00000020: f2f5 f33d 15ae 2ebc b34a 6abe 008f 69bc
00000030: 9a37 a7bb afc7 a03d da96 09bd d9cb e83d
00000040: 20cd 49be a04a 5cbd c75f 483e dd72 223d
00000050: 5542 f6bc 3b03 103e fb90 313e a50a 103e
00000060: 1863 8f3d 0c22 3cbd 12ac 303e 4dab 01bd
00000070: ae14 4bbe 9bb0 403d 6116 43be 1870 6abd
00000080: 5c09 df3d c55f 14be 280c bf3d 1483 273e
00000090: 595a 3dbe 9dbd c4bd f25f 37bd 61ad 0b3e
000000a0: dd8e 3fbe afa5 ecbd 44cb afbd aa72 ed3d
000000b0: 1447 d63d 4dc2 0ebe 7518 ce3d d1e5 4ebd
000000c0: aa2f 17be 02e5 e33d b6b1 913d 71dc 4abe
000000d0: 615e 003e 5c64 e23d 5eab ec3c 0a61 cb3d
000000e0: cbaa b73d 090c 223d f89a a43d a917 aa3d
000000f0: 6675 efbd 2ca3 e6bd b690 52be 57dd 343e
00000100: 008d 32be d5df bebd 7d8f 033e c6f0 4a3e
00000110: 20e9 79be 992d cb3e 1a0f 3f3d 1682 58be
00000120: 02cd 3fbf c8cb 633e cda1 cdbd 103b 6cbd
00000130: 50e9 fdbd b1e5 32bd bf03 023e 0b2f ac3e
00000140: 0823 4d3e a5bd e63d 1420 f23d 7564 3d3e
00000150: 1db3 b23d 6ef4 f5bd 2cc4 383d 0c18 8dbd
00000160: dc8e 1c3d fc32 c53d 3006 423e b36d cd3e
00000170: 3326 9cbc 169f afbc 02c6 c9bd 85c6 d23d
00000180: 1ab5 f3bd c29b 0a3d 768f ecbd bdb1 48bd
00000190: 733d 42be 4788 0bbe fab6 1cbd 43b9 c0bd
000001a0: 214f 34be 5fbc 0c3d 837b 20be 8ef6 76be
000001b0: 6c96 b03d 9c92 f0bc 6fa5 0f3e b8ed 663d
000001c0: c3b1 19bd 3864 523e 9251 babd 842f b4bd
000001d0: 2f68 ec3d 1f57 29bd af1e 313e a8a7 cb3d
000001e0: 9dfb afbd e470 f43d e4d1 d1bc b6c7 2abd
000001f0: 2b67 15bd 917e 2f3d 7c0b f13d 5571 a63e
00000200: 6349 e43c 5c8d a43e 8c43 23be 646e 70be
00000210: d502 8f3d d4a0 64bd ac81 223e 2682 193e
00000220: dd41 393e ccb1 fcbc d843 93bd 4ebc 1f3d
00000230: 9a73 a23b 10a4 a4bd 055a e2bd fde5 3dbe
00000240: d9c1 70be 93f9 d6bd 1618 233e 2195 b33e
00000250: e1b5 8fbd f66a 693b 448f 41bf 0c32 2bbf
00000260: c282 75be 61e1 4e3e cfdc dcbe 28b9 14bd
00000270: 5950 55bd 0f12 b5be 2d6a 13be 1c54 903c
00000280: 45db 2cbe 400a 19bf 3f88 e03e be15 4b3e
00000290: c522 0cbf 1714 2dbe 2514 95bd 7437 8ebd
000002a0: 1374 9ebd 2f1e 30bf 4d50 413e 9d04 99be
000002b0: 54e7 a73d 72c0 8a3e accf 1b3e e6c3 28be
000002c0: 8e6f 983d eaf2 a23d af4a adbb c6e3 0e3e
000002d0: 27ff 9e3d beb9 d9bc 6240 6c3d 0505 03bd
000002e0: f9ce 7bbd 5121 42be ee97 bf3c 9727 2a3e
000002f0: d117 d43d 536b 253e 7e6d 5bbb 605c 013e
00000300: b03a 9e3d 018d c23c b365 0cbe 84a8 10be
00000310: b70a dcbc 9563 73bd f38b 893d e2dd 133e
00000320: 5bb1 acbd 0988 1cbe cd7b 36be 0bb1 0b3e
00000330: 2524 1fbe 002f 28be c385 a03d 023a 463c
00000340: d60e fabd f86e 1f3e ede4 b5bc e00b cbbd
00000350: 281d 91bc 9fc8 113d 46ef 303e edbb 53bd
00000360: 826d 023e aae1 21be 0d69 8b3d a790 6f3c
00000370: de67 983d 2d65 c43d bb6f 03be 2325 60bd
00000380: 2cf0 0b3e 1f84 30be 3d1b 15be 3c28 bfbc
00000390: 2992 00be d000 1bbd d397 063e 5d0a 00be
000003a0: 24df 933d 0343 383d 29b8 81be b673 51be
000003b0: d5a2 a6bd 6b49 bc3e 43de 893d a28c 393e
000003c0: 45d2 4fbd 0e35 423e bfff 2b3d 8ce8 a23e
000003d0: 027b b6be c0c5 febd 5b36 293e 57d5 8a3f
000003e0: 89a4 cfbe b1c6 dd3d 5615 f53e c8b6 6fbe
000003f0: 2675 433e 67e5 323d efe6 74bc 0a79 233d
0.13913935 0.18286544 0.03790534 -0.04954452 0.13411659 -0.03582349 0.10674314 -0.025071032
0.11912145 -0.010661622 -0.22880058 -0.014255285 -0.005103064 0.078505866 -0.03359113 0.11367006
-0.19707155 -0.053782105 0.19567786 0.039660323 -0.030060926 0.14063732 0.17340462 0.1406656
0.070013225 -0.045930907 0.1725314 -0.031657506 -0.19832107 0.047043424 -0.19051506 -0.057235807
0.10890457 -0.14489658 0.093284905 0.16358596 -0.18491496 -0.09606478 -0.044769235 0.13640358
-0.18706842 -0.11555039 -0.08583692 0.11594136 0.10462776 -0.13941307 0.100632586 -0.05051214
-0.14764276 0.11127664 0.07113974 -0.19810654 0.12536003 0.11054298 0.028890308 0.09930618
0.08968123 0.03956226 0.080373704 0.08305294 -0.11692314 -0.11261591 -0.20563015 0.1766256
-0.174366 -0.09320036 0.12847705 0.1981841 -0.24405336 0.39683226 0.04664526 -0.21143374
-0.7492219 0.22245705 -0.10040627 -0.057673514 -0.123980165 -0.043676082 0.12696742 0.3362964
0.20032895 0.112666406 0.11822525 0.18495353 0.087255694 -0.12009512 0.04510896 -0.06889352
0.03822218 0.09628865 0.18947673 0.40122756 -0.019061184 -0.021438163 -0.0985222 0.10291771
-0.11899777 0.03383995 -0.115508005 -0.04899763 -0.18968754 -0.13626204 -0.038260438 -0.09410336
-0.1760831 0.034359332 -0.15672116 -0.2411749 0.08622441 -0.029366784 0.14027952 0.05637905
-0.037523042 0.20546043 -0.090975896 -0.087981254 0.11543309 -0.04134285 0.17296861 0.09944087
-0.08592913 0.11935595 -0.025612779 -0.041694365 -0.03647534 0.042845313 0.117697686 0.3250834
0.027867025 0.321391 -0.15943736 -0.2347961 0.06982962 -0.05581744 0.15869778 0.14991054
0.18091531 -0.030846499 -0.071906745 0.03899794 0.0049576284 -0.08039105 -0.11052326 -0.18544765
-0.23511447 -0.10496821 0.15927157 0.35074714 -0.070171125 0.0035616732 -0.7560923 -0.6687324
-0.23975661 0.20203163 -0.43137214 -0.03630939 -0.05207858 -0.3536534 -0.14395972 0.017618231
-0.1688052 -0.59781265 0.43853948 0.19832513 -0.54740554 -0.16902195 -0.07279233 -0.069441706
-0.07736983 -0.68796057 0.18878289 -0.29886332 0.08198419 0.2709995 0.1521594 -0.1648098
0.07443152 0.079564884 -0.005288444 0.13954076 0.0776351 -0.026577827 0.057678588 -0.03198721
-0.06147668 -0.18958022 0.023387875 0.16616665 0.10356105 0.16154222 -0.003348201 0.12632895
0.077260375 0.023748877 -0.1371067 -0.14126784 -0.026860578 -0.05942114 0.06716146 0.1444011
-0.08432265 -0.15286268 -0.17820664 0.13641755 -0.15541132 -0.16424179 0.07838013 0.012098791
-0.12209861 0.15569675 -0.022203887 -0.09914374 -0.017714098 0.035591718 0.17278776 -0.051692892
0.12737086 -0.1580874 0.06807146 0.01462189 0.07441686 0.0958961 -0.1283559 -0.054722916
0.13665837 -0.172379 -0.14561172 -0.023334615 -0.12555756 -0.03784257 0.13143854 -0.12503953
0.07220295 0.044985782 -0.25335816 -0.20454296 -0.081365265 0.36774763 0.06731846 0.18120053
-0.050737638 0.18965551 0.041991945 0.31818044 -0.35640723 -0.124400616 0.16524641 1.0846356
-0.40555218 0.10828913 0.4786784 -0.2340957 0.19087657 0.043675806 -0.014947637 0.039910354

lstm.weight_hh_l0 f4 [128, 32]
00000000: 106b 093d 0c93 7ebe 6126 02bf 6cf6 3b3e
00000010: 9caa 9abe 4be2 25bc 4c13 adbd 5cbb c0be
00000020: c7c4 313e ea9f 8bbe a809 71be 8e0d d5bd
00000030: c702 50be cecb bf3c b15c 92bd 93a0 80bc
00000040: a832 e0bd 3901 313d 8555 56bb 7974 48be
00000050: a494 b9be d145 723d a493 d4bd dd34 2d3d
00000060: f2aa 2c3e 28b7 053f cbf8 91bd 17fe a23d
00000070: 2f36 65bd 5e55 71be 68c0 68bd 0c65 42be
00000080: 793b b3bd 131a 8dbd 8d65 743d f147 8d3d
00000090: b3de b73d 4c5d 35be 67e9 873e 8b10 173e
000000a0: d41f 16bc 6da3 14be fd20 85bc 0641 843b
000000b0: 994d 2cbd a5a8 20bd cc53 16be f753 a7bd
000000c0: 765b c53d 9caa b9bd 08da c9bd b44f b63c
000000d0: d770 66be 6016 50be d4ee 74be 7200 963e
000000e0: 2f0f b7bd 9676 babe 7df4 07be 4b43 2fbe
000000f0: a268 033e 0c4a 0fbe 8a4b ecbc f3bf 88bd
00000100: e5ce 3abe 2387 7ebe 6e0e 303e 4920 a8bd
00000110: 8519 c93d 6000 90be 5a74 2e3e 6d34 3b3c
00000120: cba9 33be 9dc8 64be 9529 f43d 38e3 6dbc
00000130: 1c65 51bd 3f65 06be 67b7 29be cfd1 643d
00000140: 93a3 40bd 1412 1bbe f715 8dbd 598f aa3d
00000150: b2ae bfbc 5c16 4d3e 6d92 2cbe 57bc e0bd
00000160: 5379 2a3e b254 153d ff22 383e a56b b3bd
00000170: dcb6 cc3d e027 90bd fb5c 003c 4551 37be
00000180: 97f8 39be f297 fc3d 76e8 3fbe f5d2 b4be
00000190: b7e8 3ebe c7a6 00be e5fa 153e e42e 54bd
000001a0: 8bb1 06be 0452 a3be 0a0e aabb c733 0c3e
000001b0: 6b89 f73d 3664 23be 0f88 3b3d abb3 d83c
000001c0: b5a8 99be 95b7 96bc 7411 513e 10d7 96bd
000001d0: 92e1 76be 36a7 3e3e 54b7 1abc 8b0f 14be
000001e0: 54df 90bd 8d56 3a3e 7e2e e9bd c670 47be
000001f0: e1f2 983d 2c4e dd3d f891 87be 300a 123b
00000200: 7f61 173e 9b28 303e 4596 ff3d 2279 03be
00000210: 4656 a3bd 467d 6fbd 45f4 a4bc ad40 4a3e
00000220: a18c 813c 7a9a 40bd 3412 ccbd 0b73 a83d
00000230: f404 02bf 0f95 6ebb bfc0 92bd d4f4 b6bc
00000240: 27e0 0ebe 99bd 833e bb6f ddbc 6417 4fbc
00000250: c920 873e 833e 7a3e 6848 893e 1634 9ebe
00000260: b1d7 cc3d 959c d33d a333 58be 2d6a 313e
00000270: 1fdc 883e c19b 533e 87b5 06be a8a0 623e
00000280: 1c22 9fbe 8797 09be d4c0 2ebd 71ec 433e
00000290: 1ada aebd 48cb 25be f52b 8a3d 4a41 873d
000002a0: 6e62 553e bb65 78bd 3fd3 e1bc 9e44 eb3d
000002b0: 6567 62be b424 1ebc a7de 9fbe 39cb 9c3e
000002c0: 5fda 8abe 7a4a 053e 289b c9bb 273b 4f3e
000002d0: fc79 be3d 1ae1 113e 5f7f 85be 184a 6bbd
000002e0: 1b17 38bd 657d 343e f53f 1f3c 6dc7 2ebc
000002f0: 004d 79bd cfb2 423d b8cb 44be 6d1b 8dbe
00000300: f9c6 753e 3423 31bf 4f6d b4be fc65 fdbe
00000310: 8cbe 2ebd 9ffb 52be edea 99be 4569 04be
00000320: 3c8c 633e 9697 4bbe d6f7 11be 2bb9 72bc
00000330: 6b69 fb3e ce36 82bc 9e62 d23b 4c1b f2bc
00000340: 0511 b1be 8fed c63e 3ba1 02be 03c8 6a3e
00000350: 3514 a0bd 6afb 133f 5550 7ebe 9b3a d8bd
00000360: a0d7 eebd f465 763d 6430 ea3e be0b 7bbe
00000370: 1a2c f43d 400a 99be e927 c7be 9815 8dbd
00000380: 5bc9 173d 7918 663d 7933 90be ae94 11bb
00000390: 3051 d6bd 5c9f 1bbe a3a2 2ebe dee6 39bd
000003a0: 3aed 81bd ecb8 8b3d 8a48 9d3d 5718 c3bc
000003b0: e954 34be bf8f ffbd 0e10 2f3e dafa 20be
000003c0: c031 f3bd 3cf9 5d3e 7d65 afbd 525d 8cbe
000003d0: 9d30 babc 165b 4a3d a808 0cbe 6cba 46be
000003e0: f17c babd 90ca dcbd 35e8 56bc dd17 4e3d
000003f0: 2fdd 1cbe 62ad 443e 260b 8abc 7c98 72bd
0.03354937 -0.24860781 -0.5083981 0.18355721 -0.3020829 -0.010124753 -0.08450946 -0.37642944
0.17360221 -0.27270442 -0.2353884 -0.10402976 -0.2031356 0.023412611 -0.07146586 -0.015701568
-0.10947162 0.043214057 -0.0032704782 -0.19575681 -0.36246216 0.059148613 -0.10379723 0.042286742
0.16862085 0.522326 -0.071275316 0.0795862 -0.055959877 -0.23567721 -0.056824118 -0.18983859
-0.08751578 -0.06889739 0.05966716 0.06898487 0.089780234 -0.17711371 0.2654526 0.14752404
-0.009162862 -0.14515467 -0.016251082 0.0040360717 -0.04206619 -0.039223332 -0.14680403 -0.08170312
0.096365854 -0.09065744 -0.09856039 0.022254802 -0.22503982 -0.20321035 -0.2391923 0.29297215
-0.08938443 -0.364186 -0.13276859 -0.17115514 0.12832883 -0.1399309 -0.028844614 -0.066772364
-0.18242987 -0.24856238 0.17193004 -0.08209283 0.098193206 -0.28125286 0.17036572 0.0114260735
-0.1754524 -0.22342153 0.11921994 -0.014519505 -0.051121816 -0.1312456 -0.16573869 0.05586415
-0.047030997 -0.15143615 -0.06888955 0.08328123 -0.02339873 0.2002806 -0.16852732 -0.10973423
0.16647844 0.036457725 0.179821 -0.08760766 0.09995815 -0.070388556 0.007834668 -0.17902096
-0.18161236 0.12333669 -0.1874102 -0.35317197 -0.18643461 -0.1256362 0.1464649 -0.05180253
-0.13153665 -0.3189851 -0.005189662 0.13691626 0.12086757 -0.15956196 0.045784052 0.02645286
-0.30011526 -0.018398086 0.20416814 -0.07365239 -0.24109486 0.18618473 -0.009443123 -0.14459054
-0.070738465 0.18197079 -0.11385821 -0.19476613 0.074682005 0.10805926 -0.26478553 0.0022283904
0.14783286 0.1720299 0.124798335 -0.12839177 -0.0797544 -0.05846908 -0.020136008 0.19751234
0.015814127 -0.04702232 -0.099644095 0.08225068 -0.5078881 -0.0036404764 -0.0716567 -0.02233354
-0.13952695 0.2573059 -0.027030816 -0.012639854 0.263922 0.24437909 0.26813054 -0.30899113
0.10002077 0.103326 -0.21113448 0.17325659 0.2673044 0.20664884 -0.13155185 0.22131598
-0.3108071 -0.1343671 -0.042664364 0.19133164 -0.08537693 -0.16190827 0.067466654 0.0660425
0.20838329 -0.060643893 -0.02756655 0.11487697 -0.22109754 -0.009652305 -0.31224558 0.30623797
-0.2711973 0.13016692 -0.0061525293 0.20237409 0.093006104 0.14246026 -0.2607374 -0.05744371
-0.04494391 0.17625959 0.009719838 -0.010667664 -0.06086445 0.047533806 -0.19218338 -0.27559987
0.24001683 -0.6919434 -0.35239646 -0.4949187 -0.04266219 -0.20603798 -0.30062047 -0.12930782
0.22221464 -0.19882044 -0.14254698 -0.014814655 0.49103865 -0.015895274 0.0064204475 -0.029554032
-0.34583297 0.38853118 -0.12756817 0.22927861 -0.07816354 0.578055 -0.24835332 -0.10558053
-0.11662221 0.060155824 0.45740044 -0.24516198 0.11922474 -0.29890633 -0.38897637 -0.06888884
0.037057262 0.056175683 -0.2816427 -0.0022213864 -0.10464704 -0.1519751 -0.17054228 -0.045386188
-0.063440755 0.068223804 0.07679851 -0.023815317 -0.17610516 -0.12478589 0.17095968 -0.15720692
-0.118747234 0.21677107 -0.08564279 -0.27414948 -0.022728259 0.049403273 -0.13675177 -0.19407052
-0.09105862 -0.10780823 -0.013116886 0.050315727 -0.1531875 0.19206765 -0.01685102 -0.05922745

lstm.bias_ih_l0 f4 [128]
00000000: 22b1 b6bc 1943 403e 6123 a93d a6d4 843e
00000010: cefa a83d b00c 193d 2789 6a3e 4c5d b13d
00000020: db02 e23d 95dc a7bd be08 bf3d ee23 423e
00000030: 6787 1e3e c42e 41bd fc09 633d da6c b53d
00000040: 5ceb a23d 18df 11bd 9d26 c03d de97 053c
00000050: 015f 723e b1e5 29be c534 e1bc d734 453e
00000060: bfb2 89bd 42b1 f83c 3eff de3d 4bf1 7f3d
00000070: 0121 013e 0f9e 573e 3d59 eabd 0e53 033e
00000080: 3c4d d9bd 3fbd 8f3e 62d0 193e b76f e03d
00000090: e4b2 9c3d 7766 f33d 134f b33d 5a86 603b
000000a0: c723 3c3c 774a e73d 4d4e f23d 4ce2 46be
000000b0: 8bbb 053e 1376 643d f0c2 dabb 7f47 c83e
000000c0: 4806 e13c 8049 8abd 019c b93d 140d 8c3e
000000d0: 3bea 683e c101 ec3d 7361 093e b82d 5f3e
000000e0: f2b5 933d 2094 c5bd 9410 33bd 3729 7fbb
000000f0: cadf b5bc c546 863e bdf2 4dbd 920b c33d
00000100: d2f0 203e 35f7 a1be b030 7dbd f162 12bd
00000110: 539a 01be a0c2 2dbe 57a1 02be df5b 60bd
00000120: 264b 43be 9eb3 14be 30bb 9c3b 2920 c83d
00000130: a452 bebc f93b a33d 86e5 d3bd bc1a e93d
00000140: 6799 e0bd acf8 1cbe 969d 563b 2883 88be
00000150: d7bd d8bc 1c93 17bc a88c f6bb 5192 913d
00000160: 09af a73d be03 2cbe b6a6 19bd f9b3 64bd
00000170: 64e1 d9bd cede 51be 9ace 8bbd bd4d a1bc
00000180: 9c3d 993e bab4 bb3d 7743 7e3e d16c 253e
00000190: fce9 3dbd 73c3 0d3e f7ab bf3c 5aaf 333e
000001a0: 73a1 843e a2f0 39be d9de 493e 2bd9 6d3e
000001b0: 32e1 4d3e ced5 183e afb2 8e3e c86b 8f3c
000001c0: 481f 7abd 3149 8c3e d61e 713c 7508 c53e
000001d0: 1a44 bc3d 642f a13e 556c a53c a7a1 263e
000001e0: 506e 49bd 383c ef3d ddb2 35bc 396c 06be
000001f0: 82b0 c6bd 7e88 033e 3f44 573e 6e9f 483e
-0.02230126 0.18775596 0.08258701 0.25943488 0.08250962 0.037365615 0.22903882 0.08660373
0.11035701 -0.081963696 0.09327839 0.18959019 0.1548134 -0.04716374 0.055429444 0.088586524
0.079550475 -0.03561315 0.09382365 0.008153884 0.23669054 -0.16591527 -0.027490983 0.19258438
-0.06723546 0.03035796 0.10888527 0.062485974 0.12610246 0.21056388 -0.11442802 0.12824652
-0.106104344 0.2807407 0.15020898 0.10958808 0.07651308 0.11884778 0.087553166 0.0034259767
0.011483139 0.112935 0.11831341 -0.19422263 0.13059823 0.055776667 -0.0066760704 0.39117047
0.027468815 -0.067523 0.090629585 0.27353728 0.22745602 0.11523772 0.1341608 0.21794784
0.07212438 -0.09647393 -0.043716982 -0.0038934478 -0.022201438 0.26225868 -0.05028032 0.09523691
0.15716866 -0.31633916 -0.06181401 -0.03573889 -0.12656526 -0.16968775 -0.12756859 -0.054775115
-0.19071636 -0.14521644 0.0047830567 0.09771759 -0.023232765 0.07970423 -0.103465125 0.11382052
-0.10966759 -0.15329236 0.0032747737 -0.26662564 -0.02645771 -0.009251382 -0.0075240918 0.07107986
0.08187682 -0.16798303 -0.037512504 -0.055835698 -0.10638693 -0.2049515 -0.068265155 -0.019690389
0.29929817 0.0916533 0.24830423 0.16154791 -0.046365723 0.13844089 0.023397429 0.1754736
0.25904426 -0.181582 0.19713916 0.23227374 0.20105436 0.1492531 0.278707 0.017507449
-0.06106499 0.2739959 0.0147168245 0.38483015 0.09192677 0.3148147 0.020193258 0.16272603
-0.049177468 0.11681408 -0.011090008 -0.13127221 -0.09701635 0.12845036 0.21022128 0.19592068

lstm.bias_hh_l0 f4 [128]
00000000: 4812 893e 9ad8 adbc deda 473e b2d9 e33d
00000010: 4065 38be 4a6c 133e 2980 3e3c 697c 04be
00000020: 9b84 cf3d 9625 193e 8bc8 6ebd fb69 4e3a
00000030: 4508 173e 8cc2 fabc fd1f 863d be50 dbbc
00000040: d47b 1d3e e22b d23d a6eb 1bbe c699 3fbb
00000050: 3e59 263e b516 0dbe 2fc7 50bd 9e6f b63d
00000060: 981b 313e ebc3 56be d878 f83d 71f5 f6bd
00000070: 15e1 43bd c102 a03e e531 1c3e 0067 c93d
00000080: f635 023e 6d46 69bd 92b5 063e 1d01 ab3d
00000090: be49 3c3e f800 143d 989a c03d 28cd 4e3d
000000a0: cfb7 133e a570 103e f77b c4bd fdcc 29be
000000b0: 33ff 763e 945d 8e3d 51fd 1d3e 4627 3e3e
000000c0: 5eab 603c 495b 043e 29a3 d53d 23b7 703e
000000d0: e4e8 3a3e 9c86 8a3d a623 0a3e 455a 553d
000000e0: 9215 7a3e bb8e 67bd 5f4c 453e a46c 6d3d
000000f0: 2b82 233e 048a a23e 27e7 f83d b918 903d
00000100: 46a1 763d 366f 6c3c 9429 fb3c e374 b9bd
00000110: 0187 ddbd 6d7b d8bd 4197 9dbd cf70 efbc
00000120: ab64 56be c4a4 3a3d ed94 ecbc 4fb2 223d
00000130: 353c 5cbd 0ba0 30bd 8d6e f03d 757f 313d
00000140: 546b e2bd 388e b53d 4f44 8ebd 0f02 673d
00000150: 8026 12bd 2d50 773e 9d17 2dbe 3ac5 3b3d
00000160: 03c5 6a3e 63d4 bd3d e696 343e 50bf 86bd
00000170: 8c60 85be 6907 2fbe 4088 2dbd c638 98be
00000180: 2e28 213e cbdc 813e 9004 703e aa05 8d3e
00000190: dc51 b13c 3029 313e 7522 9f3d da07 953e
000001a0: f3f2 683e 9d1a c6b8 72b2 04bc a2ab 713d
000001b0: eef2 88bc 9ae1 003e a215 2dbd 1fb7 c93d
000001c0: 681d c8bd 8088 0c3e 6213 543c 6d7c 113e
000001d0: e6ba 22bc 066e 373d 7cc2 b43d 9a40 1d3e
000001e0: 9e4b 8d3e 7c3c 42bd 69c1 da3c e59e 19bb
000001f0: dff7 2c3e 1c74 5cbd 209c 2b3e 402d df3d
0.2677176 -0.021221448 0.19517085 0.111255065 -0.18007374 0.14396778 0.011627235 -0.12938084
0.10132714 0.14955744 -0.05829672 0.00078740687 0.14749248 -0.030610345 0.0654907 -0.0267719
0.15379268 0.10262276 -0.15226611 -0.0029235943 0.1624498 -0.13778193 -0.050971206 0.08908008
0.17295682 -0.20973174 0.12132424 -0.12058533 -0.047822077 0.312521 0.15253408 0.09834099
0.12715897 -0.05695193 0.13155201 0.08349822 0.18387505 0.036133736 0.094044864 0.05048862
0.14425586 0.1410547 -0.09593957 -0.16582103 0.24120788 0.06951442 0.15428664 0.18569669
0.013712732 0.12925448 0.10431511 0.23507361 0.18252903 0.06763956 0.13490161 0.05208804
0.24422291 -0.056532603 0.19267415 0.057964936 0.15967624 0.31745923 0.12153464 0.070359655
0.060212396 0.014430812 0.030659474 -0.090554975 -0.108167656 -0.105704166 -0.07694865 -0.029228596
-0.2093684 0.04556729 -0.028879607 0.03972083 -0.053768355 -0.04312138 0.11739836 0.043334443
-0.110556275 0.08865017 -0.069466226 0.056398448 -0.035681248 0.24151678 -0.16903539 0.045842387
0.22926717 0.09269025 0.17635688 -0.06579459 -0.26050222 -0.1709267 -0.042366266 -0.29730815
0.15737984 0.25363764 0.2343924 0.27543384 0.021645479 0.17300868 0.07770244 0.29107553
0.22748928 -9.446333e-05 -0.008099185 0.059001572 -0.0167174 0.1258606 -0.04225696 0.09849381
-0.09771234 0.13723946 0.012944074 0.14207621 -0.009932255 0.04478266 0.088261575 0.15356675
0.27596754 -0.047420964 0.026703553 -0.0023440656 0.1689143 -0.053821668 0.16758776 0.10897303

lstm.weight_ih_l1 f4 [128, 32]
00000000: 8ba7 a03d 793e b73d 26fc 053e 6245 8ebd
00000010: f2e0 f0bd 479b 773e e1be 72be 2149 633d
00000020: 2440 193e a0b4 63bd 1806 503e 0724 b9bd
00000030: 4cfb 27be f03f 153e 8546 803e c400 40bd
00000040: 9268 f7bc a412 2a3e 7b01 a63d 2b89 983d
00000050: ae90 383c 422d 883d e84b d93e 7744 313e
00000060: 65f2 03be ef61 91bd 7bb0 37be 2eef 02bc
00000070: 2eaa b03d ad8a 383d cff8 d23d 8336 5e3e
00000080: 47bf 303d c7df fdbc 2eb9 8f3c 8950 d639
00000090: 42ea f3bb acb7 b13d 3bfb 53be 8e98 0a3d
000000a0: 605a 4fbe 78c1 12be 2828 523c 12eb 1fbe
000000b0: c6b2 eb3d d821 d4bd 727a 44bd 4d1b 5c3e
000000c0: 6aa1 b5bd 663e 5ebe 5f23 a13d 1ae2 e13d
000000d0: 8325 98bd 308d c8bd 3e06 ea3d 1e8e 89be
000000e0: b42e bcbd f681 003e 8a15 033e 39ab 943e
000000f0: eb36 0abd f94c d1ba 6fde dd3d 426a 443e
00000100: 5dd6 70bd 987f b0bc 6c66 8c3d 2e0e 0dbd
00000110: 3064 9fbe 116d fa3c 3ab8 f23c 66fa c13d
00000120: 48b8 bd3c b710 01be af89 2abd 5b2b 01be
00000130: d52b 88bc 964b 063e a818 313e 7b61 42bc
00000140: 2862 893d 8397 563e e865 2f3e 73ff 343e
00000150: f46f 04bc fe2c 373e 77a7 87be 4ed2 f4bd
00000160: 3583 80bd 326f 333e 0dc4 9b3e 52fe bbbc
00000170: ef90 203e cb56 783d ff95 3f3d 1eae d8bd
00000180: 401c 04be ec99 19be 72c7 2fbe 9b39 86bd
00000190: 520b 343d 1fc2 8e3c d622 3d3e 3e5b be3d
000001a0: b943 9b3d 4006 46be 6b5b 843c ee67 423e
000001b0: 645e 84bd aaaf c2bd 3b0d a93d cc1e 663d
000001c0: fc36 093d fe2b a3bd 71ea a1bc 7bc3 1b3e
000001d0: b7dc 923d 70bf 343d 7cc4 843e 3040 08be
000001e0: d3ac 603d 7d5f d3bc fd4d c7bd 4d49 6bbd
000001f0: cdf9 3fbe 6f51 143c 7b0e fabb 303a bf3d
00000200: c352 1bbe 2ce7 56bd 026c e2bc 02d3 3abe
00000210: 521e 82bd 779b ecbd 4f9e 9ebd 61eb 87be
00000220: 19aa 093d d1a2 88be ea56 3dbe bd68 9a3e
00000230: b8a0 0f3d b66b 1abd 07c8 fa3d e93d 763d
00000240: 5ef8 ab3d 3fcf 5c3e 72fd d33d f073 84be
00000250: 0acb 8b3c 1ab0 963e 0bbd 553e a232 fc3c
00000260: 77e0 833c e1de 6c3e c4e6 2bbd fc8a a83c
00000270: 8d89 debd 19dd 20be 39d7 7abd f502 933d
00000280: ca26 86be 085e 2bbd e745 dbbe b828 b2be
00000290: b7de e2be f03d 8c3d cf6d 763e dd5f f0be
000002a0: 777e 9d3c 790c 77bd 4039 26be 2571 9a3e
000002b0: 8156 2e3e 9a67 9cbe 6927 6a3e d4cc 9cbd
000002c0: 1aff 03bf a5a1 863d 7fc6 af3e de0f a8be
000002d0: 835f 3cbe 0a86 cfbd 393a c73d 4455 18be
000002e0: b560 64bd 3760 c7bd fac3 94bd 514f 033d
000002f0: c2fe 9bbe d6ca 653e d6a1 dcbe 76be 94be
00000300: 9782 aabd fb0b 22be 18c6 76bb dadd 803d
00000310: 9ea3 fbbd 7b95 673e f205 0bbe 41b2 6bbd
00000320: a695 a1bd d4cb 36be 66e3 e43d 3e6d 60be
00000330: f009 073e a8ca 4ebe 2e88 dcbc 63d9 89bd
00000340: 6b4e 30be e4eb 3a3e 9ad5 b63d a317 843b
00000350: 5734 b8bd fd93 013e 25c7 3bbe 49a3 613c
00000360: 5fa2 1bbd f799 793e 43b6 8a3d 894a 343d
00000370: 1f88 3a3e 1d15 6cbe d68e 15bd 83e0 f0bd
00000380: c7c1 403e 2418 9c3d e288 5f3c e587 a6bd
00000390: 4367 c5be 5689 723e a432 013e 9d79 9d3d
000003a0: fe6b 183d 8c1c fabd 4b31 5ebe fa56 95be
000003b0: daf0 3dbe e127 043d d78a 393e 6acc e93c
000003c0: 603e 4a3e f4ff 4cbe cfb8 75bd cb99 e63d
000003d0: 7bcf b3bc c831 5a3e 009b 8a3e 11f6 bfbe
000003e0: 33c7 b43e 200c 41be 59c6 a03e da6f 3dbd
000003f0: e9ac 2a3e d333 c03d eb2e ac3e ab56 853e
0.07844456 0.089474626 0.13084468 -0.069468275 -0.11761655 0.24180327 -0.23705627 0.055489663
0.14965874 -0.05559218 0.20314825 -0.09040075 -0.16404456 0.14575171 0.25053802 -0.04687573
-0.03020123 0.16608673 0.08105751 0.07448038 0.011264963 0.06649257 0.42440724 0.17311274
-0.12885435 -0.070987575 -0.17938416 -0.007991595 0.08626209 0.045054127 0.10301363 0.21700482
0.043151166 -0.030990494 0.017544355 0.00040877264 -0.007443697 0.08677611 -0.20701306 0.033836894
-0.20249319 -0.14331615 0.012826957 -0.15617016 0.11508708 -0.10358018 -0.047968335 0.2149479
-0.08868678 -0.2170349 0.078680746 0.110294536 -0.0742903 -0.097925544 0.11426972 -0.2686624
-0.091885954 0.12549576 0.12801185 0.29036883 -0.03374378 -0.0015968374 0.108334415 0.19181159
-0.058798183 -0.021545216 0.06855473 -0.03443735 -0.31131124 0.030569585 0.029628862 0.09471588
0.023159161 -0.12604032 -0.04163521 -0.12614195 -0.016622463 0.13114771 0.17294562 -0.0118640615
0.06708175 0.20956235 0.17128718 0.17675571 -0.008083332 0.17888257 -0.26494953 -0.11954175
-0.06275026 0.17522886 0.30423012 -0.022948418 0.15680288 0.060629647 0.046773907 -0.10580085
-0.12901402 -0.15000123 -0.17165926 -0.06553956 0.04395611 0.017426549 0.1847032 0.09294747
0.075812764 -0.19338322 0.016156873 0.18984959 -0.06463316 -0.095061615 0.08254477 0.056181714
0.033499703 -0.07967375 -0.01976511 0.15211289 0.07171004 0.04412788 0.25931156 -0.13305736
0.054852318 -0.025802368 -0.09731672 -0.057442952 -0.18747635 0.009052618 -0.0076311207 0.0933727
-0.1516829 -0.052466556 -0.027639393 -0.18244556 -0.063534394 -0.1155309 -0.07745039 -0.26546767
0.033609483 -0.2668672 -0.18490186 0.30158034 0.035065383 -0.037700377 0.122451834 0.060117636
0.08396982 0.21563433 0.10351075 -0.25869703 0.01706459 0.2943123 0.20872895 0.030785862
0.016098244 0.23131897 -0.041968122 0.020574085 -0.108660795 -0.15709342 -0.06124041 0.071782984
-0.2620147 -0.041837722 -0.4282677 -0.3479669 -0.44310543 0.06847751 0.24065326 -0.46948138
0.019225342 -0.06031463 -0.16232777 0.30164447 0.17025186 -0.30547792 0.22866596 -0.07656255
-0.5156113 0.065738 0.34331128 -0.32824606 -0.1839581 -0.10132988 0.09727902 -0.14876276
-0.05575629 -0.097351484 -0.07263942 0.032058064 -0.30467802 0.22440657 -0.4309222 -0.2905156
-0.08325689 -0.15824883 -0.0037654694 0.06292315 -0.12287067 0.22615616 -0.13576487 -0.057543043
-0.07889871 -0.17851192 0.11176185 -0.21916673 0.13187385 -0.20194495 -0.026920404 -0.06730916
-0.17217414 0.18254048 0.0892746 0.004031138 -0.08994358 0.1265411 -0.18337686 0.01377184
-0.037996646 0.24375139 0.06773045 0.044016395 0.18215989 -0.23054929 -0.036513172 -0.11761572
0.1882392 0.07621792 0.013643475 -0.081313886 -0.38555345 0.23685202 0.12616974 0.076892115
0.037212364 -0.12212476 -0.21698491 -0.2916792 -0.18548909 0.032264594 0.1811937 0.028539855
0.19750357 -0.20019513 -0.0599907 0.112598024 -0.02194952 0.21308053 0.2707138 -0.3749242
0.35308227 -0.18852282 0.31401327 -0.046249248 0.16667522 0.09384885 0.33629546 0.26042685

lstm.weight_hh_l1 f4 [128, 32]
00000000: a08a 063e 9f8e 7d3c acb1 873d a6a0 d53d
00000010: b4b0 90be 97db 82bd 3ca3 e3bd 624b 1f3c
00000020: 3683 443e 72b1 96bd 41c9 ef3d 2aa0 92bd
00000030: b6f9 71be e3b7 13be e347 09bd 89a8 d73b
00000040: b5ff 7bbe 410e 53be 1418 db3d 8176 67be
00000050: b16e 24be 3716 bdbd 6622 0ebe b6fe 1ebe
00000060: 0c3e d63e 653a ae3c 2924 d73d e383 123d
00000070: 4134 5e3e 63de 003e d22f 83bd 63b7 e7bd
00000080: 0acb 5ebd 020f 443b 367c 94be 3fe9 723d
00000090: e639 083e d748 313d 440f 80be 14a9 38be
000000a0: fe25 0f3e 447d 96be 6816 1d3d 7f52 b73d
000000b0: f897 f4bd 54f8 3d3e 2b5d 293d d144 3e3d
000000c0: 814f 7cbe 5e5f 5bbd cd88 e4bc 0d95 62be
000000d0: 01f3 9cbe ae9c fabd a14a eebc b83c 76be
000000e0: 0b0a 033e dc7d 0abd b210 92be ed03 6dbe
000000f0: d17e 5dbd cab8 fa3d bfe7 a1be 8bab 25bd
00000100: 2403 8b3d a86a 1e3e 18e9 66bd 26bf 2bbe
00000110: 94cf e03e dbf0 883e ddbb 6c3e d4c4 bbbe
00000120: db10 413e 5027 703d 5f7f 04be cc61 97bd
00000130: de5e e23d a311 fbbd 0324 22be 851d 853d
00000140: f432 4b3e 0eae 2bbe 8221 d7bd b3fa 423e
00000150: b029 853e bbb8 9fbd cd05 4a3c 07f8 53be
00000160: 06f1 fabd fcb9 a23d d820 5d3e f9c9 04be
00000170: fc7b a0bd 833e 83be fbb1 8abd 281a e23d
00000180: ffc0 3cbe dbe5 4c3d 1433 513e 1ca5 bf3c
00000190: 206e 5cbe 42aa 203d 8dab 34be 68f9 10be
000001a0: d83a 113e e06b 44bd 131a 99bd 1d9d 213d
000001b0: b5f4 70be c857 07be 22af c6bd bbe4 ad3c
000001c0: 6d37 a73d 31bb 243e 6043 75be 5809 293d
000001d0: 5682 903d b976 3fbc 8b00 ffbd cc72 dc3d
000001e0: b902 50be ab9c 3c3d fd4a 85bd ecef 0d3e
000001f0: dff7 013e 5f65 efbc 1467 ff3d 2e91 243e
00000200: 0bf3 d83d 1d99 263d 1bde 463d a3f4 2c3c
00000210: cd94 753e f8fa 44be 0086 64bd c3e3 f2be
00000220: 8606 193e 62ea ffbd 7c95 963d bb0d cb3d
00000230: 6496 a4be 841c 01be 13f4 723d 8493 363d
00000240: 79ef b6bc ffcd 07be 50c0 39be 989b 57bd
00000250: 3a8d 6d3d f85f a6bd d688 f4bd 776d aabc
00000260: f012 2e3d d6a4 59be 2cbd 66bd 867e 2cbd
00000270: 5616 033e 7e83 8e3d ab77 f7bd 89a3 d83d
00000280: 5ce7 49bd 67d1 203e ee9f 6b3e 5c10 3e3e
00000290: cb5b 05be cd0c c5bb 22e8 26bd 0183 b5bf
000002a0: fb00 75bb 1f5a 0dbd 1834 53bd 3af7 c33e
000002b0: 8ebb b9bc ea9b 45be dad5 0c3d 93f0 aabd
000002c0: cbd1 10bd 7be6 9d3e 0680 a4be 0aaf 0dbe
000002d0: a999 a6bd 883a 213e 7578 eebe c83b d6bd
000002e0: 84f6 803d c87b fb3c 5495 253e 4618 103f
000002f0: 1800 73be b567 92be 732e b13b 0cc7 b23c
00000300: b4a9 a4bc 5cb2 9e3e 4b99 c8be 40d4 753c
00000310: d30c b03e 4fc3 6f3e 51fd 64bd be40 63be
00000320: 9747 113e 09b6 c3bd d54f 8cbd 547a 78bc
00000330: 6289 29bc e49a c5bb 6ff7 46be aad4 933d
00000340: 3c5e 4c3d 45db 62be b3be 66be e1e8 e5bc
00000350: 93ff 723d 266b 123c 5c07 2cbe 91f2 7f3c
00000360: a58a aebc 306a 983c c12d 143e 4f68 c1bd
00000370: 385a 2ebd 463c d5bd 6007 bfbd 1165 8a3d
00000380: 7536 0e3d 2a16 813e 298b 3bbe 3091 7dbc
00000390: 19e6 4a3d e503 253e 688d 91bd 448d 663e
000003a0: 07b8 febd b9d2 0ebd f2d7 1c3e 5c4a c43d
000003b0: e3fb 6a3d a1ee 1e3d a30b c9be 0e74 adbc
000003c0: ecf0 033e c564 493e 0fdf 59be 1cf2 5c3d
000003d0: c6da 393e fe8d 05be 028f 30be baab a9bd
000003e0: bde5 85be 4f15 733d 1aae 143e 5f9f 083e
000003f0: 394d 8ebe 9ac2 94be 10a8 343e 66e0 9bbc
0.13138819 0.015475898 0.06625685 0.10431032 -0.28259814 -0.0638954 -0.11115119 0.0097225625
0.19190678 -0.07358064 0.11708308 -0.07159455 -0.23630413 -0.14425616 -0.033515822 0.0065813703
-0.24609263 -0.20610906 0.10697952 -0.226038 -0.1605785 -0.09232753 -0.1388031 -0.15526852
0.41844213 0.021268079 0.10504944 0.03577031 0.21699621 0.12584834 -0.064056054 -0.11314275
-0.054392852 0.0029916172 -0.29001015 0.059304472 0.13303337 0.043282356 -0.25011647 -0.18033248
0.13979337 -0.29392445 0.038351446 0.08951282 -0.11943048 0.18551761 0.041348618 0.046452347
-0.24639703 -0.053557746 -0.027897263 -0.22127171 -0.30654147 -0.122369155 -0.02908832 -0.240466
0.127968 -0.033811435 -0.28528363 -0.23146029 -0.05407602 0.12242277 -0.3162212 -0.0404468
0.067877084 0.15470374 -0.05637464 -0.16772136 0.4390837 0.26746258 0.23118539 -0.36673605
0.18854086 0.05863124 -0.12939213 -0.073917 0.11053251 -0.12259223 -0.1583405 0.06499771
0.19843656 -0.16765615 -0.10504438 0.19040947 0.26008368 -0.077989064 0.012330485 -0.20700084
-0.12253003 0.0794563 0.2159456 -0.12967671 -0.07836148 -0.2563363 -0.06772228 0.11040145
-0.18432997 0.050023895 0.20429641 0.02339416 -0.21526384 0.03922487 -0.17643566 -0.14157641
0.14182603 -0.04795444 -0.074756764 0.039456476 -0.23530848 -0.1321708 -0.09701373 0.021227231
0.081648685 0.16087033 -0.23951483 0.041268677 0.070561096 -0.0116860205 -0.124512754 0.10764083
-0.20313539 0.046047848 -0.065084435 0.13861054 0.12692212 -0.029223142 0.124708325 0.16071007
0.10593232 0.040673364 0.04855166 0.010556373 0.23982544 -0.19236362 -0.055791855 -0.47439393
0.14943895 -0.12495877 0.07352731 0.09914728 -0.3214599 -0.12608534 0.0593148 0.044574276
-0.022330986 -0.13262175 -0.18139768 -0.05263862 0.057996012 -0.08123773 -0.11940162 -0.02080415
0.04249853 -0.21254286 -0.056332752 -0.04211285 0.12801489 0.06958674 -0.12083372 0.10578067
-0.049292907 0.1570488 0.23010227 0.18560928 -0.13023297 -0.006013489 -0.040748723 -1.4180604
-0.0037384618 -0.034509774 -0.051563352 0.38274556 -0.02267244 -0.19297758 0.034383632 -0.08346667
-0.035356324 0.30839905 -0.32128924 -0.13836303 -0.08134777 0.15744984 -0.46576276 -0.10460621
0.06297019 0.030698672 0.16170245 0.5628704 -0.23730505 -0.28594747 0.0054071485 0.021823429
-0.020100452 0.30995452 -0.39179453 0.015004218 0.34384784 0.23414348 -0.055905644 -0.22192666
0.14187466 -0.09556205 -0.06851164 -0.015165884 -0.010347696 -0.0060304273 -0.19430326 0.07218297
0.049894556 -0.22153957 -0.22533683 -0.028065147 0.059325766 0.008936679 -0.16799682 0.015621797
-0.021306345 0.018605322 0.14470579 -0.094437234 -0.042566508 -0.10411887 -0.093275785 0.06757558
0.034719903 0.25212222 -0.18314804 -0.01547651 0.049535844 0.16114767 -0.07107049 0.22514826
-0.12437444 -0.03486893 0.15316752 0.095844954 0.057369124 0.038801793 -0.3926669 -0.021173503
0.12884873 0.19667347 -0.21276496 0.05394183 0.18149862 -0.13042447 -0.17242053 -0.08284707
-0.2615184 0.059346493 0.1451954 0.13342045 -0.2779329 -0.2905472 0.17642236 -0.0190279

lstm.bias_ih_l1 f4 [128]
00000000: 0f04 233c f9a2 533e f2a0 b53d c065 1a3d
00000010: 503b ac3d 32dd e73e d11a 803d 3da1 fe3c
00000020: 090e a3bd 6b56 023e 00a4 61ba 3602 093e
00000030: 7182 5f3e 5b5d 7b3e 1435 a73e 5cb6 88bd
00000040: fd15 2bbd 88d7 303e 55a6 993e 570e dd3d
00000050: bde5 cd3d 45c3 ba3d d98e b63d fa5d 06be
00000060: af90 8bbd 7884 1d3e e45b 8b3e 31a4 733e
00000070: 8bec 163e 5cc3 343e 8bfa 01be 2ef6 063d
00000080: 869e 973e ee62 4e3d acd0 913d cfb9 ff3c
00000090: d399 b9bd 2dbe 6bbe 8503 753e 956a 233e
000000a0: 8a49 543d 68c9 5f3e bf50 023e 45c1 373e
000000b0: 482c 503e ef23 aa3d 9a31 203e e873 463d
000000c0: fdba cbbc 375e 203e 3df2 48bc 35a7 2a3e
000000d0: d045 233c 30c3 433d 1889 7b3e 74d2 cf3d
000000e0: 8460 173c 10dc 353e c4e8 aabd e171 0d3e
000000f0: 8572 193e 23ed b13d 43ad 873d 7b43 02be
00000100: 175b 723d d370 3d3e 8f84 14be 4a3d 083d
00000110: ff04 e73d 88f8 113c 71d7 8cbd ddc6 36be
00000120: 702c 253e 58cb 79bd 8400 153e aa73 403e
00000130: 8bcd 39be 7f16 0ebe ed0d d33b cd21 133e
00000140: 4bd0 ef3d cc16 60bd 774d dc3d 0037 0b3e
00000150: 6c40 1dbc 744a b6bd bb31 7c3b 75ac 3f3e
00000160: c31d 1bbd 2181 0ebe cfc5 51bd dd61 923d
00000170: 3872 e5bc d4b6 a8bd 79b0 243d 9e8f 14be
00000180: 2762 753e ab8d 093e a8af 843e ceda 453e
00000190: 46d8 0d3e 37f8 0c3f 0455 743e 8eb4 2a3e
000001a0: 5888 6b3e 625c 483e fa90 443e 2946 f53c
000001b0: 3123 273e 8218 363e a6c3 243e 96f0 363e
000001c0: 30b9 6e3e 48b5 013e 76a5 f33d 5db9 df3d
000001d0: 4af9 903e c1a8 6b3e 8000 b33e b519 023b
000001e0: e587 683c 6738 8e3e e646 c33e 4d0b 7f3e
000001f0: 6461 2fbc e26d 7b3d 8ff9 fd3d 1068 e13d
0.009949698 0.20667638 0.088685885 0.037694693 0.084097505 0.45285946 0.06255115 0.031082744
-0.07961661 0.12728278 -0.0008607507 0.1337975 0.21827103 0.24547331 0.32657683 -0.06675407
-0.041769017 0.17269719 0.30009714 0.10793751 0.10053585 0.09119276 0.08913965 -0.13121787
-0.068147056 0.15382564 0.27218544 0.23793103 0.14738671 0.17652649 -0.12693231 0.03294962
0.2961313 0.050387315 0.07119879 0.03121653 -0.09062543 -0.23021765 0.23927124 0.15958627
0.051827945 0.21854174 0.12726115 0.1794482 0.20329392 0.08307635 0.15643921 0.04845038
-0.024869436 0.1566094 -0.012264785 0.16665347 0.009965375 0.047793567 0.24564016 0.101475626
0.00923932 0.17759728 -0.08345178 0.13812973 0.14985092 0.08687808 0.06624844 -0.12721054
0.0591689 0.1850007 -0.14503692 0.033261575 0.1128025 0.008909352 -0.0687703 -0.17849298
0.16130233 -0.06098494 0.14550978 0.18794122 -0.18144815 -0.13875769 0.006440869 0.14368363
0.117096506 -0.05470924 0.10756963 0.135952 -0.009597879 -0.089009196 0.003848179 0.18718131
-0.03787018 -0.13916446 -0.051214036 0.07147572 -0.028008565 -0.08237997 0.04020736 -0.1450791
0.23963223 0.13432948 0.25915265 0.19321749 0.13852033 0.55066246 0.23860556 0.16670439
0.2300123 0.19566491 0.19195929 0.029940682 0.16322018 0.17782786 0.16090259 0.17865214
0.23312831 0.1266681 0.118967935 0.10924027 0.28315192 0.23013593 0.3496132 0.0019851748
0.014192556 0.27777407 0.3814003 0.24906655 -0.010704372 0.06138409 0.12401115 0.110061765

lstm.bias_hh_l1 f4 [128]
00000000: 1ce7 7dbd a679 803e 4384 0fbe 74a8 0f3e
00000010: 63bb 073d d197 323f e14e 6f3e fe4a f73c
00000020: 0a6d 563e b4fa 263d aa8b 913e b6c0 563c
00000030: c231 ac3e e302 273e 04be a23e 1875 943c
00000040: bad4 583e 855e 9939 ad23 de3d d886 8ebd
00000050: 30e2 733e 029c 5a3d 9fad 3d3e 34d7 023e
00000060: 0726 0dbe a646 523d 109a d43d b216 38bd
00000070: 0a50 2a3e 0a3b 023e 7d1e 163e 1274 4d3e
00000080: 3654 d23e f6b4 023d f79d 9c3e a289 893d
00000090: 9e78 d8bd 2348 573d 5c93 99bd 6a6d a03e
000000a0: f579 68bd 5e51 70bc 4bf8 0f3d cb33 e63d
000000b0: 888c 8b3d a6e6 113e 4b7e ba3d 4544 293e
000000c0: 7c02 e53d 6492 b93c 9d65 91ba 47e3 6c3e
000000d0: 7643 893d 6e38 6a3e 19f3 8f3e 7b58 fd3d
000000e0: 3461 183e c891 1e3d 9efc c33d dd73 a93c
000000f0: ed91 be3c 8723 2e3d 75ec f0bc fb14 eebc
00000100: 68f0 25be 4b6f 273e 12bc fc3d 2fbc 01bd
00000110: 18ff 0fbe c6ed d23c 5556 16be ca3b 8bbe
00000120: a287 26be 6134 493d 2ea5 243d db71 723d
00000130: 3ec9 9cbd 341a 8f3d 3dc8 6abd 4c7e 5a3c
00000140: f8bd cfbd 05a9 923d b9cb f8bd 1da0 c1bd
00000150: 1bd3 cdbd 91e2 09be 9ea0 12be 49cd ef3d
00000160: e937 a43d f494 94bd 6bd5 1dbe 3a8f 423d
00000170: 8b87 563d 74f9 cbbd 49dd f2bd 4cf1 4d3d
00000180: c2f2 28bd 7727 6b3e 072b 8f3e c469 e4bb
00000190: 4543 0e3e 44bf 043f e21a 023e cac6 bd3e
000001a0: 6a08 d7bc b147 d73d 3069 0a3e 81aa 183e
000001b0: ca84 ab3e b1fc 3e3e a5fb e23d 4fc3 263e
000001c0: ae60 6c3d 848a 113e 0891 813e 4a06 0f3e
000001d0: d62a 343d f3fc a4bc 8f69 9f3e 310d 1cbc
000001e0: f4af b23e 5549 363a 47d3 133e 53d1 ab3e
000001f0: eba6 463e 743d c83c a461 b5bd 5b57 0e3d
-0.06198798 0.2509281 -0.14015298 0.14029104 0.03313769 0.69762903 0.23369934 0.030187126
0.20940033 0.040766433 0.28426868 0.013107469 0.33631712 0.16309695 0.31785595 0.01812224
0.21174899 0.00029252857 0.10846648 -0.06959313 0.23816752 0.053371437 0.18523262 0.12777406
-0.13784038 0.051336907 0.103809476 -0.04494352 0.16632095 0.12717834 0.14660068 0.20063809
0.41079873 0.03191086 0.30589268 0.067157045 -0.10569881 0.05255903 -0.0749881 0.31333476
-0.056756932 -0.014667837 0.0351489 0.112403475 0.068139136 0.14248142 0.0910612 0.16529949
0.111821145 0.022652812 -0.0011092905 0.23133574 0.0670232 0.22873089 0.28115156 0.12370392
0.1488083 0.038713247 0.09569667 0.02068513 0.023262942 0.04251435 -0.029409626 -0.029062739
-0.16204989 0.16351049 0.12340559 -0.031673606 -0.14062154 0.025748145 -0.1468137 -0.27194053
-0.16262677 0.049122218 0.04019659 0.059190612 -0.076555714 0.0698742 -0.05731987 0.013335776
-0.101436555 0.07161144 -0.12148232 -0.09454367 -0.10050031 -0.13465334 -0.14319083 0.11709077
0.080184765 -0.07254973 -0.15413444 0.047499873 0.052375358 -0.09959689 -0.11858613 0.050278947
-0.041247137 0.22964273 0.27962515 -0.006970616 0.13892849 0.5185435 0.12705567 0.37065727
-0.02624913 0.10511721 0.13516688 0.14908792 0.33499748 0.18651082 0.11083154 0.16285442
0.05770939 0.14212996 0.25305963 0.13967243 0.043986164 -0.020140147 0.31135222 -0.009524629
0.34899867 0.00069536763 0.14436065 0.3355814 0.19399612 0.024443366 -0.08856514 0.034751277

fc.0.weight f4 [30, 32]
00000000: 5796 75bd 7a95 01be 8b5f a9bd 0923 6a3e
00000010: 2ef8 193e 8f69 adbf 6159 02bc 4688 8e3e
00000020: 0777 14be 7f0c ca3b 5181 43be 9484 1a3e
00000030: 1881 c1bd 9d2a eebd 7c3d 213f 75cf d53d
00000040: 2eac 1dbe 9263 e4bd 595c 163f 3f62 0b3a
00000050: f2e0 6bbe f120 6f3d d7fa da3d a9d2 e63d
00000060: 6d3d 533e e791 ec3a 869a d4be 961b 7cbe
00000070: 47ee cbba da4a 30be c2db 99be 99ff 70be
00000080: 61f9 13be 238d 41be 0de5 b7bd e4c1 023e
00000090: 36d4 ba3d de71 6dbf 45eb a0bd 1eee 6e3e
000000a0: d90e e9bd 4326 fcbd a17d fbbd 3341 413d
000000b0: 08be 9abd e940 51bd c8bf 0b3f b7ab bebd
000000c0: 93b2 81be fe3b 323d 8e6c 073f d297 b2bd
000000d0: 645f 39be 7c97 88bd b8c3 553e 6473 37bd
000000e0: 760d 453e b7a8 dcbc 7e63 02bf 2df8 0fbe
000000f0: 0d9f 623d 03c2 093d 2405 d5bd 94f9 c63c
00000100: d0b6 ffbc adb4 a8bd f658 97bd 80a1 3d3e
00000110: 649e 983c 6193 3bbf d87f bebd ea2e 9f3e
00000120: 79c4 77be 6b94 b1bd f63f b73d 41a5 a23e
00000130: 6849 9a3d 2de1 4abd a9d5 983e f440 9fba
00000140: fdae 48be 5dae 77bd 5a0b 993e b26a 11be
00000150: ba03 8abe e840 ba3c 8dae 503e 6143 4bbd
00000160: 2497 a93e ef5f 78bd 3010 94be 6742 26bd
00000170: c33c 193d 88c4 b63d 14f6 8fbe 73cc 333d
00000180: 090a f4bd a529 b1bd 2547 7abd 89a3 a13d
00000190: 8abf a43d d44b 03bf 3684 9fbd a91a 523e
000001a0: cf4e 47be 1a0a 6ebe 9a14 853d 70a0 853e
000001b0: 9285 123e 9f88 d73c 4b3a 9d3e de30 5e3d
000001c0: d5f4 b9bc ff4a 5e3d cc69 933e 2f9b 0dbe
000001d0: 1a29 9ebe 2fc3 00be 160b 823e 250c eebd
000001e0: c0e1 b53e a60e 9dbd cf6c 9ebe 1484 183c
000001f0: 63a7 183e c583 d83c 00ef 4dbe bf1d 93bd
00000200: ed9b 3fbe a2bc 35be 1583 19be 08e7 2bbd
00000210: ad99 44bc 096a f4be cb8e e4bd 63c4 683e
00000220: 3358 10be 93f4 c5bd 1725 eb3b 0120 883d
00000230: 180c 293e e673 253e 6216 393e 1365 e03c
00000240: 3519 f9bd 9c6e 28bc 0db2 473e 2f9a 1dbe
00000250: 994d abbe db4b 253b 3648 623e 5514 42be
00000260: 3db4 933e 74ad 5ebc 1795 74be 71c0 95bd
00000270: daff c83d 87c2 6c3e e25d babd 8486 87be
00000280: fe12 2bbe df6a 5ebe b1cf 32be bb6f 93bc
00000290: 6d90 e6bb cee0 a3be c504 b0bd 4be5 033e
000002a0: 46c4 15be f7af 8abe db55 dfbc 32dc f63d
000002b0: bfc9 063e 2acb 083e 47ba 363e 2588 0ebe
000002c0: 6455 7ebe 9015 a5bc 80dc ab3e 61d2 0fbe
000002d0: b984 bbbe b94a 783c fef9 823e 07ff 13be
000002e0: 190c ad3d 548f d9bd a63b b5be 5180 93bd
000002f0: 7d82 a23d 17f4 f73d 2e70 39be cca2 aebd
00000300: d0e5 00be 5074 51be 41d9 14be dace 563e
00000310: 90a9 803c f868 83be 9477 52be db53 0c3e
00000320: 89d3 90be 90ab d6bd 48ef 683d 11ac 303e
00000330: a0ce 0d3d 3f1c 6f3d b410 433e 8451 0abe
00000340: 7fff 48be 2015 59bd 6ddd 8d3e 026b 3fbe
00000350: 9cc3 99be 47bf 71bd b7d7 823e 42df 2abe
00000360: f0cb 783e 955d 0e3c cd62 17be f833 103c
00000370: 81ee 2d3e bd70 853e 067a 66be e349 963c
00000380: 5a6b 1abe bc3d edbd f07b 18be e3ec a23d
00000390: ef76 c23d 215c 2bbe 3c3e 3ebe d2ba 0f3e
000003a0: 9516 53be d8cb 62be 936b dfbc 7640 2a3e
000003b0: 2f46 de3c 6439 af3d b564 e43d 0a45 55bd
000003c0: fd71 12be 7f16 09be d2e3 943e 18c6 1cbe
000003d0: e943 89be 5102 69bb aca6 793e 07b3 2abe
000003e0: 3a11 603e 793e 46bd e20c 9abe f577 863d
000003f0: 076d de3d 6467 a03e f61b b7bb ed00 2abe
-0.05995783 -0.12654677 -0.082701765 0.22864927 0.1503608 -1.3547839 -0.00795588 0.27838343
-0.1449853 0.0061660404 -0.19092299 0.15089637 -0.09448451 -0.116292216 0.6298444 0.1043996
-0.15397713 -0.11151804 0.5873466 0.0005317069 -0.23035029 0.058381025 0.10692375 0.11270649
0.20628901 0.0018048853 -0.41524142 -0.24619898 -0.0015558683 -0.17216054 -0.30050474 -0.23535003
-0.14450599 -0.18901496 -0.08979235 0.12769276 0.09122507 -0.9275187 -0.07857374 0.23333022
-0.11379785 -0.12311985 -0.12279821 0.04718132 -0.07555777 -0.051087294 0.5458951 -0.09310096
-0.25331554 0.043514244 0.52900016 -0.08720364 -0.18102795 -0.06669518 0.20875442 -0.04478778
0.19243416 -0.026935918 -0.50933063 -0.14059515 0.055327464 0.03363229 -0.10401371 0.02428893
-0.031215101 -0.08237586 -0.07390015 0.18518639 0.018630214 -0.7327176 -0.09301728 0.3109048
-0.24196042 -0.086708866 0.089477465 0.31766704 0.075335324 -0.04953115 0.2985051 -0.0012150095
-0.19598003 -0.06046902 0.29891473 -0.14200857 -0.26955968 0.022736028 0.20379086 -0.049624804
0.33123124 -0.060638364 -0.289186 -0.04059067 0.037411463 0.08924204 -0.2811743 0.04389615
-0.119159766 -0.08650521 -0.061103005 0.0789252 0.08044346 -0.5128758 -0.07788889 0.20517983
-0.19463657 -0.23246041 0.0649807 0.26098967 0.14308766 0.026310263 0.30708537 0.054245822
-0.022699753 0.05427074 0.28791654 -0.13828729 -0.30890733 -0.12574457 0.25399083 -0.1162341
0.35523796 -0.076688096 -0.3094239 0.009308834 0.14907603 0.02643002 -0.20110703 -0.07183408
-0.18711825 -0.17747739 -0.1499141 -0.041968375 -0.01199953 -0.47737148 -0.11160048 0.22731166
-0.14096145 -0.096657895 0.0071760523 0.06646729 0.1650852 0.16157493 0.18074945 0.027391946
-0.12163011 -0.010280278 0.19501515 -0.15390848 -0.3345764 0.0025222215 0.22097859 -0.18953069
0.28848448 -0.013591159 -0.23884998 -0.07312096 0.09814425 0.23121081 -0.09099938 -0.26469815
-0.16706464 -0.21720456 -0.1746204 -0.017997613 -0.00703626 -0.3200745 -0.0859466 0.12880437
-0.14625654 -0.27087376 -0.027262619 0.12053718 0.13162898 0.13358751 0.17844497 -0.13919123
-0.24837261 -0.020151883 0.33566666 -0.14045097 -0.36624697 0.015154534 0.25581354 -0.14452754
0.08449573 -0.10623041 -0.3539707 -0.07202209 0.07935045 0.12107103 -0.181092 -0.08527145
-0.12587667 -0.20454526 -0.14536001 0.20977345 0.015705854 -0.25666022 -0.20553428 0.13703863
-0.2828639 -0.10481942 0.05686882 0.17253138 0.03462088 0.058376547 0.1904934 -0.13507658
-0.19628714 -0.052998662 0.27707997 -0.18693164 -0.3003205 -0.059020307 0.25555202 -0.16686729
0.24296546 0.008689304 -0.14783783 0.008801453 0.16985513 0.26062575 -0.22507486 0.018345779
-0.15080014 -0.115840405 -0.14891028 0.07955339 0.09495341 -0.16734363 -0.18578428 0.1403611
-0.20614083 -0.22148073 -0.027272975 0.16626152 0.027133076 0.08555868 0.11152021 -0.052067794
-0.14301296 -0.13387488 0.29080063 -0.15309942 -0.26809624 -0.003555436 0.24379987 -0.16669856
0.21881571 -0.048399422 -0.30087954 0.06565849 0.10860639 0.3132888 -0.00558805 -0.16601916

fc.0.bias f4 [30]
00000000: 2978 f53d 387d e43d 9e1e b33d b43b 4b3d
00000010: cfde 293e 4185 823d 959d 68bc 1553 7e3c
00000020: df72 fc3b 5870 723d 6eef 9a3d 0498 93bc
00000030: 356c a6bd 8956 dcbc e91e 713d 10ce ab3d
00000040: 1343 a33c e270 4cbd 3e30 2dbd c184 0e3e
00000050: bb78 e73c 1c77 7f3d 7cce 263c 9888 843c
00000060: fe6c e63c d542 c03d 7c50 a3bd 2b30 043e
00000070: b27d 843c 9811 df3c
0.11985809 0.11156696 0.08746074 0.049617484 0.16588901 0.063730724 -0.014197727 0.015522738
0.0077041234 0.05918917 0.07565199 -0.018016823 -0.081261076 -0.026896732 0.05886737 0.08388913
0.019929444 -0.04991234 -0.042282335 0.13917829 0.028255811 0.06236945 0.010181066 0.016178414
0.028128143 0.09387747 -0.079743356 0.12909 0.016173217 0.027230069
