GHI Forecasting/models/savedWeights/GHIforecastingTransEnc.pth (torch, 570357 bytes, 16 tensors)

embedding.weight f4 [32, 86]
00000000: 7c21 ec3d bdc5 263c 5857 a7bd bb05 d93c
00000010: 77a3 dd3d 70cb cbbd 1a04 4f3d 503b 09be
00000020: c1cd 673d e5c3 3abd f4d8 f7bd d231 a0bd
00000030: 361b b0bc bf64 8bbc b961 15bd 4bde 933d
00000040: 7798 23bd e459 003d 915d 253e 1023 1fbc
00000050: e910 cd3d 4194 a83d d122 9c3d fff3 5ebc
00000060: b37b 31bd 721d 8b3d abb3 d73d ce33 11be
00000070: d448 43be 1668 d73c 3c46 b4bd 01bd dfbd
00000080: 7883 463d d403 f7bd 5412 a23d 67cc 043e
00000090: 0338 39be 4f31 1bbe 226d 7dbd 099a 93bd
000000a0: 51b6 92bd 760f 13be 0e81 5b3d d786 af3d
000000b0: 3df2 f13d 5f69 98bd c902 b93d a10b c2bc
000000c0: d69c bdbd 233d 343d e727 113c e0e7 f0bd
000000d0: c433 063d f7df 153d 72b7 333d 80d4 ae3d
000000e0: 230b fc3c d0f0 51bc d6ac bb3d 4964 a13d
000000f0: 6409 1dbd a3dd 23be b4af 96bd aa01 c73d
00000100: 5d2d 60be 05b2 86be 97ba 4cbe e9d6 2d3f
00000110: 3458 6d3d fb73 463e 4f02 033d 945d bdbd
00000120: 0f05 413f 71b4 ac3d 3938 97bd fae3 b0bb
00000130: db10 3d3e c975 653b 71e3 5e3f d9d9 143e
00000140: e703 e73d 5e95 a13b e87d 30bc 1853 05be
00000150: 10e3 313c 5776 3cbc 078e 7c3d 1ed4 0fbe
00000160: 0eaa 943d cad1 4c3e f294 b43d 430c 433e
00000170: 7e34 00bd a448 083d b9d3 f4bd 78ba d8bb
00000180: fd10 edbc c72f 533c 632e 39be 04fc 943d
00000190: 0d22 90bd 17db 34bd 24b7 b23d 7283 08be
000001a0: 3c17 0fbe 1e40 a13d 8f64 12be 67a1 00be
000001b0: b311 5fbe 1329 bdbd fd40 923d 2627 cf3d
000001c0: 0ed3 0a3e acf0 073e 770c 0bbe 27f5 823d
000001d0: 31ff d73c 6953 b1bd 7703 c83d 38ed b33d
000001e0: 85f7 81bd f5f6 d93d 13e9 493d 27d3 37be
000001f0: c548 b03d b09e f13d d04f 743d 6794 093d
00000200: 0fa8 f23d 6b07 c43d b405 ccbd 978e 19bc
00000210: d2cc ecba 647a 983c 6914 563d 6459 393e
00000220: 5a31 963d c935 10be 7a82 fa3d ad54 b2bd
00000230: afd0 d93c 6dfa edbd 3620 febd 8721 89bb
00000240: 4e45 43be f6a9 c6bd a4b9 403d 83c6 103d
00000250: 291b a63d a474 0fbd 8264 e13c 2975 bfbe
00000260: edd6 d3bc 22fb 763e 0f1c a63e 01ea cfbb
00000270: f541 6b3e 1c44 f53d 2834 f83d d48d a03d
00000280: 5367 9fbd 3238 36bd fd96 5fbd 63d6 e4be
00000290: 7662 903e d2ae 2bbe 896e 3dbd 9b9c d23c
000002a0: 1641 a2bd 34e2 53be d87d a1bc f584 29bd
000002b0: 803e 893b 62d3 1e3e 4eda 9d3d 8492 e4bb
000002c0: fff0 923d a342 c0bc 9af1 ae3c b6b4 a03c
000002d0: 43d4 c5bb 23df 563d adb3 ddbd ce0d 0d3d
000002e0: 6a4c 09bd 0685 41be b5a2 a8bd 8b34 783d
000002f0: e09f 133e 3cbe 0d3e 47b5 c33c 16ee ce3d
00000300: 1b81 763d 9e61 673c 6391 25be 606d a3bb
00000310: fa6e 52bd 620a b8ba 7047 15be 427d b13d
00000320: 9c7c 46bd 4082 11bd 3595 1cbe bb8a e43c
00000330: 1d66 dabd d8a9 eebd befd 833d 8ce1 043d
00000340: 2af8 33bd 21f0 d03d 7814 533d af94 f4bd
00000350: e9fb 113d e05a 823d b354 023e e682 b4bc
00000360: 87e5 053e 304d 39be 7862 f63d 68af 88bc
00000370: 5914 e43d cbd0 2d3d 8180 31be eb96 dc3c
00000380: e1f5 fa3c 7d51 39be 5764 e8bc a865 153d
00000390: ab01 e6bd 8b68 21ba dc45 943d 1af3 d0bd
000003a0: 2725 163e e820 d03d fe51 20be 30b1 1ebe
000003b0: f3ca 51bd ed86 e43e 6c91 053f bf4a 583f
000003c0: da04 fdbe 9aa4 11bc 7c1b 37bd fcda 09bf
000003d0: cea5 223e 1340 07be 6c17 683e 74c9 373f
000003e0: bc79 10be 40a9 c33e d6c7 e7bd 4a6e 89be
000003f0: 0c56 393e cb44 9c3d b31e d93d fa25 41bc
0.11529824 0.01017898 -0.081709564 0.02649199 0.10822194 -0.09950912 0.05054102 -0.13401532
0.056592707 -0.045596976 -0.121019274 -0.078220025 -0.02149735 -0.017015813 -0.03647015 0.072201334
-0.039940324 0.031335726 0.16148974 -0.009712949 0.10012991 0.08231402 0.07623828 -0.013607978
-0.04333086 0.067927256 0.10532316 -0.14179918 -0.1907075 0.02629475 -0.08802459 -0.109247215
0.048465222 -0.12061277 0.07913652 0.12968598 -0.18087773 -0.15155528 -0.061871655 -0.07207114
-0.0716368 -0.14361367 0.053589873 0.085706405 0.118137814 -0.07441973 0.09033734 -0.023687186
-0.0925843 0.044003617 0.008859611 -0.11762977 0.03276421 0.036590543 0.04387612 0.08536625
0.03076703 -0.012813762 0.09163825 0.07880456 -0.038339034 -0.16002516 -0.073577315 0.09717114
-0.21892305 -0.26307693 -0.19993053 0.6790605 0.057945445 0.1938018 0.031984624 -0.09246364
0.75398344 0.08432854 -0.073837705 -0.0053982707 0.18463461 0.0035012832 0.870658 0.14536227
0.11280041 0.004931136 -0.010772206 -0.13019979 0.010857359 -0.011502824 0.061658885 -0.1404576
0.07258998 0.20001903 0.088174716 0.19047646 -0.03130006 0.0332724 -0.119544454 -0.0066140257
-0.028938765 0.012889809 -0.18084101 0.07274631 -0.07037745 -0.044154253 0.087263376 -0.13331392
-0.13973707 0.078735575 -0.14296173 -0.1256157 -0.21784095 -0.0923635 0.07141302 0.10114889
0.13557073 0.13275403 -0.13578974 0.06394415 0.026366802 -0.08658487 0.09766286 0.0878548
-0.06346039 0.106428064 0.049294543 -0.17951642 0.0860763 0.11797845 0.059646428 0.033588793
0.11848461 0.09571727 -0.09962025 -0.009372375 -0.0018066412 0.018613048 0.05226556 0.18100506
0.07333632 -0.14083017 0.12231918 -0.08707557 0.026588766 -0.116200306 -0.124084875 -0.004184905
-0.19069406 -0.09700386 0.04705204 0.035345566 0.08110649 -0.035023347 0.027513746 -0.37394074
-0.02585932 0.24119237 0.32443282 -0.006345034 0.2297438 0.119758815 0.12119323 0.078395516
-0.077833794 -0.044487186 -0.054587353 -0.44694814 0.2820012 -0.16765907 -0.046247993 0.025709441
-0.079225704 -0.20691758 -0.019713327 -0.041386563 0.004188359 0.15510324 0.07707654 -0.006975474
0.071748726 -0.023469275 0.021355439 0.01961742 -0.0060372665 0.052458894 -0.10825286 0.034436993
-0.03352014 -0.188984 -0.08234159 0.060596984 0.14416456 0.138421 0.02389015 0.10104005
0.06018172 0.014122395 -0.16168742 -0.0049874038 -0.051375367 -0.001404118 -0.14578032 0.08666469
-0.04845868 -0.035524607 -0.15291293 0.027898183 -0.10664008 -0.11653489 0.06444882 0.03244166
-0.04393784 0.10202051 0.051533192 -0.11942422 0.03564063 0.06364989 0.12727623 -0.022035073
0.13075839 -0.18095851 0.120305 -0.016685203 0.111366935 0.04243545 -0.17334177 0.026927432
0.030634822 -0.18097492 -0.028368158 0.0364739 -0.11230787 -0.0006157241 0.07239887 -0.10202618
0.1466261 0.10162526 -0.15656278 -0.15497279 -0.051218938 0.4463419 0.5217502 0.84489053
-0.49417764 -0.008889342 -0.044703946 -0.5384977 0.15883562 -0.13208036 0.22665185 0.7179177
-0.14108938 0.38215065 -0.113174126 -0.26841956 0.1809923 0.07630309 0.106015585 -0.0117888395

embedding.bias f4 [32]
00000000: e582 2a3d f3bc 853d 678f 48bd 36ae 3ebd
00000010: 5f25 8c3b 4b80 31bd 89e9 debd 1625 57bd
00000020: 0a5f 7e3d 105a 49bd 7bed c63c 64e5 a1bc
00000030: fc5a f4bd 4a22 28bd 253e dc3c 8533 863d
00000040: 55a3 163e bbc3 403d e52d 783c bca6 b2bd
00000050: 6318 3f3d 8440 303d 0175 8f3d 1ec0 2bbd
00000060: a52c 063e 7d47 63bd e2c0 c03d 7dbc b33d
00000070: eb11 2d3e 9610 aabd 60c1 7abb fb17 fbbc
0.041628737 0.0653018 -0.048964884 -0.04655286 0.004276916 -0.04333524 -0.10884387 -0.052525602
0.062102355 -0.049158156 0.024283161 -0.019762702 -0.119314164 -0.041048326 0.026885102 0.06552795
0.14710744 0.047061663 0.015147661 -0.08723208 0.046654116 0.043030277 0.070047386 -0.041931264
0.13102968 -0.0554881 0.094117895 0.08776186 0.16901366 -0.08303945 -0.0038262233 -0.030651083

transformerEnc.layers.0.self_attn.in_proj_weight f4 [96, 32]
00000000: f647 03be d4d5 e03b 3a93 83be 4f7a 6ebe
00000010: a91a aabe 86bd a5be e336 e23e 0ca4 83be
00000020: b3e8 d8bd 5def c5be d084 14be f969 e43d
00000030: 173c 323d 640d 1c3f c25e 5abe 2e55 cebd
00000040: caa5 333c bc67 893e 4ee1 c83e 73f3 88bc
00000050: e76d 03bf d99d b73e c42b 49be c12e df3e
00000060: 6e56 8d3e 6642 0c3d cabb ad3e 05db 693e
00000070: 5ba6 b6be eac2 23be b3eb a03e 8b5d 1b3e
00000080: 9dac 363e 2c02 153e 03ac b83d bfe1 d3bd
00000090: d181 87bd 464c ce3d 0bc4 7bbd aafb 20be
000000a0: 7a4d 29bf 22c9 acbd 6ffb 65be fb2f 2bbe
000000b0: e100 11bd 8b4a 1b3f 686e bb3d 74cd 25bd
000000c0: 1d52 4d39 44e9 3a3d 629e 813e 30d5 5d3e
000000d0: 5438 14bf 4c7a fa3e ff55 edbe 2ad5 823e
000000e0: 5c67 e83e c6ff d4bd 385e ec3e b65b e1bd
000000f0: 6c16 88bd 69c9 f1bc c011 593e eb8c 43be
00000100: 95ab 90be c3d6 8fbe 31be 37be 1f92 d5be
00000110: ab79 13bd 1816 31be 2042 fbbd c9d3 bbbd
00000120: 2018 bbbe 3d14 e9be 4b5d b9bd 9b50 8b3e
00000130: c577 f4bd 8a17 173f cd1d a9be f525 48bd
00000140: 1959 e13e d3a4 453e 1179 cf3e d555 ac3d
00000150: 32aa 32bf fb12 d3bc 2252 72be 1098 da3e
00000160: 2dbc f83e 6345 033e bffe 0c3f ef70 06bc
00000170: 379f b33e 40f0 653c 0b86 833e d8bd 9fbe
00000180: 626b 24be c1de 113d a866 44be 90c8 a2be
00000190: c54c c0bd b63c 11be 7320 3dbd dde8 5abe
000001a0: 3fcf bfbd 7b81 cabe e427 903d 68fc b5bd
000001b0: 0195 48bd 14e6 603f 305f 82be dc59 14bd
000001c0: 2d9e b93e dcfd f5bd c776 823e 6116 a83d
000001d0: 7f4c f5be 66d6 d83e 684e 29be fbac 193e
000001e0: 41d6 4d3e b2e4 e8bb 9561 f13d 9872 01be
000001f0: 2bec 933e d78e 7ebe 37f2 b03e dd85 7cbe
00000200: e51f d73d 52f6 bc3c 4b8d 7d3d 6ccf 703e
00000210: bb3e cbbc 6f41 1bbe 4007 de3c ef80 783e
00000220: 0d74 063f a327 473d 0c01 02be cbf6 a1be
00000230: 7d02 933e 7cf9 2ebf 517d 3ebd 113e 283e
00000240: d392 88be 1f66 a33c 0fe8 d0be bd7c 81be
00000250: cc4c c03e 895d 3ebd 346b f93e e84a 96be
00000260: e1ba d6be 3718 933c 402a e9bd b497 7ebe
00000270: d655 a13d 0f40 e93d 38ec d1be 2b60 893d
00000280: 11b4 82be c1b5 9f3e ccc4 f0be 9ea5 d7be
00000290: 1ed2 06be bae4 b0be 5c5c ad3e fd73 34be
000002a0: 4e50 c2bc f64c b2bb 15bc 87be 0ec0 143e
000002b0: 78a0 76be 17ab 133f 3cb5 a83c 5c53 67be
000002c0: 5fbe 943e a1ff 6c3e 647d ad3e 8784 6b3e
000002d0: af68 22bf 243a f43e 0238 6fbd 3583 383e
000002e0: 8621 463e 976f 7a3d 0d0f 943e 8601 203d
000002f0: 2a27 49be e3ff 89bd 5071 c83e a2ac a53d
00000300: 482f e5be 282e 8c3e 0ac0 f9be fe66 08bf
00000310: b59e dfbd 2c29 c5be 9390 bc3e 1125 cebe
00000320: 7168 82be 1114 c0be 00ef aabe 019d 8b3e
00000330: 2227 3ebd ef3b 093f d4c6 b5be 0638 ce3d
00000340: de91 3d3e 4aa0 c03e 94ab de3e f357 513e
00000350: d803 2bbf e1bb 073e 21ff a4be 4d42 b23e
00000360: 6182 dc3d ee07 85bc abd9 823e 40ea 903e
00000370: b9da 40be 7050 eb3d 112f 093f ee55 cfbd
00000380: c182 3f3e 53a7 b13d 87d9 9b3d 7c3f 08be
00000390: 054d 8fbd 7ffe 9c3e 1ff0 8c3e b35b 7d3d
000003a0: 0c80 1bbf d5af d7bd 34b1 14be 7611 c03d
000003b0: 126a c9be 86df 0d3f 3d80 c03d 568e 0dbe
000003c0: 41c9 8c3e d595 ee3d 43ab 173f 4e4d 9d3e
000003d0: 0ed1 86be d480 533d 4e76 d5be d6fa 413e
000003e0: 78e4 083f f9c2 aebe c424 d03e 2e65 503e
000003f0: ca40 243e 85a3 993d 70ba c73d 7c67 84bd
-0.1282042 0.006861428 -0.25698262 -0.23288845 -0.33223465 -0.32371157 0.441825 -0.25711095
-0.10591259 -0.38659182 -0.14503789 0.11153025 0.043514337 0.6095793 -0.2132521 -0.100748405
0.01096482 0.26836956 0.39234394 -0.016717648 -0.5133957 0.35862616 -0.19645602 0.43590358
0.27605003 0.03424301 0.33932334 0.22837456 -0.35673794 -0.15992323 0.31429824 0.15172403
0.17839284 0.1455161 0.09017184 -0.10345792 -0.066165574 0.10073142 -0.061466258 -0.15721002
-0.66133845 -0.084368005 -0.22459196 -0.16717522 -0.03540123 0.6066062 0.09151918 -0.04047914
0.00019580913 0.045632616 0.2531615 0.21663356 -0.5789845 0.4892143 -0.46354672 0.25553256
0.45391357 -0.104003474 0.46165633 -0.110038206 -0.06644902 -0.029514985 0.21198177 -0.19096725
-0.28255907 -0.28093538 -0.17943646 -0.41713044 -0.036004703 -0.17293584 -0.12268472 -0.09171254
-0.36541843 -0.45523253 -0.09050997 0.27209935 -0.11936907 0.5902029 -0.3303055 -0.048864324
0.4401329 0.19301157 0.40522054 0.08414809 -0.6979095 -0.025765887 -0.23664144 0.4269414
0.48581067 0.12819438 0.5507621 -0.008205636 0.3508241 0.014034331 0.25688204 -0.31199527
-0.16056588 0.035612825 -0.19179785 -0.31793642 -0.093896426 -0.14183316 -0.046173524 -0.21377893
-0.09365701 -0.3955191 0.070388585 -0.08886033 -0.048970226 0.8785107 -0.25463247 -0.03621851
0.3625349 -0.120113105 0.25481245 0.082073934 -0.47909924 0.42351073 -0.16533816 0.15007393
0.20101263 -0.0071073407 0.117861904 -0.1264137 0.2889112 -0.24859177 0.34559795 -0.2466044
0.1050413 0.023066673 0.061902326 0.23516625 -0.024810186 -0.1516168 0.027103066 0.24267934
0.5252083 0.048621785 -0.12695712 -0.316336 0.28712836 -0.6834943 -0.04650623 0.16429926
-0.26674518 0.019946156 -0.40802047 -0.2529048 0.3755859 -0.04647592 0.48714602 -0.29354024
-0.41939452 0.017955882 -0.11385012 -0.24862558 0.078777 0.11389171 -0.41000533 0.06707796
-0.25528005 0.31193355 -0.47025144 -0.42118543 -0.13166091 -0.34549505 0.33859527 -0.17622371
-0.023719933 -0.0054413034 -0.26510683 0.14526388 -0.24084651 0.5768294 0.020594232 -0.22590393
0.29051492 0.2314439 0.33884728 0.22999774 -0.63440984 0.47700608 -0.058403023 0.18018802
0.19348726 0.061141577 0.28917733 0.039063953 -0.19643846 -0.0673826 0.3914895 0.08089568
-0.44762635 0.27378964 -0.48779327 -0.53282154 -0.10918943 -0.38507974 0.3682905 -0.40262654
-0.25470307 -0.3751531 -0.33385468 0.27268222 -0.04642404 0.53607076 -0.35503256 0.100692794
0.18512675 0.3762229 0.4349028 0.20443706 -0.6680274 0.13255264 -0.32225898 0.34816208
0.10767055 -0.016239133 0.25556692 0.2830372 -0.18833436 0.114899516 0.5358744 -0.10123812
0.18702222 0.08674493 0.076098494 -0.13305467 -0.06997112 0.30662915 0.27526948 0.06185503
-0.6074226 -0.10531584 -0.14520723 0.093783304 -0.39338738 0.55419195 0.093994595 -0.13823828
0.27497295 0.11649672 0.592457 0.3072304 -0.2633137 0.051636532 -0.41691822 0.18943343
0.53473616 -0.34133127 0.4065305 0.20351097 0.1604034 0.07501892 0.09752357 -0.064650506

transformerEnc.layers.0.self_attn.in_proj_bias f4 [96]
00000000: e709 64be e893 51be 50b8 d5bd 5a8f 4bbe
00000010: 3450 6d3e a61e 6cbe 5414 3fbe 5747 47be
00000020: 17ce 89bd aab1 ce3e dd48 7f3d 0052 ed3d
00000030: 085f b93e 824b a83e 3155 0abe 7568 09bf
00000040: 1cc2 8b3e 2e00 c93e a7e7 653e 0512 1cbf
00000050: eafa 1bbf a854 09bf 9ecc 75be 0076 c4be
00000060: a686 dbbe 1278 5cbe 4a54 b23e 282c c63d
00000070: fe9d e8be 01d6 aabe f2e5 583e fc82 a7be
00000080: 4135 033a de87 db39 a406 e739 fc05 c739
00000090: cc3f c8b9 ad68 233a c22e 093a c94e bf39
000000a0: 18bf 92b7 94c6 6b39 3d94 1939 b711 b638
000000b0: 2ad7 7c38 2513 8f39 18b1 69b8 0903 99b9
000000c0: 51ea e538 86f8 0db9 5325 a739 1e9f 9939
000000d0: 653a 7ab8 014b 56b9 e00d 9239 8ce7 05b9
000000e0: 6c5b 11ba f07e 6cb9 a6f7 783a cb57 23b9
000000f0: b58a cdb9 f1c8 1aba af0a 323a 6e33 3eb9
00000100: cd44 b3bc 8c1a 6bbc 04c1 c13c 585b 0ebd
00000110: 6657 8abd 9e05 e03c c467 50bd 8ae7 ea3c
00000120: 9a3c acbb b191 e4bb c32b cfba 1ff3 223c
00000130: 123d b83c 1051 193d 99e6 f3bc 1686 873d
00000140: c056 413d 9635 debd e2da 80bd 3413 9bbc
00000150: e17e dabc 84f4 e73c 7a0d 823c 751c b4bc
00000160: 0c93 063d 79a2 233d 163f dbbb 3578 fdbc
00000170: 6858 83bd 8c35 88bc 5ce6 3dbd 700d 2a3d
-0.22269402 -0.20466578 -0.104355454 -0.19878903 0.23175126 -0.23058566 -0.18660098 -0.19460808
-0.06728762 0.40369922 0.062325347 0.11587906 0.36205316 0.32870108 -0.1350906 -0.53675014
0.2729653 0.3925795 0.2245165 -0.60964996 -0.6092974 -0.536448 -0.24003837 -0.38371277
-0.42876166 -0.21530178 0.34829932 0.09676391 -0.45433038 -0.33366397 0.21181467 -0.3271712
0.0005005189 0.00041872164 0.000440647 0.00037960696 -0.00038194505 0.00062335544 0.0005233103 0.00036489058
-1.7493541e-05 0.00022485323 0.0001464644 8.681736e-05 6.028187e-05 0.0002728935 -5.571646e-05 -0.00029184695
0.00010963216 -0.0001353939 0.0003188053 0.00029300986 -5.965903e-05 -0.00020436572 0.00027857628 -0.00012770126
-0.0005544934 -0.00022554002 0.0009497352 -0.00015577597 -0.00039203992 -0.00059045764 0.0006791753 -0.00018138971
-0.021883393 -0.014349591 0.023651607 -0.03475508 -0.06754951 0.027346428 -0.05088021 0.02867486
-0.0052562477 -0.0069753756 -0.0015805889 0.00994566 0.022490058 0.037430823 -0.029773043 0.06617372
0.047201872 -0.108500645 -0.062917486 -0.018930055 -0.026671829 0.028314836 0.015875567 -0.021986226
0.03285508 0.039949868 -0.00669087 -0.030941108 -0.064133465 -0.016627096 -0.046362266 0.04151672

transformerEnc.layers.0.self_attn.out_proj.weight f4 [32, 32]
00000000: c180 143e 1ab8 1d3d 2ed2 3c3d 4bda 9b3d
00000010: 4c42 b0bc 5f41 f23c d42b 9b3d 7e22 4ebd
00000020: f164 3dbe ebf6 b1bd e030 023d c479 84bd
00000030: 7c04 d83d b140 89bd b21a 5d3c cd08 bb3d
00000040: 3f35 73bd 6edc 7d3d 3a62 9b3a c41c f1bd
00000050: bd0e 583d ddc6 c63d 32f1 de3d f3e0 83bd
00000060: 4bf5 81bd 3481 8b3c 87d0 3e3e ee4c e13d
00000070: 4fd2 8abe 7a16 0c3d 7587 25be a73e 323b
00000080: 1745 26bd 9e42 67ba 159b 523e 9ccc 3d3d
00000090: bf5f e7bd a203 f2bd 974c 433d 7501 ccbd
000000a0: 9c28 98bd 5b9c 9fbd 1881 8c3d 2728 1cbe
000000b0: 45fa 9a3d 98f1 28bd 65e4 dbbd e2fb c13d
000000c0: 2f4a babc f5b7 a7bd abb5 a83c 3903 e53d
000000d0: 9238 92bd 3e7c f63d 6cdf cfbd 42b7 9a3d
000000e0: ddd3 a33d 2413 abbd 055a 6e3d 8f7d 13be
000000f0: e114 3a3d dcef 4d3e 088f ba3d 42d9 87bb
00000100: 5458 153e 0e1c e13c 3e2a edbd 7c17 21be
00000110: 3ebe 993d 1e77 133c abb8 653d 9f5b db3c
00000120: 7ee2 ef3d 7991 013e 80ee e8bd e0c6 60bd
00000130: 9f72 10be fd51 01be ee82 97bc c9f8 84bd
00000140: ca1a 5fbd dda5 2fbe a38c 15be affc 57be
00000150: 1bff b63c abc4 133d fa01 1dbc 2197 4d3c
00000160: 395b 123e 7b82 953c 6e61 9bbc 4ff2 90bb
00000170: ce6c 0dbd f5ba d3bc d7bd 183e 8bf3 d73d
00000180: 88cb 74be fe61 95bd c140 86bb ea72 c23c
00000190: 8cbd d83d a233 62bd 6d1d 98bd e5fd 0f3e
000001a0: 4f4e bcbd a1bf 0bbe ff95 52be cd84 773d
000001b0: 59c3 c8bd 324e cd3c cc26 89bd 678c 65be
000001c0: 74ca d23d af6f d33d 60cf 893d 665c b43e
000001d0: da4d 733d eab3 013c ec82 22be 8dfa 653e
000001e0: edef d23d 360c 44be 5feb ab3d a246 eb3d
000001f0: 7692 3f3e 1bd4 47be 385d 893d 3708 9dbd
00000200: 1894 db3d e0ae 16be 7ee8 e3bd fe83 133e
00000210: 876b 233d 86d3 9bbd ea93 af3d 1726 083e
00000220: 7117 25bd d92d dc3c 4512 b8b9 eb62 19bd
00000230: 485d 76bd f46f 5b3d d04b 243e 773a 2e3a
00000240: 95e3 c1bd bc36 fabd c299 cabd eb63 e6bc
00000250: 469d 10be 16ae 6ebd ecd9 33be f282 3f3d
00000260: dd43 8c3d cdb5 88bd f3a6 143d 123d 97bb
00000270: 7655 28be 16b8 7d3d 09ac 33bd 9394 9b3d
00000280: 5a75 1b3d 6892 cfbc af39 6e3d 17a5 1e3e
00000290: 4d7b 283d 73c6 28bd 3fe3 adbd 5b3f f43d
000002a0: ebf0 0f3b 88cb b13d 370c 85bd 3d31 14be
000002b0: 6e5e 833d f81a b3bd 9add b7bd bbdd c1bd
000002c0: 0020 19be b97f 223c c534 f5bc 0031 65bd
000002d0: 04fc b3bd dae5 07be aa39 4bbc 98b7 c73d
000002e0: 4417 813d 1937 23be 0eb1 013e 8d86 ed3b
000002f0: f33e b23c ac65 08be c248 863d b708 7a3d
00000300: 3fd1 4f3d 6bd1 033d 44bc f63d 3e16 9c3c
00000310: 79ba d7bc 82e6 29be ad28 713d 8163 13bd
00000320: 0d0d 883d 3465 89bd 1bf4 83bd b317 c3bd
00000330: 7a8d 6c3e 0955 c93c d695 1a3e 298c 4abd
00000340: a50b e9bd 828b 973c 6f29 0e3e 3905 5bbd
00000350: 3ad7 a3bd 3124 d03d 566b 38bd 7580 bebd
00000360: 2fe4 c9bd d6b7 b6bd 89ce 053e 3bf2 323e
00000370: f616 093e c13a 413c fcea 503d 5069 1ebc
00000380: 9be1 b2bd 3ba0 b6bd 0a14 66bd f968 a0bc
00000390: 7086 143d 512c 22bd 3284 1b3d 08cb 0c3d
000003a0: 6727 6c3d beb9 a6bd 662c fe3d 3f67 6ebd
000003b0: df7e 80bc d0a2 b1bd 57fe f7bd 18ab 04bd
000003c0: 401b a43d 10d6 21bc 9c5c dbbd b7da 853b
000003d0: 277f b1bd 1f11 ad3d b8ac 913d b429 9fbd
000003e0: 691f 753d d731 d7bd 5199 6dbd 859e d1bc
000003f0: 6e29 e93d d19a 313d 051b 183d 785d 443d
0.1450224 0.03850565 0.04609888 0.076099955 -0.021515988 0.029572187 0.07576719 -0.050325863
-0.18495537 -0.08689674 0.031784892 -0.064685374 0.1054773 -0.06701792 0.013495134 0.09132538
-0.05937695 0.061977796 0.0011854835 -0.11773065 0.05274843 0.09705899 0.10885848 -0.0643939
-0.06345614 0.017029382 0.18634234 0.11001001 -0.27113578 0.034201123 -0.16164954 0.0027197988
-0.040593233 -0.00088218774 0.20566972 0.04633771 -0.11297559 -0.11817099 0.047680464 -0.099612154
-0.074296206 -0.07793494 0.0686056 -0.15249692 0.075672664 -0.041246027 -0.10736922 0.09471871
-0.022740452 -0.08189384 0.020594439 0.11182255 -0.07139696 0.12035416 -0.10150036 0.07554485
0.07999394 -0.0835326 0.058191318 -0.14403366 0.045430068 0.2011103 0.09109312 -0.004145772
0.14584476 0.027479198 -0.11580323 -0.15731615 0.07506989 0.009000568 0.056084316 0.026777087
0.11713122 0.1265315 -0.11373615 -0.054877162 -0.14106224 -0.12628932 -0.01849505 -0.064927645
-0.054468907 -0.17153116 -0.1460443 -0.21092485 0.02233844 0.03607623 -0.009582991 0.012548239
0.14292611 0.018250694 -0.018967357 -0.0044234167 -0.034527592 -0.025845984 0.14916168 0.10544499
-0.23905766 -0.07294081 -0.0040970747 0.023736436 0.10583028 -0.055225022 -0.074274875 0.14061697
-0.09194624 -0.1364732 -0.20565031 0.060429383 -0.098028846 0.0250617 -0.06696853 -0.2241684
0.10292521 0.10324036 0.06729007 0.35226744 0.059400417 0.00791643 -0.15870255 0.22458859
0.102996685 -0.19145283 0.08394503 0.114880815 0.18708214 -0.19514506 0.06707233 -0.076675825
0.10721606 -0.14715147 -0.11128329 0.1440582 0.039897468 -0.07608704 0.08573134 0.1329578
-0.04030556 0.02687733 -0.00035108827 -0.03744785 -0.060147554 0.053573564 0.16044545 0.0006646285
-0.09467236 -0.12217471 -0.09892608 -0.028123816 -0.14122495 -0.05827149 -0.175636 0.04675574
0.068488814 -0.06675301 0.036292028 -0.0046154344 -0.16438851 0.061943136 -0.043865237 0.07596698
0.037953712 -0.025338367 0.05816048 0.15492664 0.041133214 -0.04120488 -0.084906094 0.119261466
0.0021963667 0.08681399 -0.064964704 -0.14471908 0.064144954 -0.08745378 -0.08977814 -0.0946612
-0.14953613 0.009918147 -0.029932389 -0.055954933 -0.087883025 -0.13271275 -0.012403885 0.097518146
0.06303266 -0.15938987 0.12665197 0.0072487057 0.021758532 -0.13320035 0.06556846 0.061043467
0.050736662 0.03218214 0.120476276 0.019053575 -0.026334034 -0.16591838 0.058876682 -0.035983566
0.06643114 -0.06708756 -0.06443044 -0.09526005 0.23100844 0.02457668 0.1509622 -0.049450073
-0.11379174 0.01849914 0.13882993 -0.053471778 -0.080000356 0.10163153 -0.04502424 -0.09301845
-0.09857976 -0.08921783 0.13067068 0.17475216 0.13387665 0.011793793 0.05100535 -0.009668663
-0.08734437 -0.0891728 -0.056171454 -0.019581305 0.036261022 -0.039593045 0.03796787 0.034373313
0.057654765 -0.08140896 0.12410812 -0.058203932 -0.015685497 -0.08673632 -0.12109058 -0.03238973
0.0801301 -0.009877697 -0.10711023 0.0040849107 -0.086668305 0.08450531 0.071130216 -0.07771626
0.05984441 -0.10507553 -0.058007542 -0.025588283 0.11384855 0.043360535 0.037135143 0.0479407

transformerEnc.layers.0.self_attn.out_proj.bias f4 [32]
00000000: 14bf 3d3b 7ac9 93bb 344d 0e3c 0013 a4bc
00000010: ec43 41ba d553 a9bc debe 83bc 4416 173a
00000020: a0e3 953c 7e82 4fbb dfe0 863c 930e 78ba
00000030: 160f 76bb 8b35 c03a 2a64 82bc c055 bb3b
00000040: 378f 763c ac34 b3bb 80b5 d23c 07b5 91bc
00000050: e57c c33b 2863 73b9 e667 443c 347b d4bb
00000060: d0fc 9f3c 2944 2e3b 448c 533c 572a e8bb
00000070: 291f e43c a91f 383c 0dc5 88bc f27e 1cbc
0.0028953003 -0.004510102 0.008685399 -0.020028591 -0.0007372487 -0.020669857 -0.016082224 0.00057635107
0.018297017 -0.0031663473 0.016464649 -0.0009462621 -0.0037545613 0.0014664395 -0.015916903 0.0057170093
0.0150487935 -0.0054689255 0.025721312 -0.017786516 0.0059658163 -0.00023211224 0.011987662 -0.0064844135
0.01952973 0.002659092 0.01291186 -0.0070851254 0.02784689 0.011238017 -0.016695524 -0.0095517505

transformerEnc.layers.0.linear1.weight f4 [2048, 32]
00000000: 6399 893e dd53 f8bd e79d 57be d605 7bbd
00000010: de18 ab3d b079 25be f99c 6fbd 596a 2c3e
00000020: f801 83be 5f4e 213e 1f05 7dbd 8ead f03c
00000030: 328e c93d 3542 48be 950b ac3e 0227 b23e
00000040: 2e30 693e ba3b a73d 7012 a63e b4ba 6f3e
00000050: 066d 8b3d 9206 ca3e 1d10 b33c 2d92 6bbd
00000060: fe0b aa3c 9630 a73d 2155 dcbd 600d 4c3d
00000070: 2236 1cbe fd22 6cbe e634 733d 7b4e 0ebe
00000080: 23c0 113d 0dde 03be 215b ecbc a904 7f3d
00000090: 3a42 73be c3fd 553d f3ec bcbd e0f6 bc3e
000000a0: 85c0 ed3c 752f 0d3e 98b3 30be 39bd 67be
000000b0: 0321 19be bd2a 5ebe 3c28 833e 5bb4 183e
000000c0: e4b2 0a3d 1c9c 9c3e a10f 7bbe 5245 773e
000000d0: 5eb3 923d 5b47 bbbc 6add 073e 89e1 643b
000000e0: 043f 80be c69c 1ebe e0a1 e4be bed3 ea3d
000000f0: 188c a5be c5ec afbd 38df 4bbe 8a24 e33d
00000100: 5d99 79be 0c30 83bd 427f a4be c399 50bb
00000110: 97c2 ebbb fc2c 863c 3313 8bbd e5e3 26bd
00000120: 2b25 a53d 1194 eebd f803 36be cb83 0f3e
00000130: 0aed 6b3e 29f5 06be 2600 a73d e66b 3f3e
00000140: 53de 0d3e 4bdf e1bd 848f 06be 05cd 44bd
00000150: bdba 80be 62b8 ac3b 0fb5 903c e5e2 2d3d
00000160: c7b7 e93d f774 07be 5768 313d de5a 643e
00000170: e5e6 43be 68fe eebd 8b55 fc3d 8028 80bc
00000180: 7b28 97bc 9735 263e 641a 413e d336 5cbe
00000190: f5d4 4a3c 1657 b4bd d8b6 923c 8e1a b0bd
000001a0: 1b4d 0abe 9809 84bc 432a 653d e683 653e
000001b0: 449e 0bbe 955f 5bbe f61c f8bd 1729 c33d
000001c0: a790 92bc 9d61 78bd 22b8 ec3d eb00 563e
000001d0: a1b6 283e 5972 493e 4214 813d 9c90 a1be
000001e0: d933 7a3c 3fd0 4dbe 1328 813d 4e94 233e
000001f0: eb7e 333d 69c2 c9bc 074e 09be 030a 12bc
00000200: c867 3c3c cf1e b1bc 5dba b6bd 7139 4bbc
00000210: a7c9 673d d83f aabd 3f63 f53d 51b2 5f3e
00000220: e529 06bd 3e8b 443d 47fa 58bd de6c 613e
00000230: b2e9 d73d f5f3 efbd db1c b83d 3425 5dbe
00000240: 9cec c13c 8acc da3c ae8e 0cbe dec4 083e
00000250: 83ee abbd 4b20 2dbe 50df 663e 0320 1e3d
00000260: 00a5 ca3d d352 3d3e bb85 023e 22f4 68bd
00000270: cdbe 4cbe 5abe 11bd e022 24bd b6ee 4b3e
00000280: 9cba 84be 186e 42be b879 9bbd 4a72 91bd
00000290: 29e4 293e 1c2e 063e 08f3 47bd 9b8c e1bc
000002a0: c589 923e ce19 d03d a75f 98bd fd25 203e
000002b0: cbf9 ca3d 8d00 2a3d 7f93 bc3d 248f 26bd
000002c0: 01e2 2fbe d31e 893d a360 343e 2be1 193e
000002d0: ea4f a63e b813 e83d 4fbb 7abe 67c6 8dbe
000002e0: 8ab5 c63d 6258 8b3e 1b46 c33d da16 d8bd
000002f0: e583 d43b 6959 4d3c b15d 1d3e c582 533e
00000300: 8d05 943c fe7f f3bd 070a a93d 77a8 c83c
00000310: 3d4f 3b3e 2d90 1d3b 1624 f3bd d407 063d
00000320: d5f9 41be 1085 013e 7d08 02be 3c60 783d
00000330: b3d7 dfbd 8c42 aebd 13c0 b5bd 00c0 2dbc
00000340: d57a d43d 9800 e53c 16f5 92bd 887e 8f3e
00000350: 88fe 06be 4cba 69be a311 56be f1a3 03be
00000360: 37bc 163d c6e5 613d f26e 20be 85c7 413e
00000370: 4521 6ebc 0c5e 8f3c c78e 593e 99bf 953e
00000380: c2a4 fd3d 6038 1d3e 51ea 27bd 8f4e 253d
00000390: 39d3 85bd 57d7 323e a4c3 c93d 2b70 4f3e
000003a0: edd4 cbbd b5e7 b73d 3dca 03be 1d37 99bd
000003b0: a43a 9d3e abf1 77be 1825 b53e c10e 703e
000003c0: 471f a4be 5767 92bd 97e9 03be 30a0 633e
000003d0: 54c0 aebe 242a 123e 54c4 863c 728e eb3c
000003e0: 39f2 f4bb cc8e febd d73b cdbe 63f5 64be
000003f0: f70f 76be 3f3b 5cbd 8514 83bd 0b6d 3e3e
0.26874837 -0.12125371 -0.21056329 -0.061284862 0.083543524 -0.16159701 -0.05849931 0.16837443
-0.2558744 0.15752552 -0.061772462 0.029379632 0.09841575 -0.19556506 0.33602586 0.34795386
0.22772285 0.08165689 0.32435942 0.23411065 0.06807904 0.39458138 0.02185827 -0.05751245
0.020757671 0.08163564 -0.107584246 0.049817443 -0.15255025 -0.23060222 0.05937662 -0.13897125
0.035583626 -0.12877674 -0.028852047 0.062260304 -0.23755732 0.05224396 -0.09224882 0.369071
0.029022465 0.13787635 -0.1725601 -0.22630776 -0.14953999 -0.21695991 0.25616634 0.1491255
0.03386201 0.30587852 -0.2451768 0.24147537 0.07163118 -0.022861173 0.13268057 0.0034924468
-0.25048077 -0.15489492 -0.4465475 0.11466168 -0.32333446 -0.08590082 -0.1990937 0.11090954
-0.2437491 -0.064056486 -0.3212834 -0.003182993 -0.007194828 0.016378872 -0.06790771 -0.04074468
0.0806373 -0.11649335 -0.17774951 0.14015119 0.23039642 -0.13179459 0.08154325 0.18693504
0.13854341 -0.11028918 -0.13140684 -0.048047084 -0.2514247 0.0052710036 0.01766446 0.04245271
0.11412006 -0.13228212 0.043312397 0.22300288 -0.19131048 -0.11669618 0.123210035 -0.015644312
-0.01845192 0.1623138 0.18857723 -0.21505289 0.0123798745 -0.08805673 0.017909452 -0.08598815
-0.13505976 -0.016117856 0.055948507 0.22413597 -0.13634592 -0.2142318 -0.12114899 0.09529322
-0.017891241 -0.060639966 0.11558558 0.20898788 0.16475917 0.19672526 0.06302692 -0.3155564
0.0152711505 -0.20098971 0.06306472 0.15974542 0.04382221 -0.024628835 -0.13408671 -0.00891352
0.011499353 -0.021621136 -0.08922265 -0.012403832 0.056588795 -0.083129585 0.1198182 0.21845366
-0.032754797 0.047984354 -0.052973058 0.22014186 0.10542621 -0.11716453 0.08989879 -0.21596223
0.023672394 0.02670886 -0.13726303 0.13356349 -0.08395102 -0.1690685 0.22546124 0.038604748
0.098947525 0.18488626 0.12746327 -0.05687345 -0.1999466 -0.035581924 -0.040072322 0.1991528
-0.25923622 -0.1898731 -0.075915754 -0.07101877 0.16590942 0.13103527 -0.048815757 -0.027532866
0.28620735 0.10161172 -0.07440119 0.15639491 0.099109255 0.04150443 0.0920782 -0.040663853
-0.17176057 0.066953324 0.17614989 0.15027301 0.32482845 0.11331886 -0.24485515 -0.2769043
0.097025946 0.27215868 0.09534856 -0.105512336 0.0064854496 0.012533524 0.15367772 0.20655353
0.018069053 -0.11889647 0.08253866 0.024494393 0.18291946 0.0024042234 -0.11872117 0.03272231
-0.1894296 0.12648416 -0.1269855 0.06063865 -0.10929813 -0.085087866 -0.08874526 -0.010604858
0.10374991 0.027954385 -0.07175653 0.28026223 -0.13183033 -0.22824973 -0.20905165 -0.12855507
0.03680059 0.05515077 -0.15667322 0.18923767 -0.014534299 0.0175009 0.21245871 0.2924774
0.12384941 0.15353537 -0.040994946 0.040358122 -0.06534428 0.17464958 0.098517686 0.20257632
-0.09952722 0.089797415 -0.12870117 -0.07481215 0.30708802 -0.24213283 0.35379863 0.23443128
-0.32055113 -0.07148617 -0.12882076 0.22229075 -0.3413111 0.14273888 0.016451038 0.028754447
-0.0074751643 -0.1242958 -0.40084717 -0.22359233 -0.24029528 -0.05376744 -0.06400398 0.18596284

transformerEnc.layers.0.linear1.bias f4 [2048]
00000000: b3e6 85be d4e0 2abe 8918 9abd 911e 5cbe
00000010: dc8f c7bd 7d79 07be 1cbc 46be 455c aabd
00000020: 671b c53a 7120 20bd f9f5 48bd dd2a 993d
00000030: bbda 2dbe 813a 13bd 7a90 10bd 12d8 02be
00000040: 6d4c 3fbe e673 f03d a488 703d da37 65be
00000050: 7a5b 4cbd 65c3 7ebd 176e c03d 13a9 0cbd
00000060: afee 48bd 8d0c 75be 6f87 62be 2ae2 833d
00000070: ce14 1cbc ac70 30bd eed9 2c3d b24b 18be
00000080: 6063 eabd 3c41 2fbe 0c6f 17be 907c f6bd
00000090: f9ac c73c 0ed6 9d3c fff0 bbbc 095b 9a3d
000000a0: 67fb 35be 2c25 1f3d f25e bcbc 4953 b2bd
000000b0: 4a81 33bd 1538 89be 25d4 54bd c9ab 8b3d
000000c0: d2d9 01bc 16e6 12bd d09c 56be ca7d 9dbd
000000d0: bf24 043d d48d b83d 86e3 9bbc 61fa a1bd
000000e0: e0a2 81be 6413 e23c e5cc 55bd 8e04 6abd
000000f0: c750 63be 3879 863d 8313 22ba ccde 37bd
00000100: 8d1b 04be 2ed3 d9bd 6576 55bd cb98 14be
00000110: ddd5 e43c 6a3a c3bc 0428 a7bd 41d2 393d
00000120: 35da d7bd 8cfd 9bbd 0b44 c7bd 3bb3 91bd
00000130: cb36 62bd 5395 8b3d cd25 a0bd 2855 0cbe
00000140: b025 a93d d473 d4bb 9e3b 06be 4f9a 67be
00000150: 6f86 55bd 84ef 22be 4201 523d 5c73 7bbe
00000160: ea9e 7fbe 6e81 0e3d 9861 9fbe b874 2cba
00000170: 8edf 2cbd c178 c1bd d9ad 6fbe 002a 39be
00000180: e366 8e3d fc66 a53d 0259 81be 102c 3dbe
00000190: 398d aabd 42fc 9dbe aca7 2abe f05e 983d
000001a0: 4ae5 bebd be62 46be 1bd8 10bd e5f6 0abd
000001b0: 16c0 54bd b980 69be 0561 423b 9f59 17be
000001c0: c2cd 9cbd ad17 28bc 4f7a 7cbe c8d4 27be
000001d0: 9b14 1f3d ba22 50be 3d6d 30be 0229 90bd
000001e0: 7429 34bc a0f6 823d 5955 1abd c2cb 8ebd
000001f0: 293b ba3d 45d9 abbd 155a 19be f26c 6dbe
00000200: 5e73 89be 19b6 1cbd e361 7dbe 4801 cabd
00000210: 798b 553c 0841 20bd 3732 2abe 4a32 6cbd
00000220: 05f3 90bd edd5 9fbd fc33 ad3c 842d e2bd
00000230: 0478 eabd c869 9e3d 09aa f2bd 3cf9 d03c
00000240: dd72 e8bb 9f01 80bd 0ff1 24be 5cd5 3bbe
00000250: 762b 12be af0a 2fbe ee69 533d 851d b8bd
00000260: 9f4a 863c df3e c3bd a7b7 94be 539b ca3d
00000270: d45f 26be 98c0 93bd 7864 643d 4524 bebd
00000280: 64a4 24be c4c6 84be 5849 debd adbe 55be
00000290: 40a5 de3d 43ac 5abe 3998 bfbd a0f7 9fbd
000002a0: 126c 8e3b 0310 c63c 53e7 3bbe ae61 903a
000002b0: c4fe 0dbe 968c 883d 1be3 19be ba18 0fbd
000002c0: f922 81be 5943 27be 727f b13d 8b19 45bd
000002d0: f239 f5bc c7ad 853d 38bd d7bd 780a 69bd
000002e0: 1126 59be 0e2d 28be 7aa1 bf3d 586d 14be
000002f0: cd62 f3bc 7585 07be 45ed 483d 9e97 2abd
00000300: a1ff 82be be8e 5cbe 96b9 91bd 3211 d33d
00000310: 41b3 23be ade4 fabc b605 00bd fd01 d53c
00000320: cc4e 2dbe cdb9 903d 4cef 803d 8f36 83be
00000330: aa90 04be 4ec5 1cbe 456d f3bd 9f08 1c3d
00000340: 3a5c 9c3d 648d c8bd b74f 52be c099 3cbd
00000350: 28ac 2ebd 10d5 e1bd 9d9d 6b3d e8f8 813d
00000360: 17fc d1bd 0499 18bc 5337 97bd 08cd d43d
00000370: a262 64be 62e1 fdbd ae34 4cbd d0b1 18be
00000380: 8995 f6bd 26d1 18be 3cf4 623d 3f68 d53b
00000390: a4d4 9a3d 17ba ebba ed72 c2bc f098 12bc
000003a0: 795c c93c f03f 72bd bebf af3c 7ba5 76be
000003b0: 7880 28be 2cbe 4a3d bbaa 77be 7949 f73b
000003c0: a744 75bb 672f 5d3d fa8a 23be fc85 b33c
000003d0: 8a49 5ebe 8c92 1bbd ee22 ec3b b720 13be
000003e0: 949c 83be 737d cc3d 3e29 a63d 4c25 a23d
000003f0: 426a 28bc ac06 06be 6ede 92bd 5474 68bd
-0.26152572 -0.16687328 -0.07524211 -0.21496035 -0.09744236 -0.13229938 -0.19407696 -0.0831838
0.0015038074 -0.03909344 -0.049062703 0.07478879 -0.1697797 -0.035944466 -0.035294034 -0.12777737
-0.18681498 0.11740856 0.05872406 -0.22384587 -0.049891926 -0.06219806 0.09395998 -0.03434093
-0.04905575 -0.23930569 -0.22121976 0.06439622 -0.009526445 -0.043076202 0.04220002 -0.14872625
-0.114447355 -0.17114729 -0.14788455 -0.12035477 0.024374472 0.019267108 -0.022942064 0.07536895
-0.17771684 0.03885381 -0.022994492 -0.08707292 -0.04382447 -0.268006 -0.05196013 0.06819875
-0.007925468 -0.03586396 -0.20958257 -0.07690008 0.032261606 0.090114266 -0.01902939 -0.07909084
-0.25319576 0.027597137 -0.052197356 -0.05713325 -0.22198783 0.065660894 -0.0006182717 -0.04489021
-0.12901135 -0.106359825 -0.052114863 -0.14511411 0.02793401 -0.023831565 -0.08161929 0.04536653
-0.105396666 -0.076167196 -0.09729775 -0.071142636 -0.055228036 0.06815591 -0.0781971 -0.1370436
0.082591414 -0.0064835344 -0.1310868 -0.22617458 -0.05213016 -0.1591168 0.05127073 -0.24555725
-0.24962965 0.034791403 -0.31129146 -0.0006578672 -0.042205386 -0.0944686 -0.23406161 -0.18082428
0.06953218 0.08076283 -0.2526322 -0.1847384 -0.08327717 -0.3085652 -0.16665524 0.07439983
-0.09321077 -0.19373605 -0.035362344 -0.033926863 -0.051941 -0.2280301 0.002965988 -0.14780281
-0.07656433 -0.010259551 -0.24656032 -0.16389763 0.03883801 -0.20325747 -0.17229171 -0.070390716
-0.010996211 0.06394696 -0.03767905 -0.069724575 0.09093315 -0.0839105 -0.1497577 -0.2318609
-0.2684583 -0.0382596 -0.24744372 -0.09863526 0.013033741 -0.03912452 -0.16620718 -0.057665147
-0.07077602 -0.07804475 0.021142952 -0.11043838 -0.114486724 0.0773502 -0.11848838 0.02550947
-0.007093771 -0.06250309 -0.16107582 -0.18343109 -0.14274392 -0.17093919 0.051614694 -0.089900054
0.016393004 -0.09533476 -0.29046366 0.09892907 -0.16247493 -0.07214469 0.055759877 -0.092842616
-0.16078335 -0.25932896 -0.10853833 -0.20873518 0.10871363 -0.21354775 -0.09355206 -0.078109026
0.004346379 0.024177557 -0.18349962 0.0011015439 -0.13866717 0.0666744 -0.1502804 -0.03493569
-0.25221995 -0.16334285 0.086668864 -0.048120063 -0.029934857 0.06527286 -0.105341375 -0.05689475
-0.21205927 -0.16423437 0.09356971 -0.14494836 -0.029710198 -0.13234504 0.049054403 -0.0416485
-0.25585654 -0.21538827 -0.07115476 0.10306014 -0.15986349 -0.03062662 -0.031255446 0.026001925
-0.1692459 0.07066689 0.06295642 -0.25627562 -0.1294581 -0.15309641 -0.11886076 0.03809416
0.07634778 -0.09792593 -0.20538221 -0.046045065 -0.04264465 -0.110269666 0.05752336 0.06346303
-0.102531604 -0.0093138255 -0.07383599 0.10390669 -0.2230325 -0.12396504 -0.049854927 -0.1491158
-0.1204024 -0.14923534 0.0554087 0.0065126712 0.07560089 -0.0017984536 -0.023736442 -0.008947596
0.024580227 -0.059143007 0.021453734 -0.24086563 -0.16455257 0.04949777 -0.24186222 0.0075466004
-0.0037424953 0.054000285 -0.15970984 0.021914475 -0.2170774 -0.037981555 0.0072063124 -0.14367948
-0.25705397 0.09984865 0.08113335 0.0791727 -0.01027924 -0.13088483 -0.07171331 -0.056751564

transformerEnc.layers.0.linear2.weight f4 [32, 2048]
00000000: 0feb 05bf 3dde fbbe afd8 f5bc 3383 623e
00000010: 3836 18bd 11ad 713c 37e1 c23d 253e cf3d
00000020: 2929 9b3d d1c3 63bd c666 c03d 6054 ebbc
00000030: 0815 8abc 78cf 0abe eedf c0be 084c 843d
00000040: 0231 243c c039 6bbb 5eec 99bb e601 543e
00000050: a955 95bc acd4 4dbe edd1 f73b 9457 25bb
00000060: acbd 19be c36e 0ebe 5723 0fbf de6e 793e
00000070: b99b a2be 3a61 88bd 02fd 5abd 00d0 75be
00000080: 7ac3 463d 1a65 f53a be60 7b3d eb30 a53d
00000090: ed41 523d 616e 2abe df1c 54bc b058 b43e
000000a0: 044a 973e 1913 b93c a808 293e 4d71 7dbd
000000b0: aff7 1d3e fed6 723d 24a6 44be 4bbe 193e
000000c0: 6fb9 13bd 2878 243d 8acf 143e c897 8fbe
000000d0: f153 fc3d c0ce 193c f5d2 f3bc 7de4 7b3c
000000e0: 0b7a d8be 32ad 1f3d bf43 0b3c 79ef 82bd
000000f0: a125 423d aa68 d43c 474a 623e 037a b7bd
00000100: 57fd 35be f0e0 f43d 9a6d ea3d 82f2 afbe
00000110: bb89 3cbe 65f4 fc3c 4c1a f73d 54c9 10bc
00000120: fb81 f73c edb3 d5bc 96ae 0bbe a5ce 59bc
00000130: 956b 023e 3239 c73c f1ee 8cbc 58dd ad3c
00000140: d2dc a83d 6ff8 fbbd f6af dcbd e37a 6e3e
00000150: 104e dcbc bc4e 5fbe 45c7 e7bb 0c90 91be
00000160: b310 65be 2b7d 323c 0f99 89be dfe2 a63e
00000170: 0ead 623d cd46 e2bc a04e 8f3d 18a7 8a3b
00000180: d1dd f1bd 1da5 45be 2522 dfbd 60d3 e4bc
00000190: 78e8 683d 1c39 c4bc 8af2 9dbd 9b3f 173d
000001a0: 0448 b2be 87cd a23c 6dcf c73d 613a d2bd
000001b0: 5079 ce3d 66c8 a7bc 3821 f0bd 17bf c53d
000001c0: a379 78be 1d92 0dbd 95bf f13c 5d05 b4bd
000001d0: 98bd 8b3d 03f6 0d3e 3976 353d da6c 01be
000001e0: 4730 883c 07d5 68bd 5402 5a3c c9f8 c2bc
000001f0: 6927 1bbd 13d9 14be af15 3dbd 996b 9fbe
00000200: bffb 453c 13a6 c4bc 4fee 273d bfdf b8bd
00000210: 15e6 9f3d ca1f 223d 093e d43c f84d 963a
00000220: f9c5 62bd efe2 62bd be7c eb3c cf4d 433d
00000230: d78b 4dbd b132 84bd 920a 6fbd 819a a4bd
00000240: 5f60 0f3e fcb2 07be d089 d9bd 5520 a7bd
00000250: d567 77bd 8889 9cbb f16c 0abe 8fc1 a33d
00000260: 769a 9a3c c903 24bd d638 29be ae89 853e
00000270: c25d 933d 4264 163e bece efbd 0deb 163c
00000280: b47f 15bf 4540 f33b 01f3 5f3e 1f8f 833e
00000290: d467 233d 08b8 d9be 2754 3dbc aa3b 833c
000002a0: 73d7 ad3d f00e b03d 2b24 f4bd 28b4 f73d
000002b0: 413b 41bd a9b1 b8bd 0ebe 88be 6d28 933d
000002c0: 3a43 6d3e 01d7 473c b20e ccbc ae81 f6bd
000002d0: ed49 c33d 5e74 4aba 2a67 2cbd 6920 0fbe
000002e0: 8ac9 8fbe 7989 7d3e 33e2 2cbc fadf 5ebd
000002f0: 3a7b b4bd 6007 d93d 242c 01bd 97aa 32be
00000300: 1563 ddbd 8b65 293d edee 9dbe 2605 df3d
00000310: 272a ce3d 939d 0fbd ed73 c73b 10f5 943e
00000320: 2ad5 183d 578c 06be ea0b 78bc c574 31bf
00000330: 1d2f 843d 74c1 5b3e a2ad abbd 8f7d 3e3c
00000340: b59b c33d 7942 243c 9220 2d3d ee14 933c
00000350: 46f8 0cbe 9ca8 d0be c07e c0bd 9bcb 9f3d
00000360: 3763 733d e583 793d 574f a73d 1802 d0be
00000370: c6c6 53bd 377e 9fbe 2e44 043e 5028 4c3d
00000380: 2ea0 193c 3b22 673d 90eb 233f 78a9 a4bd
00000390: 2889 ddbd 954b 093e 745f 52be 0698 a4bd
000003a0: b9d6 8f3e b73f 163d 95d4 e13c 6757 273e
000003b0: cece fa3c e6d1 ecbc 7b4a 04bd 2590 353c
000003c0: cd5b 053d 182b c93d 841b 0fbe a4d4 2f3d
000003d0: c6d4 ca3b a01c 5fbd 6f0e 823c 592d 44bd
000003e0: b116 c63d ab02 b4bc 54aa 8fbd 0a4e 5f3d
000003f0: 4a27 7bbc 5b60 a3bc b27c 93bc 0756 9c3c
-0.52311796 -0.49192992 -0.03001055 0.22120361 -0.037161082 0.014750735 0.095156126 0.10119275
0.0757621 -0.055606667 0.093946025 -0.028726757 -0.016855732 -0.13555706 -0.37670845 0.06459814
0.01002145 -0.0035892576 -0.0046973666 0.20703849 -0.018229323 -0.20100659 0.007562867 -0.0025229203
-0.1501376 -0.1390944 -0.559133 0.24358699 -0.31759432 -0.066591695 -0.053463943 -0.24005127
0.048526265 0.0018722147 0.061371557 0.08065971 0.051332403 -0.16643669 -0.0129463365 0.35223913
0.29548657 0.022592114 0.16507208 -0.06187563 0.15426515 0.059287064 -0.19204003 0.15013997
-0.036065515 0.040153652 0.14532295 -0.28045487 0.12320698 0.009387672 -0.029763678 0.0153743
-0.4228061 0.03898353 0.008500039 -0.06393332 0.047399167 0.025928814 0.22098647 -0.08958819
-0.17772423 0.11956966 0.11446686 -0.34364706 -0.18411915 0.030878255 0.120655626 -0.008837063
0.030213347 -0.026086772 -0.13640818 -0.013293897 0.12736352 0.024319265 -0.01720378 0.021223709
0.08245243 -0.12303244 -0.107757494 0.23289065 -0.026892692 -0.21807379 -0.0070733153 -0.28430212
-0.22369651 0.0108941 -0.26874587 0.32594964 0.05534082 -0.027621651 0.069974184 0.004231345
-0.11809886 -0.19301267 -0.108951844 -0.027932823 0.056862324 -0.023953013 -0.07712276 0.036925893
-0.3482057 0.019873394 0.0975636 -0.10265041 0.10081732 -0.0204813 -0.11725086 0.09655588
-0.2426515 -0.034563173 0.029510299 -0.087900855 0.068232715 0.13863377 0.0443022 -0.1263918
0.016624583 -0.056843784 0.013306219 -0.02380027 -0.03787938 -0.14535932 -0.046163257 -0.31136778
0.012083947 -0.024004972 0.040998753 -0.09027051 0.078075565 0.039581098 0.025908487 0.0011467328
-0.055364583 -0.055392202 0.028746005 0.047681626 -0.05018219 -0.06454981 -0.05835969 -0.08037282
0.14001606 -0.13251871 -0.10621989 -0.08160464 -0.060401756 -0.004777137 -0.1351812 0.07995903
0.01887248 -0.040042672 -0.16525587 0.26081604 0.07195617 0.14686683 -0.11709355 0.009211314
-0.58397985 0.007423433 0.21870042 0.2569513 0.03989394 -0.42523217 -0.011555708 0.016019661
0.08488359 0.08596599 -0.11920961 0.12094909 -0.04717565 -0.09018261 -0.267075 0.07185445
0.23170176 0.012197257 -0.024909351 -0.12036453 0.095355846 -0.00077230285 -0.042090572 -0.13977207
-0.2808345 0.24759473 -0.010551977 -0.05441282 -0.08812566 0.1059711 -0.031536236 -0.17447887
-0.10809914 0.041356605 -0.30846348 0.10889654 0.10066634 -0.035062384 0.0060868175 0.29093218
0.037312664 -0.13139473 -0.015139559 -0.693188 0.06454299 0.21460515 -0.08382727 0.011626615
0.09551183 0.010025614 0.04226739 0.017954316 -0.13766584 -0.4075364 -0.09399176 0.078025065
0.05942079 0.0609168 0.0816943 -0.40626597 -0.051703237 -0.31150982 0.12916633 0.049843132
0.009376569 0.05642913 0.64031315 -0.08040136 -0.10817176 0.13407739 -0.20544225 -0.08036809
0.28093508 0.036681857 0.027567187 0.16341935 0.03061619 -0.028908681 -0.032297593 0.01108173
0.03255825 0.098226726 -0.1397534 0.0429274 0.0061899154 -0.05447066 0.015876023 -0.04789481
0.09672297 -0.021973928 -0.070149094 0.054517783 -0.015329191 -0.019943407 -0.018003795 0.01908399

transformerEnc.layers.0.linear2.bias f4 [32]
00000000: 7428 83bd 0d64 633d 6929 11bd a886 e73c
00000010: faf1 c73c 2847 863d 713a 073d eda6 cd3d
00000020: bd36 1ebd 1bbc b33d e2cb dfbd 9e50 c5bc
00000030: dde8 c13d ed8c 7abd 2e69 ad3d 8c4f c23c
00000040: 828d aebd e923 863d 383c 3f3d 4e04 753d
00000050: 673f 763a 6f89 213d 6b55 b63d 05f3 fbbc
00000060: 0685 bdbd 8837 6fbd 2d55 35bd e439 54bd
00000070: 72df c0bd ff25 3f3d 16d3 9c3a 4b3a fcbc
-0.064042 0.055515338 -0.035439882 0.028262451 0.024407376 0.06556541 0.03301472 0.10041604
-0.03862642 0.08776113 -0.109275594 -0.024086293 0.09468243 -0.061169554 0.08467327 0.023719572
-0.08523084 0.06549818 0.04668829 0.05981856 0.0009393603 0.039437708 0.08903011 -0.03075553
-0.09253888 -0.058402568 -0.044270683 -0.05181302 -0.09417619 0.046667095 0.0011964764 -0.030789515

transformerEnc.layers.0.norm1.weight f4 [32]
00000000: db94 703f c93a 8f3f a2a6 763f d51f 6e3f
00000010: 583b 643f 70ce 7f3f e8bb 6a3f 2cd1 873f
00000020: bc52 7a3f ae7d 903f 9c1e 803f f4eb 8b3f
00000030: 7f13 733f 0e94 773f 9bb9 7b3f 765c 8b3f
00000040: aa52 6b3f 033c 793f 2df6 7d3f 4f54 7e3f
00000050: 3406 833f 3858 773f 6c42 863f 2387 993f
00000060: c199 813f 4c49 7a3f dc31 863f 6ec8 7f3f
00000070: d680 7a3f cabf 5c3f e9c5 6f3f 5a60 893f
0.93977135 1.1189815 0.9634801 0.9301732 0.8915305 0.99924374 0.9169297 1.0610709
0.9778249 1.1288354 1.0009341 1.0931382 0.94951624 0.9671029 0.98330086 1.0887592
0.9192301 0.97357196 0.9920376 0.99347395 1.0236268 0.96618986 1.048902 1.1994365
1.0125047 0.9776809 1.0483966 0.99915206 0.9785284 0.86230147 0.9366136 1.0732529

transformerEnc.layers.0.norm1.bias f4 [32]
00000000: cd83 db3d 09f4 74bb 8332 c73b 86d8 c5bd
00000010: bc01 0b3c 649b c8bc e0c8 f0bc cb30 7f3d
00000020: 381a aebd d258 203d 79cb 2f3d e5f8 093d
00000030: a36f 193d da11 7cbd af92 d63d 4cd2 d53c
00000040: e49f 2b3c 992a 0dbe 7512 40bd 85cc 963d
00000050: 3491 cebd 44af 70bd c85b 363d 3ae2 f63c
00000060: 3b45 453d a54a eebc 711f 96bd 299b 85bd
00000070: 12fe 453d 739b 66bd be33 93bd 6087 6f3d
0.107184984 -0.0037376902 0.0060790195 -0.09660439 0.0084843 -0.024488159 -0.02939266 0.062302392
-0.085010946 0.039147206 0.042918656 0.03368463 0.03745998 -0.061540462 0.104771964 0.026101254
0.010475133 -0.13785781 -0.046892602 0.07363228 -0.10086289 -0.058760896 0.044521123 0.03013717
0.048161726 -0.029088328 -0.07330216 -0.06523735 0.048338003 -0.05630059 -0.071876034 0.058478713

transformerEnc.layers.0.norm2.weight f4 [32]
00000000: b0cd 793f 42e9 783f d527 8f3f 6f08 943f
00000010: 4a16 673f 8f2c 803f 36bf 823f 19ea 8d3f
00000020: c4f7 5e3f 7a58 843f b57f 793f 2c42 923f
00000030: 6a1e 7b3f 2081 7c3f 912f 6f3f 8fb0 943f
00000040: 25bd 773f f7f6 843f 1229 5e3f 23bf 653f
00000050: 610e 713f 63df 893f 52ac 593f e7d0 8f3f
00000060: f3d8 853f 27b7 933f 71a4 823f 45d6 983f
00000070: ed85 793f 2164 723f 3a91 8b3f a67e 803f
0.9757948 0.97230923 1.1184031 1.1565074 0.90268385 1.0013598 1.0214603 1.1087066
0.8709681 1.0339501 0.9746049 1.1426444 0.98093283 0.9863453 0.93431956 1.1616381
0.96772987 1.0387868 0.8678142 0.89744776 0.94162565 1.0771297 0.85028565 1.1235627
1.0456833 1.1540269 1.0206434 1.194039 0.9746998 0.94684035 1.0903695 1.003865

transformerEnc.layers.0.norm2.bias f4 [32]
00000000: 3095 993d ebd2 28bd 5bd9 edbb 890c 35bd
00000010: 1803 94bd 7c6d 21bd 4061 c73d 5c11 babc
00000020: e689 c6bc f292 0cbd 3571 bd3c 487a 5e3d
00000030: 8912 7fbc 7186 593d 0650 e3bc 739f 7dbd
00000040: dfc6 123d 9d75 0ebd 3591 e7bc 7bff bc3d
00000050: af2c 85bd bd7c 2ebd 8e4c 90bc 9c0d 3b3d
00000060: 4c3d 213d c1a7 853d fbad 2d3d 4acb 25be
00000070: cd25 cf3c 8998 d1bd f7c9 763d ea51 d53d
0.074991584 -0.041216772 -0.007258577 -0.044201408 -0.072271526 -0.039411053 0.09735346 -0.022713356
-0.024235677 -0.034319825 0.02312527 0.054315835 -0.015568384 0.05310673 -0.02774812 -0.06191964
0.03583419 -0.034780134 -0.028267482 0.092284165 -0.06502663 -0.04259943 -0.01761463 0.045667276
0.039365098 0.06526137 0.04240225 -0.1619083 0.02528658 -0.10234172 0.060251202 0.104160145
