GHI Forecasting/models/savedWeights/ckpts/GHIforecasting_ckpt.pth (torch, 308610 bytes, 30 tensors)

lstm.weight_ih_l0 f4 [128, 86]
00000000: 4953 1c3e ce07 273e ad94 f63c 425d 0abd
00000010: 2583 103e 1e3e 09bd 7590 d73d b48c dbbc
00000020: 6d92 f13d 0db2 05b7 95cf 68be e80e a5bc
00000030: 7284 15bb 715f 953d 4dea e3bc 3c8a fd3d
00000040: 76f4 48be 03c0 7bbd 81df 443e 81ce 1d3d
00000050: 0fb7 89bc 6d93 1e3e d8dc 353e 09e1 063e
00000060: ec94 843d 087a 18bd cb8e 283e 3b8a 30bd
00000070: dee3 3ebe 2e52 523d 72ab 3fbe ddc9 89bd
00000080: cfbf d33d 9df5 0ebe eb33 d33d d5fd 2d3e
00000090: 1c92 36be 2de0 bdbd b067 2bbd 3d81 f13d
000000a0: a2e6 36be f71b efbd 7705 8cbd e43c fa3d
000000b0: b993 d23d ce53 0dbe c069 d83d 9307 45bd
000000c0: 63f5 13be 47b3 e23d dae7 8e3d e418 4dbe
000000d0: afb0 013e 1977 e03d 0f29 ce3c 7c02 d33d
000000e0: 3681 be3d 10ea 4f3d 869c 923d 91fc ba3d
000000f0: cd88 c3bd d2e9 f3bd 92d1 49be 47b7 363e
00000100: aae5 5bbe 310f 18be 8700 d43d 3685 3e3e
00000110: 5b75 83be f564 b53e e9b1 963d d72e 14be
00000120: 7038 14bf fc99 5b3e 9935 8dbd 2dda ff3c
00000130: 7445 45bd e423 f53c 11f2 a33d 11a6 9c3e
00000140: 1b6e 463e 8287 b93d 600e b53d 4e78 2b3e
00000150: 1702 8e3d 8276 dcbd a5b1 453d 2139 83bd
00000160: bfca 093d 4a4b c33d c523 2d3e c9d8 c93e
00000170: a10a 19bd 18c4 f4bc 1394 d2bd de61 c23d
00000180: 76ff 05be 7228 903c 14b1 f2bd 2b40 09bd
00000190: 5690 35be e6f6 00be d302 50bd 9d51 c4bd
000001a0: d4c4 30be 2db8 fe3c 07ca 27be 1919 6dbe
000001b0: 7a77 8e3d d133 12bd 9cbd 0f3e ba9b 833d
000001c0: 9817 14bd c702 413e da2a c6bd 2677 cbbd
000001d0: 5281 c33d db5a 37bd 003b 2f3e e130 d93d
000001e0: 4a2a a8bd 8e60 c13d d5ca febc 53fd 8cbd
000001f0: 1fe7 3abd daba fe3c b1ed ee3d 855e 9d3e
00000200: 709f a43c 335a a23e a992 29be bad3 5fbe
00000210: d360 953d 56ae 4bbd bbb3 083e 50a3 213e
00000220: 7402 373e d956 5dbd 27b0 71bd e3d6 0c3d
00000230: ffab 8dbc 73aa 99bd a779 c1bd 1ed7 3fbe
00000240: 0266 67be ebd1 02be c576 233e 27e2 a93e
00000250: 99bb 62bd 0b69 63bc dd62 42bf 7f6b 36bf
00000260: b5f7 d3be 2ec9 693e 5665 e9be 7915 7bbd
00000270: 36ca 67bd 6377 97be edb0 61be 837d 06bc
00000280: 61ba 3bbe 3b4f 04bf 389a b13e dc94 be3d
00000290: 85a4 14bf f350 50be 640b c0bd eaf7 93bd
000002a0: 8474 babd 1300 2abf 1ccc 353e 09d5 8cbe
000002b0: e03c 8a3d ae1b 7f3e d0d9 103e 7bc4 1bbe
000002c0: c859 993d b6b8 933d b3ba 1cbc 8157 093e
000002d0: d231 933d 6e2f ecbc 115e 2c3d 06ef 15bd
000002e0: 3e8a 99bd 69e2 42be 8617 7b3c e0ca 213e
000002f0: 92ab c13d 3c80 1f3e 5b01 77bc 85f5 f83d
00000300: 3c63 9f3d da18 973c f62b 1cbe a245 0cbe
00000310: f720 09bd 51be 85bd f8ee 643d f397 103e
00000320: 070e adbd e975 19be 6111 30be 0740 023e
00000330: 0499 26be 1c50 31be 501c 8c3d fa5d 9b3b
00000340: 77ba 04be 7b9f 213e 6da0 b2bc d92c d7bd
00000350: 69bc d7bc 5073 2d3d 29df 233e eca3 3cbd
00000360: 4b12 023e 5c74 2bbe a810 7d3d 9140 8d3b
00000370: b313 973d 2d0c a33d 6e4c 01be 636d 72bd
00000380: 5d5c ff3d c6b0 30be 336c 13be 378b e5bc
00000390: 546e 0cbe 5b60 20bd cc6b fa3d 0cf1 01be
000003a0: 95f7 513d 1d4a 383d 0c87 83be 2ec5 52be
000003b0: 19a0 06be 05fa 843e 2c30 3a3c b52e e03d
000003c0: 6419 c8bd 0dd4 383e da6d 3b3d 21e6 663e
000003d0: a04c aebe 0601 03be 3572 2e3e f85e 7f3f
000003e0: 4e67 dabe 3d96 993d 26d8 db3e d914 7bbe
000003f0: 914b 413e 2635 0c3d 6b9a c23b 8182 933d
0.15266146 0.16311571 0.030100191 -0.033780344 0.14112528 -0.033506505 0.105256 -0.02680049
0.117955066 -7.968873e-06 -0.22735436 -0.02014871 -0.002281454 0.07293595 -0.027821684 0.12379882
-0.19624504 -0.061462414 0.19225885 0.038527016 -0.016810922 0.15485926 0.17760026 0.13171782
0.06473717 -0.037225753 0.16460721 -0.043100577 -0.18641612 0.051347904 -0.18717745 -0.067279555
0.10339319 -0.13960882 0.10312637 0.1699136 -0.17829174 -0.09271274 -0.04184693 0.11792228
-0.17861417 -0.11675256 -0.0683698 0.12218645 0.10282082 -0.138015 0.10567045 -0.048102926
-0.14449076 0.11069351 0.06977816 -0.20029026 0.12665056 0.10960216 0.025166063 0.10303208
0.09301989 0.05076033 0.07158761 0.091302045 -0.09547577 -0.11909832 -0.19708851 0.17843352
-0.21474329 -0.14849545 0.10351663 0.18605503 -0.25675473 0.35428587 0.073581524 -0.14470993
-0.57898617 0.21445459 -0.068949886 0.031231964 -0.04816194 0.02992434 0.08005155 0.3059545
0.1937794 0.09059049 0.088406324 0.16745111 0.06933992 -0.10764791 0.04826512 -0.06407381
0.03364062 0.095358446 0.16908176 0.39423206 -0.037363652 -0.029878661 -0.10282149 0.09491323
-0.13085732 0.01759741 -0.11850181 -0.03350846 -0.17730841 -0.12594184 -0.050783943 -0.09585879
-0.17262584 0.031093681 -0.16385661 -0.23154105 0.06956382 -0.035693947 0.14037174 0.06426187
-0.036155313 0.18848716 -0.09676142 -0.09934835 0.0954615 -0.04476438 0.1711235 0.10605026
-0.08211191 0.094422445 -0.031102577 -0.06884255 -0.04563057 0.031094957 0.1166643 0.30736175
0.020095557 0.31709442 -0.16559853 -0.21858111 0.072938584 -0.049726807 0.13349812 0.15784955
0.1787203 -0.054037903 -0.059005883 0.03438462 -0.017293928 -0.07503214 -0.094470315 -0.18734404
-0.22597507 -0.1277539 0.15963276 0.33180353 -0.05535469 -0.013880025 -0.75932103 -0.71257776
-0.41399923 0.2283065 -0.45585126 -0.061299775 -0.056589328 -0.29583272 -0.22040148 -0.008208635
-0.18332817 -0.51683396 0.34687972 0.093057364 -0.58063537 -0.2034338 -0.093771726 -0.0722502
-0.09104255 -0.66406363 0.17753643 -0.27506283 0.06749892 0.24912903 0.14145589 -0.1521167
0.074878275 0.07212965 -0.009565997 0.13412286 0.07187237 -0.02883121 0.042081896 -0.036604904
-0.07497071 -0.19031681 0.015325433 0.15800047 0.094565526 0.15576261 -0.015076007 0.12156204
0.07782599 0.018444467 -0.15251145 -0.13698438 -0.033478703 -0.065304406 0.05589196 0.14120464
-0.08449941 -0.14986385 -0.1719413 0.12719737 -0.16269308 -0.17315716 0.06841338 0.0047414275
-0.12961756 0.15783493 -0.021805013 -0.10506601 -0.026334958 0.0423463 0.16003098 -0.046054766
0.1270229 -0.16743606 0.061783463 0.0043106754 0.07376804 0.07961307 -0.12626812 -0.05918635
0.12468789 -0.17254934 -0.14396743 -0.028020484 -0.13713962 -0.03915439 0.12227592 -0.12689608
0.051261503 0.044992555 -0.2568897 -0.2058303 -0.1314701 0.25972 0.011364024 0.10946409
-0.09770468 0.18049641 0.04575906 0.22548725 -0.34042835 -0.12793359 0.17035754 0.99754286
-0.4265694 0.07499359 0.42938346 -0.24519671 0.18876483 0.034230374 0.005938818 0.07202626

lstm.weight_hh_l0 f4 [128, 32]
00000000: a86e 603d ec24 71be 9025 f7be 35c7 163e
00000010: 9cc6 93be d7d6 b03c 4b3c 90bd 13a6 b7be
00000020: 3f1d 383e c03e 83be edb4 34be 719f 07be
00000030: c3ad 4cbe 7a8d 8bbb 2124 bcbd cb69 bbbc
00000040: 667d 7cbd 51d2 533d 452e b7bb f086 4dbe
00000050: a762 a4be e27d 163d 2b76 c8bd 5691 153d
00000060: 32d9 273e a01c ec3e 4a2e 89bd 7000 713d
00000070: f69f 87bd 478b 4cbe 1eff 33bd c668 29be
00000080: f77e abbd 50c9 3ebd 6f89 6e3d 633a 973d
00000090: e1f5 e43d 58f9 4cbe 39e7 823e ba04 113e
000000a0: ab9c 123c 344d f9bd 839d 07bd f897 b53b
000000b0: b324 20bd f1c1 f239 7f51 29be dd20 b4bd
000000c0: 3338 9d3d 74be f1bc f669 f9bd 06e6 d23c
000000d0: 0411 52be dc24 49be f78b 84be 44e1 a43e
000000e0: 81b7 edbd 3cde a6be 543e 31be d35b 12be
000000f0: 012e 0d3e c875 03be 6c38 4ebd a18f 73bd
00000100: 6ddc 09be 2a99 7ebe 1af8 273e c5ed 8fbd
00000110: a8cf c23d 16ae 92be f9fc 1a3e cc86 5b3c
00000120: ceb8 3fbe aef2 60be f03c 123e 3cb5 07bd
00000130: e8f6 85bd 0ce9 0cbe 7ea5 20be bc8b 193d
00000140: 36e2 17bd ea9c 12be 6a87 86bd 2d11 6a3d
00000150: a6b1 92bc 68c5 503e 3385 31be b45a 9ebd
00000160: 211e 413e 1ea0 313d 5271 333e 51da f0bd
00000170: 35d6 b03d 4217 9cbd 8afb a0bc 8344 38be
00000180: 6f94 2ebe fa65 e93d d900 40be e59f aebe
00000190: f2e4 3cbe dbe7 0bbe 3be4 053e 2428 56bd
000001a0: f842 05be 5bff 9ebe b774 cc3c a2de b43d
000001b0: a6ba e13d 8988 39be f28e 513d ad6e d63c
000001c0: ad8d 9bbe fa33 d9bc 76ff 4c3e ef93 a1bd
000001d0: 69d6 70be c0f4 3b3e f006 bfba 2001 0fbe
000001e0: 6043 89bd 88bf 293e 48fa c0bd 86e0 46be
000001f0: af26 763d 99c4 e43d 38ec 78be 4005 a9ba
00000200: 6484 183e 7198 313e 9717 013e 9d3d 16be
00000210: b280 bebd 2e29 66bd 7710 07bd 5ad5 4a3e
00000220: 7332 0f3d b8ae 62bd da4c ccbd 8b84 963d
00000230: 4f08 f6be 7532 13bc 8c68 8dbd 7792 c9bc
00000240: c51e 17be a32b 823e 1678 abbc 1090 91bc
00000250: 9467 7f3e 4f02 773e ff54 813e c220 99be
00000260: 304d c83d 3163 a43d ad75 48be ad40 223e
00000270: 716d 863e 154d 513e 80d2 08be ca4a 613e
00000280: 69e2 9abe 4fb0 cbbd 2ff1 04bd 44ff 553e
00000290: 48a1 9cbd d836 15be ab26 d23d bf15 903d
000002a0: 2b16 763e da5d 53bd 82a3 26bd 7000 dc3d
000002b0: 1bfe 75be fcde c2bb 93bd 8dbe 5051 8e3e
000002c0: aebf 83be ab17 f33d 7bd4 babc 0d17 543e
000002d0: 5b8e cc3d 7098 123e 41d9 5ebe effb 60bd
000002e0: 747d 8bbd 26b1 413e f955 3e3d ada9 6abc
000002f0: fe9d 5cbd d657 623d 72dc 4dbe 86ca 7cbe
00000300: b31e 723e f113 19bf 6ddd a0be b48e e9be
00000310: d0a0 edbc 8686 65be 0b0e 74be becd 05be
00000320: 4dc0 743e 86e8 3abe 3531 18be 681d c73c
00000330: 9191 ee3e 8683 af3c 2930 983c 0c04 3ab8
00000340: d34e a4be 19db d93e 4013 0abe 9905 5c3e
00000350: c66c 96bd bb60 053f 8fca 6ebe 5250 c1bd
00000360: c52f 06be 3e3c 083e dd8d d93e 4b57 7bbe
00000370: e7ed b63d 11b7 90be 81b9 bbbe 38cd 21bd
00000380: 222a cc3d 7d3b 893d 46fd 93be f02d f3bb
00000390: 45c3 dbbd b8d0 02be e3a6 01be bc9f 8dbd
000003a0: aad1 2fbd 688e 7e3d dfd3 c03d 9703 32bd
000003b0: 0e08 47be d2a4 f9bd 054b 073e 8ac0 e3bd
000003c0: 0f06 09be 86b5 6e3e b964 adbd 59b5 a0be
000003d0: c052 f3bc b3ee eb3d 71e6 03be fc1f 5bbe
000003e0: 7ea3 a0bd 2026 f5bc aae6 883a 2a90 4c3d
000003f0: 0262 39be dc0b 2f3e 9105 10bd 072b 40bd
0.05479303 -0.23549241 -0.48270845 0.14724429 -0.28862464 0.021586819 -0.0704275 -0.35868892
0.17979906 -0.25633812 -0.17647143 -0.13244416 -0.1998816 -0.0042588087 -0.091865785 -0.022877594
-0.061643027 0.051714245 -0.0055902326 -0.20071006 -0.32106516 0.036741145 -0.09788164 0.036515556
0.16391447 0.4611559 -0.06698282 0.058838308 -0.06622307 -0.19975005 -0.04394447 -0.16543874
-0.08373826 -0.046578705 0.058236536 0.07384183 0.1117971 -0.20016992 0.25567034 0.1416196
0.008948485 -0.121729285 -0.0331092 0.0055417977 -0.0390975 0.00046302335 -0.16534995 -0.08795331
0.07676735 -0.02950976 -0.121784136 0.02574445 -0.20514303 -0.19642967 -0.25888035 0.32203114
-0.11607266 -0.32591426 -0.17308933 -0.1429284 0.1378708 -0.12837899 -0.050346777 -0.059463147
-0.13462992 -0.24863115 0.16403237 -0.07027773 0.095122635 -0.28648442 0.15135564 0.013398837
-0.18722841 -0.21967575 0.14281058 -0.033131823 -0.06541234 -0.13760775 -0.1568813 0.037486777
-0.037080966 -0.1431767 -0.06568797 0.057145286 -0.017906975 0.20387805 -0.17335968 -0.07732144
0.1885915 0.04336559 0.17523697 -0.117603905 0.08634607 -0.076216236 -0.019651193 -0.17994885
-0.1704881 0.113964036 -0.18750323 -0.34106365 -0.1844671 -0.13662665 0.13075344 -0.052284375
-0.13013828 -0.31054196 0.024957998 0.08831526 0.110219285 -0.1811849 0.051161714 0.026175821
-0.30381528 -0.026514042 0.20019326 -0.07889544 -0.23519291 0.18355083 -0.0014574211 -0.13965273
-0.06702304 0.1657697 -0.09422737 -0.19421586 0.060095485 0.111703105 -0.2430886 -0.0012895241
0.14894253 0.17343308 0.12606655 -0.14671941 -0.093018904 -0.056191616 -0.032974686 0.1980795
0.03496022 -0.055342406 -0.09975596 0.07349499 -0.48053214 -0.008984198 -0.06904706 -0.024605973
-0.14757831 0.25423917 -0.020931285 -0.01776889 0.24941856 0.24121974 0.2526016 -0.29907805
0.09780347 0.08026732 -0.1957614 0.15844984 0.26255372 0.2043956 -0.1336155 0.22001186
-0.30250862 -0.099457376 -0.032456573 0.20898157 -0.076479495 -0.14571702 0.102612816 0.07035398
0.24031894 -0.051603176 -0.040683277 0.10742271 -0.24022715 -0.005946992 -0.27683696 0.27796412
-0.25732177 0.11869749 -0.022806397 0.20711918 0.0998809 0.14315963 -0.21762563 -0.054927763
-0.06811038 0.18915233 0.04646871 -0.01432268 -0.05386161 0.055259548 -0.20103624 -0.24686632
0.23644523 -0.59796053 -0.31418934 -0.45616686 -0.029007345 -0.22414598 -0.23833482 -0.13066766
0.23901482 -0.18252763 -0.14862521 0.024306014 0.46595433 0.02142502 0.018577652 -4.4349625e-05
-0.32091388 0.4254997 -0.13483906 0.2148651 -0.07344966 0.52100724 -0.23319457 -0.09439148
-0.1310416 0.1330423 0.42491046 -0.24545018 0.08932095 -0.2826467 -0.36664966 -0.039502352
0.09968974 0.067007996 -0.2890417 -0.0074212477 -0.10730604 -0.12774932 -0.12661318 -0.069152325
-0.04292456 0.062147528 0.09415411 -0.043460455 -0.19436666 -0.1218964 0.13212211 -0.11120708
-0.13381217 0.23311433 -0.08466477 -0.31388357 -0.029702544 0.11520138 -0.12880875 -0.2139892
-0.07843684 -0.029925406 0.001044472 0.049942173 -0.18103793 0.17094368 -0.03516156 -0.046916034

lstm.bias_ih_l0 f4 [128]
00000000: 8a8a 1cbd 0a53 2e3e 6ff1 a03d 7e0f 853e
00000010: 568a a23d da31 f23c 4405 623e f88c ca3d
00000020: d76e dd3d b1ad cebd b55b b63d b597 453e
00000030: b79e 183e 4841 36bd 3501 903d c160 983d
00000040: c7b0 983d 2661 17bd 9d26 d23d 0da8 b7bb
00000050: ff48 5f3e 10e2 32be 943b 12bd 8566 3b3e
00000060: da1c 8ebd 0123 e33c 7a34 023e c7d3 853d
00000070: 6eff 0d3e 30c4 433e 85eb f7bd 3112 f13d
00000080: 02fc e2bd ce3c 8a3e 3f95 173e c02c e93d
00000090: a38f 7d3d 57a0 e83d 26ab 8f3d 5010 143c
000000a0: 2542 bd3c a04e da3d 5e04 dc3d 89e0 3ebe
000000b0: e4f6 f73d cf44 663d b5db 2d3a ac43 c73e
000000c0: 5e26 d73c e69f 90bd 197c ca3d 1e25 883e
000000d0: d71b 673e 88fa db3d a2e5 033e 9bbd 5b3e
000000e0: 65c0 aa3d eca6 d5bd f1ed 18bd 27f9 00bb
000000f0: a6e8 b3bc ec2d 793e 091d 74bd b61a 9a3d
00000100: 92b6 233e 8128 9dbe 1979 75bd be96 25bd
00000110: bd61 11be c0c3 2bbe 0669 07be 0fc0 5ebd
00000120: 4012 45be 1546 12be 2dfe ab3b c8cf bc3d
00000130: 0910 6ebc 4dab a03d 3c7d ccbd faa5 e83d
00000140: 7e93 e4bd 36d6 1cbe 80be 67b9 c9de 86be
00000150: 5b66 bfbc c5d0 50bc 3084 fdba 1eb3 9b3d
00000160: 16c0 ab3d 6c66 2abe eb3f 07bd 07e1 40bd
00000170: 784e dbbd 0d13 52be ae8d 79bd d2f9 5abc
00000180: 7f15 933e a60b a53d 5c21 783e c7c0 203e
00000190: db07 8bbd 48b8 033e 26d7 323c 5270 373e
000001a0: 8dea 7f3e ba3d 3cbe 6377 493e 5996 6a3e
000001b0: 8c67 493e f94c 1d3e b646 8e3e 229e f83b
000001c0: 9700 86bd e0c7 8c3e 4210 973c ac61 bd3e
000001d0: 2786 b43d a0ad 9b3e a2ed 773c 7022 203e
000001e0: 1abd 3cbd 9d3b e03d 4fe3 71bb 3d0d 0cbe
000001f0: 5caf bcbd 58fa fb3d e143 483e 54e8 393e
-0.03821806 0.17023864 0.0785855 0.25988382 0.07936542 0.029564787 0.22072321 0.09890169
0.10812157 -0.10091723 0.089042105 0.19296153 0.14904295 -0.04449585 0.0703148 0.07440329
0.074555926 -0.036957882 0.10261271 -0.00560475 0.2180519 -0.17469049 -0.03570135 0.18300827
-0.06939097 0.027726652 0.1271533 0.06534534 0.1386697 0.19117808 -0.12105469 0.11771048
-0.11083223 0.26999515 0.14803027 0.113854885 0.06190456 0.113587074 0.07015066 0.009037092
0.02310283 0.10659528 0.107430205 -0.18640341 0.121076375 0.056217965 0.0006632165 0.38918817
0.026263412 -0.07061748 0.09886951 0.26590818 0.22569214 0.107411444 0.12880567 0.21459047
0.083374776 -0.104322284 -0.037336294 -0.0019679756 -0.021961521 0.24333924 -0.059598003 0.07524626
0.15987614 -0.30694965 -0.05992994 -0.040426962 -0.1419744 -0.16773891 -0.13223657 -0.05438238
-0.19245243 -0.14284547 0.005248806 0.09219319 -0.01453019 0.07845173 -0.09984824 0.113597825
-0.111609444 -0.1531609 -0.00022100843 -0.26341847 -0.023364237 -0.012745087 -0.0019341763 0.07602523
0.08386247 -0.16640633 -0.03301994 -0.047089603 -0.10708326 -0.2051508 -0.060926132 -0.013365226
0.28727338 0.080588624 0.24231476 0.15698539 -0.06788608 0.12863266 0.010915553 0.1791394
0.24991818 -0.18382922 0.19674449 0.22908916 0.19668406 0.15361394 0.27788323 0.0075872103
-0.06543081 0.27496243 0.01844037 0.3698858 0.0881465 0.30405903 0.01513234 0.15638137
-0.04607878 0.1094887 -0.0036909168 -0.13676925 -0.09213135 0.12303609 0.19557144 0.18155032

lstm.bias_hh_l0 f4 [128]
00000000: 08ec 803e 4bac 1ebd e7c1 433e e7c4 e43d
00000010: 7c9d 3bbe 676f 0b3e 5005 593b 22c9 efbd
00000020: 97f0 ca3d fabc 053e 5f11 80bd 8846 883b
00000030: 951f 113e 96e7 e4bc 3b9c a43d b3c0 27bd
00000040: 8d5e 183e dc6a cf3d a9eb 12be 30a9 88bc
00000050: 3c43 133e 1413 16be 5e68 72bd 05d3 a23d
00000060: 8ae6 2e3e b775 59be 45f1 0e3e 4f1a f1bd
00000070: 3e67 10bd d315 963e c868 153e 01d3 b33d
00000080: 3bbd fa3d 21a5 8abd 6f7a 043e 26be b33d
00000090: 3554 2d3e 73e9 fc3c abf6 9c3d d0c8 653d
000000a0: d09d 1f3e c2f2 093e e6c5 dabd 3acb 21be
000000b0: 1f3f 6d3e fa44 8f3d 4a81 253e a11f 3c3e
000000c0: 7ceb 4c3c 1a30 013e 4183 e63d 3de7 683e
000000d0: 801a 393e d4fe 743d d6a7 043e a099 473d
000000e0: 69cd 823e 29da 83bd 14d5 4b3e 9d4f 753d
000000f0: 03c1 233e 36da 983e 07d2 e53d be4f 4e3d
00000100: 16dc 803d ab22 c33c 564c 053d bd0e c3bd
00000110: d415 fdbd c87d d4bd 9226 a7bd 2039 ecbc
00000120: c52b 58be 085b 443d 25c4 e8bc aa11 0c3d
00000130: d996 38bd 42c1 35bd d7d6 f73d e695 303d
00000140: 6b65 e6bd 3cd3 b53d 216d 95bd ff24 743d
00000150: d07a 05bd 4dbc 733e 445e 27be d606 503d
00000160: 88cd 6c3e f60e c13d 9730 393e 9eab 69bd
00000170: d2bb 85be a83b 2fbe af78 0fbd bbfb 94be
00000180: e8d7 143e 1565 783e 75e2 693e 9caf 8a3e
00000190: ed32 0339 051e 273e 5192 853d 51e8 963e
000001a0: 9a9a 5f3e 2673 19bb de29 0bbc 54a0 643d
000001b0: bdbf acbc c558 053e cc75 30bd 0e66 b53d
000001c0: 5c0e d1bd ea85 0d3e 8d8a 883c f32e 023e
000001d0: ceaa 60bc f85f 0b3d 1865 aa3d 63c1 163e
000001e0: c9e1 8e3e d63d 60bd 37af 0b3d 8d78 00bc
000001f0: 65f8 313e 60a1 72bd c29b 1c3e e5be c13d
0.25180078 -0.03873853 0.19116937 0.11170369 -0.18321794 0.13616715 0.0033114739 -0.11708285
0.0990917 0.1306037 -0.06253313 0.0041587986 0.14172204 -0.02794246 0.08037611 -0.040955257
0.14879818 0.10127804 -0.1434771 -0.016682237 0.14381117 -0.14655715 -0.059181564 0.07950405
0.17080131 -0.21236311 0.13959225 -0.11772596 -0.03525471 0.29313526 0.14590752 0.0878048
0.12243124 -0.06769777 0.1293733 0.08776502 0.16926654 0.030873036 0.07664236 0.056099713
0.15587544 0.13471511 -0.106822774 -0.15800181 0.2316861 0.06995578 0.16162601 0.1837144
0.012507316 0.12616006 0.112555034 0.2274446 0.18076515 0.059813336 0.1295465 0.048730493
0.2554734 -0.06438095 0.19905502 0.05989038 0.15991597 0.29853982 0.112217 0.050369017
0.06291978 0.023820242 0.032543503 -0.095242955 -0.12357679 -0.10375553 -0.081616536 -0.028835833
-0.21110447 0.047938377 -0.028413842 0.034196533 -0.045065735 -0.044373758 0.12101524 0.043111704
-0.11249813 0.088781804 -0.07296205 0.059605595 -0.032587826 0.238023 -0.16344553 0.05078777
0.23125279 0.09426682 0.18084942 -0.057048433 -0.26119858 -0.17112601 -0.035027202 -0.29098305
0.14535487 0.2425731 0.22840293 0.27087104 0.00012512105 0.16320045 0.06522048 0.29474118
0.2183632 -0.002341458 -0.008493869 0.055816963 -0.021087522 0.13022144 -0.04308109 0.08857356
-0.10207817 0.13820615 0.016667629 0.12713222 -0.013712598 0.03402707 0.08320063 0.14722209
0.27906635 -0.05474647 0.034102645 -0.007841242 0.17379911 -0.05923593 0.15293792 0.09460238

lstm.weight_ih_l1 f4 [128, 32]
00000000: 3148 c83d 85d0 a33d f383 233e a190 a9bd
00000010: 08a7 f4bd ffff 613e 0f61 17be f3e6 9a3d
00000020: 1901 213e ffaa 1abd bb45 223e 6c80 c5bd
00000030: c568 eabd e637 e23d e1c9 523e d920 15bd
00000040: 403e 12bd 94bb 283e 680f 9b3d fca2 873d
00000050: d1b8 f73c 8d6b 9e3d b266 c73e e32c 323e
00000060: f199 07be ea3e 4cbd e093 25be 8a6b 6dbc
00000070: f8cd 423d 21e3 fb3c 294a 9a3d 9441 633e
00000080: da44 163d 0e8f c9bb 5058 e03c 7f95 2c3c
00000090: f08c fe3a 89d9 b93d 4e41 52be 9c46 213d
000000a0: 7681 23be 6194 1bbe 23bf 5b3d 28a7 0abe
000000b0: 485e d03d d129 f0bd 0838 81bc d900 563e
000000c0: 9f01 ddbd 2ac2 61be 6cb8 b63d b079 e93d
000000d0: 8a72 a9bd 6cdf b9bd ae29 dd3d d866 8bbe
000000e0: 9866 a9bd f392 093e dea9 083e b91d 833e
000000f0: f2e5 7bbd 857e 19bc 4bca b33d 95c2 493e
00000100: a4fa 2cbd 8d26 f6bc 963c cb3c cdd6 99bd
00000110: 4d75 8fbe db78 3d3d 7ccc a53c ff04 983d
00000120: 4ebc f43c 8967 10be c74b 1abd a163 d5bd
00000130: a1e7 77bc 2ea3 173e 9231 263e 0707 84bb
00000140: 1b10 143d f9c9 373e 0cb0 3d3e 6892 243e
00000150: ed9d 1ebd e041 393e eb89 8cbe ad7c 06be
00000160: 93bc 34bd 3eeb 233e c78a 9a3e 63d5 43bd
00000170: 3453 193e 14dc 5e3d d1a9 1e3d a4d5 eabd
00000180: 3630 dbbd 0f09 14be aa41 26be f983 70bd
00000190: 2b0f 313d 4c55 ed3b 47b6 453e 670f c03d
000001a0: 9e1e 9f3d a644 3cbe 9a33 093d 7163 533e
000001b0: 2526 22bd f76a e1bd f4e6 dd3d 5fe2 363d
000001c0: 09e9 ad3c 84c6 90bd 9636 04bd bc10 083e
000001d0: 0efa a13d 0e5b 353d 3b87 783e e74b 07be
000001e0: 5c27 833d 29f6 a13b c79c e7bd f50c 99bd
000001f0: 68e4 2cbe 5575 e9bb 1024 8fbb f01c bf3d
00000200: bffa 12be 43d4 8dbd a22c 72bc eb2f 2dbe
00000210: fdbd b2bd 08cd 15be 2648 96bd 598d 79be
00000220: 4cb7 ee3c b096 78be 374f 39be 0663 8c3e
00000230: c7f3 653d 56e0 6ebd 0fe0 ef3d 443f 9e3d
00000240: b1ae 9f3d 0263 7f3e 658b d73d 71a2 89be
00000250: a06a e13c 5542 8b3e 408f 4c3e ec77 273c
00000260: 105f cc3b 3206 573e e7ec dbbc d21c 243d
00000270: 78e5 8cbd 5ebd 0ebe 4f05 3ebd 3775 8b3d
00000280: cd40 15be b5cc b3bd 3f61 dabe bce2 c7be
00000290: fcdb d1be 8c1e de3d 7436 0f3e ea1b d9be
000002a0: cb6e 1bbb b44f 47be 846d 9a3c dd1f a93e
000002b0: ecc7 8b3d 58a8 94be 325f 1c3e 6f08 71bd
000002c0: f592 fabe d797 ca3c 9c54 d13e 77d9 a1be
000002d0: 5d13 80be 2e17 bebd 4b25 a83d 2e11 10be
000002e0: e491 083d a5e7 0dbe 93c8 13bd 195b 293c
000002f0: cbb9 cbbe 505b ad3d 585c e4be d7c6 96be
00000300: 92a9 93bd f33c 2abe 9781 0e3d e278 783d
00000310: 47ff 02be 946d 353e 4808 d8bd 70c3 77bd
00000320: 9d32 c2bd bd84 1bbe f91f f03d 5d92 4ebe
00000330: d302 cf3d 99a1 32be 3fc2 03bd 8847 c4bc
00000340: c238 29be 7473 223e 4712 803d f2dd c2ba
00000350: eb2c 87bd 1601 083e ae61 3cbe 5396 4bbc
00000360: c40c a3bc 9daa 7b3e 3d05 873d f10f 503d
00000370: 23ff 0e3e f0f5 5abe 107f 3ebd f897 efbd
00000380: 0d23 2a3e b598 4b3d 124d 113d c921 b4bd
00000390: 16bb 95be ce4f 743e 8c12 283e 5a6b ab3d
000003a0: da91 283a ca95 efbd ae29 2fbe 6815 98be
000003b0: fe9f 10be 6b07 463c 8d39 fd3d 9a48 04bc
000003c0: e8f8 4b3e 77cf 57be b07e fbbc 06a7 e83d
000003d0: d7a4 13bd 6c6e fd3d 456d 863e b140 a8be
000003e0: b6cd 953e 85f8 49be ff1c 963e bb63 37bd
000003f0: 1770 553e 4ed0 883d 213a b13e 49ee 7b3e
0.097793944 0.07998756 0.15968303 -0.08279539 -0.11945921 0.22070311 -0.14783119 0.07563581
0.15723075 -0.03776073 0.15846913 -0.09643635 -0.114457645 0.11045818 0.20584823 -0.03640828
-0.035703897 0.16477805 0.07571298 0.06622884 0.030239495 0.077353574 0.38945538 0.17399935
-0.13242318 -0.049864687 -0.16169691 -0.014490971 0.04755971 0.030747952 0.07533676 0.22192985
0.036686756 -0.0061510867 0.02738586 0.0105336895 0.0019420665 0.09074695 -0.20532724 0.03937398
-0.15967354 -0.15193321 0.05364908 -0.13540328 0.10174233 -0.11726726 -0.015773788 0.20898761
-0.10791325 -0.22046724 0.089218944 0.11400163 -0.082738 -0.090758175 0.107989654 -0.272269
-0.08271521 0.13434963 0.13346049 0.25608614 -0.06149859 -0.0093685435 0.08778819 0.19703133
-0.042231217 -0.03004768 0.024809163 -0.07511673 -0.2801918 0.046257835 0.020239107 0.07422828
0.029874947 -0.14101996 -0.037669923 -0.10419393 -0.015130908 0.14808342 0.16229847 -0.004029158
0.036148172 0.1794814 0.18524188 0.16071475 -0.03872483 0.18091536 -0.27448973 -0.13133498
-0.04412515 0.16007707 0.30184004 -0.047810923 0.14973146 0.0544091 0.03873617 -0.1146653
-0.10702555 -0.1445658 -0.16235986 -0.05871961 0.043227356 0.007242834 0.19307815 0.09377938
0.07769512 -0.18385562 0.033496477 0.20643403 -0.03958716 -0.1100673 0.108350664 0.044649478
0.021229284 -0.07069114 -0.03227862 0.13287634 0.07909022 0.04427629 0.24270336 -0.13212548
0.064039916 0.0049426747 -0.113092 -0.074731745 -0.16884005 -0.007124583 -0.0043683127 0.09331691
-0.14353465 -0.06925251 -0.014781149 -0.1691281 -0.08727644 -0.14628994 -0.0733798 -0.24370326
0.029140137 -0.24276233 -0.18096624 0.274193 0.056140687 -0.058319412 0.11712658 0.07726911
0.077969916 0.24940112 0.10524634 -0.26881745 0.027516663 0.27199045 0.1997652 0.010221463
0.0062369183 0.20998457 -0.026846362 0.040066548 -0.06879705 -0.13939425 -0.04639178 0.06809466
-0.14575501 -0.08779279 -0.42652318 -0.39040172 -0.40988147 0.1084567 0.13985616 -0.4240411
-0.002371716 -0.19463998 0.01885105 0.33032122 0.068252414 -0.29034686 0.15270689 -0.058845934
-0.48940244 0.024730606 0.40884864 -0.31611225 -0.25014773 -0.09281765 0.08210238 -0.14069054
0.033342257 -0.13857897 -0.036079954 0.010336661 -0.39790186 0.08464682 -0.44601703 -0.29448578
-0.07210077 -0.16624813 0.034791555 0.060662158 -0.12792693 0.17717582 -0.105484545 -0.060489118
-0.0948231 -0.15187354 0.11724848 -0.2017302 0.101079606 -0.17444457 -0.03216767 -0.02395989
-0.16525558 0.15864354 0.06253486 -0.001486717 -0.06600364 0.13281664 -0.18396637 -0.012425977
-0.019903548 0.24576803 0.06592796 0.050796453 0.13964514 -0.2138288 -0.046507895 -0.116989076
0.16614933 0.04970618 0.03547389 -0.087955065 -0.29244298 0.23858568 0.16413325 0.08370085
0.0006430425 -0.11698492 -0.17105743 -0.29703832 -0.14123532 0.0120867295 0.123644926 -0.00807395
0.19919169 -0.21075235 -0.030700058 0.11359982 -0.036045875 0.12374577 0.2625524 -0.32861856
0.29258507 -0.19723709 0.29318997 -0.044772845 0.2084354 0.06680356 0.3461466 0.24602617

lstm.weight_hh_l1 f4 [128, 32]
00000000: 304b 083e 40f8 433a c8fb c73d 734c 063e
00000010: 54d1 88be e6b1 86bd a523 8fbd 3582 2c3c
00000020: 1a1c 393e 15f5 83bd b0d7 d53d b1b4 92bd
00000030: 07e4 4fbe 901e 0ebe 822b 0ebd 1e12 af3a
00000040: e067 83be 902e 55be 1463 993d 616d 57be
00000050: 4982 23be 1c6e e1bd 4c48 0fbe 89a6 49be
00000060: 632f c13e 3518 303d 3bc2 c93d 326c f53c
00000070: 936d 6b3e cdce 0c3e 3429 99bd 5739 cfbd
00000080: a42c 31bd 4d5c 6a3c d786 9dbe 72a5 633d
00000090: 9c80 1d3e b7bb 133d 366a 6bbe 39db 40be
000000a0: 80e2 0c3e 0222 8cbe bcad c83c 31ed a53d
000000b0: bc4f dabd fe08 323e 470e 0c3d 365e 0a3d
000000c0: 1897 76be 5eb7 61bd 1eb6 01bd 7638 57be
000000d0: 99a3 99be 69ab fbbd 74c4 17bc b0ea 6dbe
000000e0: 00b4 dc3d 7ba1 6dbc 5020 8ebe aaf4 5dbe
000000f0: 952f 8bbd b8de e33d 674d 9fbe e182 f8bc
00000100: 3853 513d c9de 113e 2602 19bd 67bb 1fbe
00000110: 399d bf3e 6e01 783e c18c 593e a1ce c0be
00000120: 7441 3d3e 53e8 643d 02b3 dfbd ce86 67bd
00000130: c898 b43d d84d 03be bfd8 0ebe 7f11 c23d
00000140: 1bf8 443e 1e8a 1cbe 11b1 85bd c73a 313e
00000150: 87eb 763e 73ad b6bd 3f58 57bd faa6 38be
00000160: 5485 dfbd a72d 803d a4b7 543e a905 edbd
00000170: 3301 78bd fc09 78be 50e5 81bd 20e4 c63d
00000180: a712 2cbe 8800 863d 8ebd 543e 0f7c b93c
00000190: 8d5c 38be a165 0c3c 0c98 26be e444 06be
000001a0: 65be 2f3e 3c6c b8bc ae9f 8ebd 2cb6 e33c
000001b0: da9e 66be 88fa 02be 4202 9bbd 3d35 2a3d
000001c0: 71da c93d c54c 2a3e 8710 72be b2dd 6b3d
000001d0: ea4f 7c3d e672 41bb 1038 03be 0e67 ee3d
000001e0: 256c 52be 9379 4b3d 3bc2 87bd 9371 083e
000001f0: bfcc fe3d 31fa 08bd e8a1 133e 62f9 2d3e
00000200: 0447 da3d f768 4a3d 7746 573d 200c a7bb
00000210: cea9 683e 9c48 34be fde7 47bd 7ef6 e7be
00000220: eebc 223e ada5 edbd 5f2e 893d 3834 c23d
00000230: c644 9abe 4613 13be 0315 7a3d 8354 543d
00000240: 9b61 3ebc 3bd3 d5bd 59c9 3bbe 21e0 5bbd
00000250: 0509 973d df26 9ebd e010 cabd 909f 3dbc
00000260: b2f5 403d 4f6f 53be 1b12 40bd d006 81bc
00000270: d67b f63d 4f4e 903d 98b4 f0bd e811 e73d
00000280: 7eff c1bd e7d0 033e f4ba 623e 064f 3c3e
00000290: 31c6 f9bd a3f3 273d 3a4e 85bd 5926 a0bf
000002a0: d8c6 24bd 9974 0ebd 2eeb 93bd ce79 c93e
000002b0: 51b6 7dbc 6a5c 12be 0d61 813d 8e67 72bd
000002c0: 46e6 6fbd c3bf 873e b0dc a1be b616 16be
000002d0: c717 d3bd 8361 063e 6c1d eabe 7080 803c
000002e0: 3dca 773d 0484 e53c c533 0a3e 1d2d 0b3f
000002f0: 805a 3cbe 038a 77be 07ff 853c cf19 583c
00000300: de78 fcbc bbe9 a03e 1ade a5be 231f a13c
00000310: 86d1 9b3e d909 4c3e 5647 51bd 369d 56be
00000320: e1d2 183e 2933 9abd e951 a0bd 5536 7ebc
00000330: 3cd9 59bc bf9c 08bd 854f 32be c735 9b3d
00000340: cf21 a23d d908 43be a5ff 6dbe ac33 0fbd
00000350: 8c47 933d cd7d d43c 95fc 24be 1226 0d3d
00000360: a38a bfbc 6a48 d23c 1ce0 0d3e a02e d4bd
00000370: 65db 4cbd 2885 ecbd aa68 aebd bce6 af3d
00000380: bc5e 2f3d 948a 6a3e 2494 1abe 2c6b b03c
00000390: 1720 403d 4fa2 1e3e 41a6 acbd 3794 343e
000003a0: 53bf cebd bc2e 2abd d82c 013e a68b cb3d
000003b0: 2d18 b43c 28a5 6a3d d993 c1be dbd7 a6bc
000003c0: 94ac ee3d d461 313e e25d 7cbe d21c 4b3d
000003d0: e351 2d3e 5f73 1dbe 2bcf 3abe 6bba d6bd
000003e0: 26b8 7fbe f287 5d3d 302d 193e 780f ba3d
000003f0: b1bf 84be cb5d 8ebe cdc5 3d3e 8244 11bd
0.13309932 0.0007475652 0.0976482 0.131151 -0.26722205 -0.065769 -0.069892205 0.010529091
0.18077126 -0.0644323 0.1044153 -0.071633704 -0.2030183 -0.13878846 -0.03470946 0.001335684
-0.25665188 -0.20818543 0.07489601 -0.21037818 -0.15967669 -0.1100733 -0.13992423 -0.19692434
0.37731466 0.042991836 0.098515 0.029958818 0.22991018 0.13750763 -0.07478562 -0.101183586
-0.043255463 0.014304233 -0.30766937 0.055577703 0.15381092 0.03606769 -0.22989735 -0.18833627
0.13758278 -0.27369696 0.024496906 0.08101881 -0.106597394 0.17386243 0.034193303 0.033781253
-0.24081075 -0.055106513 -0.03166782 -0.21017632 -0.30007628 -0.12288553 -0.009263147 -0.23234057
0.1077652 -0.014503832 -0.27759027 -0.21675363 -0.06796185 0.111264646 -0.3111374 -0.030335845
0.051104754 0.14245142 -0.037355565 -0.15598832 0.3742464 0.24219295 0.212451 -0.37657645
0.18482 0.055885624 -0.10922815 -0.056525044 0.08818203 -0.12822664 -0.1394987 0.09475993
0.1923527 -0.15287063 -0.06527913 0.17307578 0.24113284 -0.089198016 -0.052574392 -0.18032447
-0.10914102 0.062587075 0.20773178 -0.11573345 -0.06054802 -0.24222559 -0.06342566 0.0971148
-0.1680399 0.0654307 0.20775434 0.022642164 -0.18004055 0.008569152 -0.16268939 -0.13112217
0.17162473 -0.022512548 -0.0696405 0.027796827 -0.22521535 -0.12790883 -0.0756879 0.04155468
0.098561175 0.16630848 -0.23639117 0.057584472 0.06159965 -0.0029517948 -0.12814355 0.1164075
-0.20549066 0.04967649 -0.066288434 0.13324575 0.12441396 -0.033441726 0.14417231 0.16989663
0.106580764 0.04941651 0.052557435 -0.005097881 0.22721025 -0.17605823 -0.048805226 -0.45305246
0.15892383 -0.11603866 0.06698298 0.09482616 -0.30130595 -0.14362821 0.061055195 0.05183841
-0.011619951 -0.1044068 -0.18338527 -0.053680543 0.07374767 -0.07722258 -0.098665 -0.011573687
0.047109313 -0.2064793 -0.046892267 -0.015750319 0.120353386 0.07046186 -0.117531955 0.11282712
-0.094725594 0.12872659 0.2214163 0.1838952 -0.12196005 0.041003834 -0.06509061 -1.2511703
-0.040228695 -0.034779165 -0.07222591 0.39350742 -0.015485362 -0.14293066 0.06317339 -0.05918079
-0.058569215 0.2651349 -0.31613684 -0.14657101 -0.103072695 0.13123135 -0.45725572 0.015686244
0.060495604 0.028017052 0.13496311 0.5436571 -0.18393898 -0.24173741 0.016356958 0.013189747
-0.030819353 0.31428322 -0.32396013 0.019668167 0.3043329 0.19925632 -0.051093422 -0.20958409
0.14924194 -0.07529289 -0.07828123 -0.015515883 -0.013296422 -0.03335261 -0.17413147 0.075786166
0.07916605 -0.19046344 -0.23242052 -0.034961388 0.07191381 0.025938893 -0.16111977 0.034460135
-0.023381537 0.025669295 0.13855022 -0.103604555 -0.05001392 -0.11548835 -0.08516057 0.08588931
0.042814955 0.22904426 -0.15095574 0.021535479 0.046905603 0.15491603 -0.08430148 0.17634664
-0.10095086 -0.041548476 0.12614763 0.09938745 0.021984184 0.05728641 -0.3780811 -0.0203666
0.116540104 0.17322475 -0.24645188 0.049588032 0.16925769 -0.15376042 -0.18243091 -0.10484775
-0.24972591 0.054084726 0.14958644 0.09084982 -0.259275 -0.27805933 0.18532486 -0.035465725

lstm.bias_ih_l1 f4 [128]
00000000: e304 7637 3e27 5a3e 61a4 de3d 4646 db3c
00000010: 7dcc a03d 1847 e33e df10 803d 41a2 1f3d
00000020: 5a72 94bd b1fb 093e df6e babc ec33 dd3d
00000030: bd4f 403e b0e4 7f3e 9997 a33e 39d9 bbbd
00000040: f8b7 3abd c126 3e3e 6154 9a3e 7cbf 023e
00000050: 8cca cd3d 3e8f b73d b2f0 d43d 2f7b dfbd
00000060: 2a0b 31bd fef6 003e 743b 8c3e 6711 643e
00000070: ccbd 1d3e c8b3 313e e923 c3bd 32fa d43c
00000080: e88c 8d3e 6e3f 163d f409 823d 623a dd3c
00000090: 4cae dcbd fc47 76be 1cca 713e ce34 1c3e
000000a0: 1325 403d 242a 343e 8eb9 fc3d a75f 243e
000000b0: 10ba 413e 8999 8b3d d371 1e3e 143f a33c
000000c0: 101d 11bd 20a3 213e f404 65bc 21a9 073e
000000d0: 59c3 483c d5b8 213d f6a5 753e 22c9 9a3b
000000e0: f5a9 8c3b e149 1e3e 6a7e b7bd d173 e33d
000000f0: 8db0 293e c133 aa3d f786 683d 90bd fabd
00000100: 39fc 8c3d cbbb 3c3e 5731 10be d244 fc3c
00000110: 38a0 ed3d d0a7 0d3c d3e0 8dbd 00f0 2fbe
00000120: 6834 323e 3198 91bd ba98 0f3e eedb 2e3e
00000130: 5432 3cbe 419e 07be fa75 bf3b 2328 023e
00000140: 3022 eb3d 481c 8fbd 6b65 d93d 3eb1 003e
00000150: b8fe 7bba 5dc4 b4bd f8ab 133a e6e4 2e3e
00000160: eb30 0dbd b37c 03be 5dec 54bd 9966 8a3d
00000170: d6ba 17bd 743b aebd e2e7 133d fa6e 16be
00000180: 733f 6f3e 28ca 0f3e 4dbe 833e 3f32 443e
00000190: f36e 103e 2323 fd3e 84bc 7c3e 26e6 213e
000001a0: 7d10 6e3e ab0b 343e 3133 3d3e af35 f03c
000001b0: 3153 fd3d 9ed9 303e c121 1b3e 9dfd 233e
000001c0: 9875 6b3e 81a1 ff3d 1e62 f13d d63f c73d
000001d0: abfb 8e3e 05b3 623e 129a ae3e 6040 153c
000001e0: 40c4 4f3c 26cd 8b3e 6b67 c23e fcd5 783e
000001f0: 9350 15bc 9581 6e3d 2645 fd3d 1418 d53d
1.466388e-05 0.21304032 0.108711965 0.026766907 0.07851503 0.44390178 0.06253218 0.038973097
-0.07248373 0.13474919 -0.022757946 0.10800919 0.18780418 0.24989581 0.31951597 -0.09172291
-0.045585603 0.18569471 0.301425 0.12768358 0.100483984 0.08962868 0.103974715 -0.10912167
-0.043223538 0.1259422 0.2738911 0.22272263 0.15404433 0.17353737 -0.09528334 0.025998209
0.27646565 0.036681585 0.06349555 0.027005378 -0.10775432 -0.24050897 0.23612255 0.15254518
0.046910357 0.175942 0.12340079 0.16052113 0.18918633 0.06816394 0.15473108 0.019927539
-0.035428107 0.15784883 -0.013978232 0.13248111 0.012253606 0.03948291 0.2398909 0.004723684
0.0042927214 0.1545787 -0.089596584 0.111060746 0.16571255 0.083106525 0.056769338 -0.122431874
0.06884045 0.18431012 -0.14081322 0.030794535 0.11602825 0.008645967 -0.069276474 -0.17181396
0.17402804 -0.07109106 0.14023104 0.17076084 -0.18378574 -0.13243963 0.0058429213 0.12710623
0.1148113 -0.06987816 0.10615047 0.12567613 -0.0009612846 -0.08826516 0.00056332303 0.17079505
-0.03447048 -0.12840538 -0.051983226 0.0675785 -0.037043415 -0.085074335 0.036109813 -0.14690772
0.23364048 0.1404196 0.25731125 0.19159792 0.14104824 0.4944087 0.24681288 0.15810451
0.23248477 0.17582576 0.18476559 0.029322473 0.12369383 0.17270514 0.15149595 0.16014715
0.22994077 0.12481976 0.117862925 0.097289726 0.27926382 0.22138603 0.3410192 0.0091095865
0.012681067 0.27304953 0.37969527 0.24300379 -0.009113449 0.058229048 0.12366705 0.10404983

lstm.bias_hh_l1 f4 [128]
00000000: 5b4c 93bd d4bb 833e 1a05 f6bd d477 043e
00000010: b3bb e13c c24c 303f f049 6f3e 1bf7 1b3d
00000020: e3ba 5d3e e88f 453d 8d55 863e f2c2 4fbc
00000030: 5f98 9c3e 368a 2b3e 8920 9f3e 8259 e0bb
00000040: 36ec 543e c2be 593c d8db e03d 6e2c 4cbd
00000050: 94d4 733e fd33 543d 87de 4c3e 9677 193e
00000060: 0841 e7bd 8921 c03c 4118 d83d 1c62 76bd
00000070: 4b21 313e f756 fe3d 1387 363e d055 463e
00000080: 9842 c83e fa22 953c 3bac 983e c0e9 803d
00000090: 178d fbbd f520 2d3d 1d06 a0bd 98d2 9c3e
000000a0: 5f9e 7cbd 8391 6abd 7928 003d a570 bf3d
000000b0: 3d50 5d3d 80a1 023e 9efe b63d 270f 0c3e
000000c0: b562 cf3d 57b9 c33c c9fd 38bb 33e5 493e
000000d0: 38f3 8d3d e5b5 613e 7b01 8d3e 52ca dc3c
000000e0: 8050 133e 0392 803c f866 b73d e92f d1bb
000000f0: 1641 203d c9b0 1e3d ba49 1fbd c1ef c6bc
00000100: 0909 1cbe 43ba 263e 45b1 023e 0fd7 0bbd
00000110: 76b1 0cbe 63c5 d03c f9da 16be 58d0 87be
00000120: aa7f 19be 4acf 1f3d 1306 0f3d f812 2c3d
00000130: d192 a1bd ae0a 9c3d 3a3b 6dbd eb6f 54bb
00000140: 136c d4bd 4d30 673d c8b3 fbbd 9fab d6bd
00000150: 0823 bcbd 6d1f 09be bcfd 15be 273e ce3d
00000160: 572e ab3d 1118 7dbd fe9e 1ebe ac98 323d
00000170: cd85 313d 147e d1bd a441 fbbd e373 463d
00000180: 467d 41bd f463 713e ac39 8e3e 0fbe 0cbc
00000190: f2d9 103e 41b1 ec3e 6282 0a3e 9a5f b93e
000001a0: 51c7 c2bc 3ea6 ae3d 660b 033e 6908 183e
000001b0: f747 973e cdbd 393e e1b7 cf3d 56d0 133e
000001c0: 8652 5f3d f8a5 0f3e 2900 813e 98c9 023e
000001d0: 493e 243d 9aaa ecbc 2103 9b3e ea4c 1dbb
000001e0: d5e9 b13e 1805 84bb 3e14 123e aeb6 a83e
000001f0: 0548 483e db64 ae3c 0e16 b6bd dd6e eb3c
-0.07192298 0.2572924 -0.12012692 0.12936336 0.027555322 0.68867123 0.23368049 0.038077455
0.21653323 0.048232943 0.26237145 -0.012680756 0.30585 0.16751942 0.3107951 -0.0068466077
0.20793232 0.013290109 0.10979432 -0.04984706 0.23811561 0.051807392 0.20006762 0.14987025
-0.112917006 0.02345349 0.10551501 -0.06015216 0.17297857 0.12418931 0.17824964 0.19368672
0.39113307 0.018205155 0.298189 0.06294584 -0.1228277 0.04226776 -0.07813666 0.3062942
-0.061674472 -0.057267677 0.031288598 0.09347657 0.0540316 0.1275692 0.08935283 0.13677655
0.10126249 0.023892088 -0.002822744 0.19716339 0.06931156 0.22042044 0.27540192 0.026951943
0.14386177 0.015694624 0.089551866 -0.006383885 0.03912457 0.038742814 -0.03888867 -0.024284245
-0.15237822 0.1628199 0.12762935 -0.034140643 -0.13739571 0.025484746 -0.14731969 -0.2652614
-0.14990106 0.039016046 0.034917902 0.042010278 -0.07889331 0.076192245 -0.05791781 -0.003241534
-0.10372176 0.056442548 -0.1229015 -0.10481953 -0.09186369 -0.13390894 -0.14647573 0.10070448
0.08358448 -0.06179053 -0.15490338 0.04360263 0.043340493 -0.102291256 -0.12268379 0.048450362
-0.04723861 0.23573285 0.27778375 -0.008590235 0.1414564 0.46228984 0.135263 0.3620575
-0.023776682 0.08527802 0.12797317 0.14846958 0.29547092 0.1813881 0.10142494 0.14434943
0.05452206 0.14028156 0.25195435 0.12772214 0.040098462 -0.028889943 0.30275825 -0.0024002143
0.34748712 -0.0040289275 0.14265534 0.32951874 0.19558723 0.021288326 -0.08890925 0.028739387

fc.0.weight f4 [30, 32]
00000000: 83e6 3dbd 398a 08be e392 81bd 3248 7f3e
00000010: 6be4 3c3e 34e1 a4bf 9737 e0bb d8e2 723e
00000020: eaeb 13be 3f86 41b9 1c09 2cbe 9423 243e
00000030: 41a9 a3bd 7786 fabd 3e80 163f 5d90 c63d
00000040: 48d3 28be 0a70 edbd 418d 0b3f e8ea ad3c
00000050: e059 7cbe dc66 3d3d 09f8 9d3d 9496 033e
00000060: 6b84 433e 07a2 2e3c 42cf cabe 316d 78be
00000070: e774 b23c 00aa 23be cf69 8cbe 30ab 79be
00000080: dd83 1abe 7525 53be facb 91bd 5418 eb3d
00000090: a0e7 e33d 4100 60bf 7b37 8abd 5e03 3d3e
000000a0: bc25 d7bd 1b03 e1bd a978 d9bd 2840 3c3d
000000b0: c35f b9bd f166 12bd 7f21 033f 0e24 d9bd
000000c0: 7082 89be 4303 473d 4433 063f 3e31 a1bd
000000d0: 7ee7 41be 13bf b4bd 1521 483e 4b4b 72bd
000000e0: cfbf 1e3e af91 adbc 787a f7be c068 0dbe
000000f0: 2475 ab3d 135e 373d 1344 bcbd ebe6 b23c
00000100: d5f6 14bd 0195 92bd 1735 7ebd e247 423e
00000110: 637c 7d3d 3c26 30bf 3adb 9dbd 3160 873e
00000120: 425d 83be b1eb 85bd c52c d53d d869 a73e
00000130: e5a1 5e3d 2ef4 08bd 9cdd 853e a7ca 933b
00000140: e918 43be 319b d1bd f6fc 893e 4997 15be
00000150: 9b60 87be d67e cc3c 987a 373e 2fa4 87bc
00000160: 10f4 9f3e 5cef 84bd 54e6 80be 2363 74bd
00000170: 686b 233d 6e78 ce3d 81a1 90be 2d9d 023d
00000180: efd8 0cbe 89f6 a2bd 94be 50bd 9f00 943d
00000190: 6a33 ee3d 47ba f6be 4e87 80bd 630b 213e
000001a0: 54ea 4fbe 2ae6 56be d96b 8b3d 5ee1 853e
000001b0: d85b f93d 1367 5e3d dab0 933e 10fd 8e3d
000001c0: 1480 573a 8739 123d be81 843e a48c 0bbe
000001d0: c042 9abe 8644 18be 81f6 7a3e 50a9 e4bd
000001e0: b0d3 b33e ffda b4bd b696 8abe bfbc 0bbb
000001f0: d459 263e 132f 623c a44d 48be 6ee1 a3bd
00000200: d8ab 50be b1e0 32be 33f0 13be 5e5b 47bd
00000210: 4de4 8b3c 5ee6 e7be 4918 cabd 0427 433e
00000220: ebc2 15be 33b9 79bd b783 8e3c fc98 913d
00000230: 2c5c 0f3e 5735 353e a9de 253e 9d4d f83c
00000240: 0bcb e0bd 189c 20bd e6ac 313e c682 14be
00000250: c0c5 acbe 5c91 38bc 8f7f 4e3e 3913 30be
00000260: 22b6 873e 0e91 cfbb 3a6d 5dbe 97f4 d9bd
00000270: 7cdc d13d 308d 633e 21b2 a1bd 9a56 8fbe
00000280: 31ba 30be 5ec8 62be 5bd3 49be 088e fcbc
00000290: 1a64 033d 683f 94be 8af8 90bd 89ac ad3d
000002a0: 2ed6 09be b2eb 80be ebab bd3b b1fc ee3d
000002b0: d194 b03d f048 1c3e 9641 383e 8873 01be
000002c0: 1dc5 75be fd1d 47bd dac1 a73e 163d fbbd
000002d0: f0dd b6be 1821 8b3b db63 7e3e fbdc babd
000002e0: 5438 543d 5704 c9bd ae34 aebe f07d c7bd
000002f0: 078b 9b3d 041d c53d f447 29be 0fce ccbd
00000300: f62c 07be 1775 54be 4f85 06be 6e14 413e
00000310: da57 013d 14db 67be ccfc 5dbe 4778 ac3d
00000320: 37b8 97be a488 a6bd 93c5 a23d 08f7 313e
00000330: 7614 bfbc 74d1 6c3d 90dd 423e c183 edbd
00000340: 6899 40be 4a8c 5cbd cf93 923e 1a07 2abe
00000350: 0ca2 95be 8cff 99bd d5bd 7a3e 6874 1cbe
00000360: 6e49 7a3e 1d32 ba3c 17a9 02be f0fe dabc
00000370: 4f81 1b3e 0af5 743e dfa1 54be 6808 043c
00000380: f81b 20be 2558 d8bd bd77 10be e807 863d
00000390: 6601 073e 2205 13be 3e8a 3dbe 491f f83d
000003a0: bb0b 44be 4466 5bbe 6218 933b 104e 353e
000003b0: fbf3 03bd 693b 9c3d 9f94 e53d 8eaf bebc
000003c0: 2c91 06be b048 0ebe f00f a03e 115e 04be
000003d0: 64e3 84be 7d6c 09bc 88d1 743e 9391 00be
000003e0: 56ae 4f3e 9939 3cbd 1505 98be b04a 753d
000003f0: 033b a63d 9375 9b3e af2a 993c f62c 3abe
-0.04636241 -0.13333978 -0.063268445 0.24929884 0.1844651 -1.2881227 -0.0068425643 0.23719347
-0.14445463 -0.00018455925 -0.1680035 0.16029197 -0.07991267 -0.122326784 0.5878943 0.09695504
-0.16486847 -0.115936354 0.5451241 0.021230176 -0.2464366 0.046240672 0.077133246 0.1285041
0.19093482 0.0106587475 -0.3961125 -0.24260403 0.021784259 -0.15982819 -0.27424476 -0.24381709
-0.15089364 -0.20619757 -0.071189836 0.114792496 0.11128163 -0.8750039 -0.06748863 0.18458316
-0.10505244 -0.109869204 -0.10618717 0.04595962 -0.09051468 -0.035742704 0.51222986 -0.1060258
-0.26857328 0.048587095 0.52421975 -0.0787072 -0.18935964 -0.08825507 0.1954387 -0.059153836
0.15502857 -0.021187631 -0.48335624 -0.1380949 0.08371952 0.04476745 -0.091926716 0.021838626
-0.03636821 -0.071573265 -0.06206235 0.18972734 0.061886203 -0.6880834 -0.0770783 0.26440576
-0.25657088 -0.06539095 0.1040893 0.3269794 0.054353613 -0.033435993 0.26145637 0.004510242
-0.19052471 -0.102346785 0.26950806 -0.14608492 -0.26440892 0.024962824 0.1791786 -0.016557781
0.31240892 -0.06490967 -0.25175726 -0.059664857 0.039897352 0.10081564 -0.28248218 0.031888176
-0.13754629 -0.07957179 -0.050963 0.07226681 0.116309 -0.48188993 -0.06275807 0.15727
-0.20304233 -0.20986238 0.0680768 0.26148504 0.12175721 0.054297518 0.28845865 0.069818616
0.0008220684 0.035699394 0.25880235 -0.13627869 -0.3012905 -0.1486989 0.24508096 -0.11165106
0.35122442 -0.08830833 -0.27068108 -0.0021322218 0.16245204 0.013805169 -0.19560868 -0.08001982
-0.20378053 -0.17468525 -0.14447097 -0.04867112 0.017076636 -0.45292944 -0.09867913 0.19057852
-0.14625137 -0.060967635 0.01739679 0.071092576 0.14000005 0.17696129 0.1619822 0.030310446
-0.109762274 -0.039211363 0.17351112 -0.14503011 -0.3374462 -0.011265125 0.20165847 -0.17194833
0.26506144 -0.0063344305 -0.21623698 -0.10642355 0.10247132 0.22221828 -0.078953035 -0.2799576
-0.17258526 -0.22146747 -0.19709532 -0.030829445 0.032077886 -0.28954625 -0.07078655 0.08480174
-0.1346061 -0.2517982 0.0057883165 0.11669291 0.086221345 0.15262198 0.17993769 -0.12641728
-0.24000974 -0.048612583 0.32765085 -0.122675106 -0.357162 0.0042458884 0.2484278 -0.0912418
0.05181153 -0.09815281 -0.34024566 -0.097408175 0.07594877 0.09624675 -0.16531354 -0.1000024
-0.13200745 -0.20747791 -0.1313679 0.1885545 0.031577922 -0.22642165 -0.21678466 0.084213786
-0.29632732 -0.08131531 0.079478405 0.17379391 -0.023325186 0.057816938 0.19029832 -0.11597396
-0.1880852 -0.053844728 0.28628394 -0.16604272 -0.29225194 -0.07519445 0.24486478 -0.1527878
0.24442074 0.022728974 -0.12759815 -0.026732892 0.15186046 0.239216 -0.20764874 0.008058645
-0.15635669 -0.10563687 -0.14108177 0.06544477 0.13184127 -0.14357427 -0.18509766 0.12115342
-0.191451 -0.2142573 0.0044889906 0.1770556 -0.0322151 0.07628519 0.11209988 -0.02327707
-0.13141316 -0.13894916 0.3126216 -0.12926508 -0.25954735 -0.008387682 0.23908055 -0.12555532
0.20281348 -0.045953367 -0.29691377 0.05988568 0.08116724 0.3036314 0.018697111 -0.18181214

fc.0.bias f4 [30]
00000000: 4b9d 003e 7282 dd3d 417a b93d 3989 463d
00000010: 4507 2c3e d98f 813d 010e bebc 41b8 af3c
00000020: 9c60 a93b 02bb 683d 10bb ac3d f4d8 79bc
00000030: 9cb6 9dbd f2f0 debc 1f51 8c3d 5ff5 bf3d
00000040: e329 a33c 4897 57bd 79e6 43bd 3a20 123e
00000050: 9f70 0b3d 0636 7d3d 3ca2 9a3b e506 4b3c
00000060: 0bdd f13c d672 c73d 8adf bbbd 81f3 093e
00000070: 2020 173c 36ea 983c
0.12560003 0.10815896 0.09056521 0.04847071 0.16799648 0.06326265 -0.023200037 0.021450164
0.0051689874 0.05681897 0.08434117 -0.01524948 -0.077008456 -0.027214501 0.0685141 0.09372973
0.019917434 -0.052634507 -0.047827218 0.14270106 0.03404295 0.0618191 0.004719047 0.0123917805
0.029524347 0.097387 -0.09173496 0.13471796 0.009223968 0.018666368
