GSI Encode/models/savedWeights/ckpts/GSIGHI_processedFeatures_ckpt.pth (torch, 97559 bytes, 47 tensors)

getCloudImpactVectornoSP.parseSZASAA.solarPosParse.0.weight f4 [4, 2]
00000000: adef 9640 c058 0c40 e2c9 80c0 7813 d33d
00000010: d81c 4240 ecf4 c5c0 b23b 473f 03be adc0
4.7167573 2.1929169 -4.024644 0.10306448 3.0330105 -6.1861477 0.7782546 -5.429445

getCloudImpactVectornoSP.parseSZASAA.solarPosParse.0.bias f4 [4]
00000000: 4b7c 64c0 816e 3d40 9322 403f af58 2ec0
-3.5700862 2.9598696 0.75052756 -2.7241628

getCloudImpactVectornoSP.parseSZASAA.solarPosParse.2.weight f4 [8, 4]
00000000: b096 ebc0 64af 5b40 393f d83b 2512 a540
00000010: 6099 a7c0 28ae ad40 bca6 1140 3d18 3541
00000020: 9458 a33f 347b 2bc0 584c afbf 2d22 8e40
00000030: fdeb 69c0 62b3 ce3f 62cc a140 c9e9 4bc0
00000040: 3223 b9bf 2a1c d240 759e 84bf 4df7 abc0
00000050: d9ab 6840 8bdf 60c0 dfe0 40c0 8a54 c8c0
00000060: 8526 d6bf cd51 9fbf e3ec 1140 f0ee 9b40
00000070: b47f bcc0 f5b0 b540 2a81 3440 f381 5ebe
-7.3621445 3.43258 0.0065993336 5.158465 -5.2374725 5.4275093 2.2758017 11.318418
1.2761407 -2.6793947 -1.3695173 4.441672 -3.6550286 1.6148493 5.056199 -3.186144
-1.4463866 6.565938 -1.0360857 -5.373938 3.6354887 -3.513644 -3.013725 -6.2603197
-1.6730505 -1.2446839 2.2800834 4.872917 -5.8905888 5.677851 2.8203835 -0.21729259

getCloudImpactVectornoSP.parseSZASAA.solarPosParse.2.bias f4 [8]
00000000: 6efc aebf 02ed 09bf 04ff d2bf c6ba dabf
00000010: 5cd0 453f 8453 f33d 279a cfbf 8129 82bd
-1.3670785 -0.5387727 -1.6484075 -1.7088249 0.77271056 0.11881164 -1.6218919 -0.063555725

getCloudImpactVectornoSP.parseSZASAA.solarPosParse.4.weight f4 [16, 8]
00000000: 2caf 00c0 d72f 9e3f aa45 2040 81b3 0e41
00000010: 2db2 5f3e 0d7c 6dc0 61a9 0441 33bc 0d40
00000020: 2879 8f3f d6f0 9040 09a5 3440 fcbd 5341
00000030: be53 1740 bbef 5e3f 7dbc 1c41 8270 5f40
00000040: eeed 2dc1 3b29 a73e df11 e93f 8492 74c0
00000050: 7811 8f40 3ef0 c841 4c73 6ec1 ae80 e4bf
00000060: 7824 1a40 ff40 8140 f2fc 5940 406c 4f40
00000070: 5c02 8b40 9f9e 7740 87d4 1d40 55d8 1040
00000080: 5c32 1d41 441a c23f 24ee dbbf c4b7 1ec1
00000090: 6f9c 7b3f c9a8 86c0 afab d1c0 1ee1 b540
000000a0: 899b 873f d678 8dbe 111d c7bf dc1e fcbd
000000b0: 4161 693f 9de5 2fc0 657a a2bf f65c 6c40
000000c0: 7bc4 45bf cf1e 09bf a29e 803f d8c0 36be
000000d0: cdf0 2cbf 20a3 3b40 a0d8 483d 5b09 95bf
000000e0: 45a7 3140 b912 7940 63b7 7940 f036 7d40
000000f0: 0638 8440 e8d3 ae40 22bc 3540 d866 2840
00000100: 433e 9341 6e15 0e3f f62b 7dc0 83d4 953c
00000110: af85 08bf 0913 10c1 2c4b 403f 525c a240
00000120: 7d53 4e3d afb4 a73d d982 d9be 159f 40bf
00000130: 4123 ac3f f026 8340 e4b0 82bf 0368 2ebb
00000140: 7ed5 f83e 6f8b bb3f 4e65 5b40 cbfd 0b3f
00000150: 6494 d7bf 2e9e 75bf 3d9c aa3e 87a6 56be
00000160: 2fb2 e340 ffba 2341 1fe7 81c0 2c25 1041
00000170: b72b c83e 2fda 82c0 e8a7 2740 9327 0e41
00000180: c66b 0c40 f2fd 5840 8a70 5540 7926 5f40
00000190: b698 7a40 7f5b ad40 f65e 5640 86ab 2f40
000001a0: 12bb 1341 cbaa 8f40 e792 c2bf 310a af40
000001b0: 69b6 d8bf b403 a7c0 85c0 8940 1f3c 9040
000001c0: 58fc 02c1 d381 5fbf 3eaf 1740 0872 1441
000001d0: c948 71c0 3318 ec3f 6cf4 bf40 0cd1 00c0
000001e0: 036d 05c0 db02 493f 111b 39c0 aeb4 1340
000001f0: b5bb 0cc0 4535 df3f 6111 fe3f 901a 883f
-2.0106916 1.235835 2.504252 8.918824 0.21845312 -3.7106965 8.291352 2.2146118
1.1208849 4.529399 2.822573 13.233883 2.3644862 0.8708455 9.796018 3.491242
-10.870588 0.32648644 1.8208579 -3.8214426 4.4708824 25.117306 -14.903149 -1.785177
2.4084759 4.039184 3.4060636 3.240982 4.344038 3.8690565 2.4660966 2.2632039
9.824795 1.5164266 -1.718205 -9.919865 0.98285574 -4.2081037 -6.5522075 5.68373
1.059434 -0.27631253 -1.5555745 -0.123105735 0.9116402 -2.7483895 -1.2693602 3.693174
-0.7725293 -0.53562635 1.0048411 -0.17847002 -0.6755493 2.9318314 0.049034715 -1.164348
2.7758343 3.8917677 3.901818 3.956478 4.131839 5.4633675 2.8396077 2.631277
18.405401 0.5550145 -3.9558082 0.01828981 -0.53328985 -9.004647 0.75114703 5.0737696
0.05037259 0.081887595 -0.4248264 -0.7524274 1.3448259 4.098503 -1.0210233 -0.0026612289
0.48600382 1.4651927 3.4280581 0.5468413 -1.684216 -0.9594449 0.33322325 -0.20961963
7.115501 10.233153 -4.059463 9.009075 0.39095852 -4.0891337 2.6196232 8.884662
2.194078 3.3904996 3.3349938 3.4867232 3.9155707 5.417419 3.349546 2.744844
9.233171 4.4895988 -1.5201081 5.469994 -1.6930667 -5.219202 4.304751 4.507339
-8.186607 -0.8730747 2.370071 9.27784 -3.7700675 1.8444885 5.9985867 -2.0127592
-2.0847785 0.7851998 -2.892277 2.3079028 -2.1989567 1.7438132 1.9849054 1.0633106

getCloudImpactVectornoSP.parseSZASAA.solarPosParse.4.bias f4 [16]
00000000: cc4e 2bc0 80aa ce3f a03b a640 69ec a640
00000010: 86fd 99bf 8db1 efbf eb4a b73e 4a13 d240
00000020: 24eb 54c0 b757 243f 6e73 19bf 476a 2a3f
00000030: 6007 bb40 1f21 f9bf 2da7 8bbe 2adf 20bf
-2.6766844 1.6145782 5.1947784 5.2163587 -1.2030494 -1.8726059 0.35799345 6.5648546
-3.3268518 0.6419634 -0.59941757 0.66568416 5.8446503 -1.9463233 -0.27275982 -0.6284052

impactVectorAndCSMToGHI.0.weight f4 [8, 17]
00000000: 7337 3fbb 9ff2 0fbd 5fb0 e83d e522 6b3e
00000010: 6910 de3a 522e 59bd e2f5 6fbe 3b55 0f3e
00000020: 5454 64be 1f9b 3ebe b8a3 5c3e 89e3 de3d
00000030: 2d72 2ebe c0e0 763e 20cb 913d 86dc 8abd
00000040: f185 953a 1b3c 173e a7d6 583e 9f18 1d3d
00000050: 5dc3 603e 7faf 6bbe 9418 733d acea 423d
00000060: f738 fd3d 27bc 8c3d 0cde 2fbe 05fb a7bb
00000070: 6615 453e 9876 c9bd d362 f3bd 6018 a6bc
00000080: d8a9 75be 5ac6 e43c 6bb2 003e 132f 07be
00000090: d6b0 403d 0898 8f3d 9226 73be 7e80 5abe
000000a0: 990c d33d 1a38 1e3e 1751 f33d 5b47 f43d
000000b0: f932 6a3e 0bc6 333e 696d a73d 65b1 4d3c
000000c0: 9091 af3d 6b96 51be 8cb6 4d3e cc6e a13d
000000d0: 7871 2abe 28e8 db3d baad febd aa45 4dbe
000000e0: f551 553e 8124 d33d 0f8d bd3d 62fd 553e
000000f0: 2f5e 293e d932 5e3c 0576 d13c f38c 143e
00000100: 39d4 353d 9d79 12bd f0bd 343e 4dc0 603e
00000110: c6d7 543e 6e8b 663e cdfd babd 9123 be3c
00000120: 94b8 3f3e 58fe bb3c a14f 19be 8bac 64be
00000130: ba54 873d bc4b 473e 1fe3 04be 6f85 e6bd
00000140: 7ca3 033e d94b fb3d d066 09be 3528 14bd
00000150: 16b9 15be 7a84 fbbd 8661 d5bd 82e3 3a3e
00000160: 7f6d ca3c 9b5f 3bbc 2117 04be a890 623e
00000170: 1d28 23be fb2f a93d 62bb 3abe 3735 2e3e
00000180: 279d 883d bb7a 69be ebbe 01bd bb3d c63c
00000190: 3fc4 76be 77fd 013c 0b52 353d c975 573e
000001a0: e994 73bd 396a eb3c fe78 9fbd bc2c babc
000001b0: 390c efbd dae7 02be c7e1 4ebc c62e 413d
000001c0: a633 e83d 1ea0 89bc 51c7 853d 4231 07bd
000001d0: 0f9a 19bd 0267 373e 4f87 ca3d 9a7e e93b
000001e0: 88f9 873d c504 593e 2356 8bbd 86a2 f2bc
000001f0: 17e4 f9bd 8316 683e 84db 44be 27a2 643c
00000200: f544 473e aa00 23be aaf8 613e 3e51 c9bd
00000210: 2608 0dbe 0e1f 683e 1ead 33be 2c64 71be
-0.0029177337 -0.03514349 0.11361765 0.2296253 0.0016942146 -0.05302269 -0.2343364 0.13997357
-0.22297794 -0.18613862 0.21546829 0.10883243 -0.17035742 0.24109173 0.07118821 -0.06780343
0.0011407716 0.14769022 0.21175633 0.03835356 0.21949525 -0.23016165 0.05934961 0.04758708
0.12364381 0.06871825 -0.17174548 -0.0051263594 0.19246444 -0.09837073 -0.118840836 -0.020275295
-0.23990571 0.027926613 0.12568061 -0.13201551 0.047043644 0.070114195 -0.23745182 -0.21338078
0.10305137 0.15451089 0.11880701 0.119276725 0.22871007 0.17556016 0.08175165 0.012554501
0.08572686 -0.20467536 0.20089167 0.07882461 -0.16644847 0.1073764 -0.124354795 -0.20046106
0.20832045 0.10309697 0.092554204 0.20897439 0.16539834 0.013561928 0.025568971 0.14506893
0.044391844 -0.03576051 0.1765058 0.21948357 0.20785436 0.22514126 -0.0913044 0.023210319
0.18722755 0.022948429 -0.14971782 -0.22331445 0.06607957 0.19462484 -0.12977265 -0.11255919
0.12855333 0.12270326 -0.13418126 -0.036171157 -0.14621386 -0.12281127 -0.10418992 0.1825085
0.024710415 -0.011436368 -0.12899448 0.22125494 -0.15933271 0.08261105 -0.18235543 0.17012487
0.066705994 -0.22800724 -0.031676214 0.024199357 -0.240983 0.007933966 0.044267695 0.21041025
-0.059468184 0.028737174 -0.07786749 -0.02272641 -0.11672253 -0.12783757 -0.012627072 0.047163747
0.11337976 -0.016799983 0.06532157 -0.03300596 -0.037500437 0.17910388 0.09889089 0.007125688
0.06639391 0.21193226 -0.06803539 -0.029618513 -0.12201708 0.22664838 -0.19224364 0.013954676
0.19459899 -0.15918222 0.22067514 -0.09829949 -0.1377264 0.22668096 -0.17546508 -0.23573369

impactVectorAndCSMToGHI.0.bias f4 [8]
00000000: 13f5 073d 54b0 40be eea5 3ebe 2ad5 3d3d
00000010: 4723 ec3b 57e6 713e 693d 953d 48ae 7c3d
0.033192705 -0.18817264 -0.18617985 0.046345867 0.007206354 0.23623024 0.07287104 0.061689645

impactVectorAndCSMToGHI.2.weight f4 [4, 8]
00000000: 3b7c 783e 110a a0be 31c4 803d ba72 8fbd
00000010: 1515 3dbd 5dad 52be 3850 77bd 2b51 8dbe
00000020: ecf0 073e 44c7 923e 1f74 973e e4b0 493e
00000030: 450b 3d3e d58d fabc faa3 a13c 29e4 e6bd
00000040: bd1b 7dbe fc1b b4be 8ac2 593e 47fc 923e
00000050: 50db 6c3e 9386 9e3e 5ce9 8c3e 9dcc 323d
00000060: a17f 03be 438e a5be f396 a03e 0f41 25be
00000070: a96e 6cbd de69 cebd 4784 863e 064f b8bd
0.2426614 -0.3125768 0.062874205 -0.07004304 -0.046162684 -0.20573945 -0.060379237 -0.2760099
0.13275498 0.28667653 0.2958078 0.19696385 0.1846133 -0.030585209 0.01973151 -0.11273987
-0.24717613 -0.351776 0.21265617 0.28708097 0.23130536 0.30962047 0.2752179 0.043652166
-0.12841655 -0.323351 0.31365165 -0.16138099 -0.05772272 -0.10078786 0.26272795 -0.089994475

impactVectorAndCSMToGHI.2.bias f4 [4]
00000000: 8632 09bc 27cb d43d 88cb 103e a46f a7bd
-0.008373862 0.10390311 0.14140141 -0.08175591

impactVectorAndCSMToGHI.4.weight f4 [1, 4]
00000000: b29a 943e f02c b83d 2cc0 253e 1257 95be
0.29024273 0.08992946 0.16186589 -0.29167992

impactVectorToImpactScalar.0.weight f4 [8, 16]
00000000: d892 2f41 490c a0c0 7576 80c1 4fe9 02c1
00000010: 7c83 82c1 a33a dabf 319b f3be d145 aac2
00000020: a143 7ac1 3f3b 00bf 94a5 3bbf 8368 a0c0
00000030: dff0 a43f 4f7b 90c1 840a b240 af9f 2b3f
00000040: 7682 3040 34e8 f33f 8b60 1a41 83bc e8c1
00000050: 1062 e4c1 c629 593f a6c0 a53f cec1 fbc2
00000060: ea2c dac0 9d82 b3bf cec5 e53e 00f6 44c0
00000070: f367 6cc0 5ca2 0ac2 7e28 6240 43f2 b0bf
00000080: 355b 96c0 f661 b141 b5f5 bd41 ca4d cec1
00000090: 5a85 78c1 067c 0d3e 22eb efbf 6e0c 9ac2
000000a0: 6649 f3c1 30ff 9ebf a2c4 08c0 1dc0 79c2
000000b0: 4119 1b42 09e7 a9c1 b598 26c2 2879 17c1
000000c0: ae94 1ac1 e368 1bc0 b9ed ca3f 324f f440
000000d0: d586 4dc1 b484 233f 211e 803f 43e5 8142
000000e0: f73e 9040 e237 21c0 920d d7bf 674e 0940
000000f0: c556 03c0 c615 d7bf 394b 7f40 f9d7 0cbe
00000100: f1b7 c941 3e95 b3c0 221b 2d41 b121 1cc2
00000110: 02a6 2440 83d5 373e 16b1 1c3f 6102 a4c2
00000120: 9625 1ec0 d8d5 833f caf6 6c3e a4d1 14c0
00000130: ac9b e2be 839c a3c0 f97a 0941 3bd8 ec3e
00000140: d197 fcc0 8ef4 e0c1 153f 0941 6cf8 5441
00000150: 2075 fabf 2897 323f d760 86be 61e9 a841
00000160: 7253 57c1 928e b1bf 032c bebf 2fa1 d1c0
00000170: 5d88 0fc2 64ef c6c1 6f43 1240 9ca7 b23f
00000180: 404f ee41 4646 3bc0 73fd b5c0 6d70 8bc1
00000190: 57c3 d8c1 8862 ca3e 76c5 0140 91f2 bcc2
000001a0: e627 80c0 718f 5840 0a3a 853f 6281 eebe
000001b0: 7d32 f040 81f6 8dc1 6195 e4c0 c7aa 863f
000001c0: 67f5 d240 6e9a d83e 706b 8ec0 9795 97c1
000001d0: 1145 b1c1 f44d 493f 06f8 92be bd6a bac2
000001e0: 39ff e7c0 c6e0 6abf 52c5 0240 d947 0cc0
000001f0: f726 4840 cf00 9ac1 0e64 0c41 4825 923f
10.973351 -5.0014997 -16.05784 -8.18196 -16.314201 -1.7049145 -0.4757934 -85.13636
-15.641511 -0.500904 -0.7329953 -5.012758 1.2886008 -18.06021 5.5637836 0.6704053
2.7579627 1.9055238 9.64857 -29.092047 -28.547882 0.84829366 1.2949417 -125.878525
-6.8179827 -1.4024235 0.44877476 -3.0775146 -3.6938446 -34.658554 3.5337214 -1.3823932
-4.6986337 22.172832 23.744974 -25.787983 -15.532557 0.13816842 -1.8743632 -77.02428
-30.41084 -1.2421627 -2.1370015 -62.43761 38.774662 -21.23781 -41.649128 -9.467079
-9.661299 -2.4282768 1.5853797 7.6346674 -12.845418 0.63874364 1.0009195 64.94778
4.507686 -2.5190358 -1.6801016 2.1454103 -2.052171 -1.680352 3.9889662 -0.13754262
25.214815 -5.611968 10.819124 -39.0329 2.5726323 0.17952542 0.6120771 -82.00465
-2.471044 1.0299635 0.23141018 -2.3252954 -0.44259393 -5.1128554 8.592523 0.4625872
-7.8935323 -28.119411 8.577901 13.31065 -1.9566994 0.69761896 -0.26245758 21.113955
-13.457872 -1.3871634 -1.4857181 -6.5509257 -35.883167 -24.86689 2.2853658 1.39574
29.788696 -2.9261642 -5.6871886 -17.429895 -27.09538 0.39528298 2.027677 -94.47376
-4.0048704 3.383755 1.0408337 -0.46583086 7.506163 -17.745363 -7.1432347 1.0520867
6.5924563 0.4230532 -4.450615 -18.948042 -22.158724 0.7863457 -0.28704852 -93.20847
-7.249905 -0.9174923 2.0432935 -2.1918852 3.1273782 -19.250395 8.774427 1.1417627

impactVectorToImpactScalar.0.bias f4 [8]
00000000: a15f 983e 20b5 c1be cb6d 2a3e 7874 983f
00000010: 3717 dfbd 1f3b 24bf 4074 e8bf df26 733e
0.2976046 -0.378335 0.16643445 1.1910543 -0.108931 -0.6415271 -1.8160477 0.23745297

impactVectorToImpactScalar.2.weight f4 [4, 8]
00000000: 0a11 bc3f 3867 01c0 9282 23c0 72cc 3940
00000010: 8c7e 75c0 8e4f 0d40 27f0 743f 6553 883e
00000020: 004e 3a3f 5dc0 2740 5393 b0bc 2891 7240
00000030: 77ff 793e a07a ff3f 6ce6 3f40 6436 d73f
00000040: de26 62bf 8155 a0be fdf1 6fbf 09bc c73e
00000050: 8c18 873f d70d 0240 ce93 0ebf beed c8be
00000060: 9537 653f 5119 15bf ec6c c93f da54 a4c0
00000070: a4f9 1340 69f5 0ec0 7664 efbf 62d0 2d3e
1.46927 -2.021925 -2.5548444 2.9031034 -3.8358488 2.2079806 0.95678943 0.26626125
0.7277527 2.621116 -0.021554625 3.7901096 0.24413858 1.9959297 2.9984388 1.6813474
-0.88340557 -0.31315234 -0.9372862 0.39010647 1.0554366 2.0320947 -0.5569428 -0.39243883
0.89537936 -0.58241755 1.5736365 -5.135358 2.3121119 -2.2337286 -1.8702533 0.16974023

impactVectorToImpactScalar.2.bias f4 [4]
00000000: 217b febf 15bb 5fbe 46b5 83be af9c 9c3f
-1.9881326 -0.2184871 -0.25724238 1.2235316

impactVectorToImpactScalar.4.weight f4 [1, 4]
00000000: 0668 0c40 0568 e53f 92d3 c0bf 53d5 0140
2.193849 1.7922369 -1.5064566 2.0286453

impactCSMToGHI.0.weight f4 [4, 2]
00000000: 7b04 14c0 1888 6dbe 4aa1 d83e f6c5 84bf
00000010: 696d f73f 5eb8 ee3e bf20 e93f 2d55 91be
-2.3127735 -0.23196447 0.42310554 -1.0372913 1.9330264 0.46625036 1.8213118 -0.28385296

impactCSMToGHI.0.bias f4 [4]
00000000: dfc2 84bf d9b3 d1be 61d2 b73f 415a fc3f
-1.037197 -0.40957525 1.4361078 1.9715043

impactCSMToGHI.2.weight f4 [1, 4]
00000000: ef40 973f 880c 9bbe fc4b ca3f 1464 bcbf
1.1816691 -0.30282998 1.5804439 -1.4718041

exp_avg f4 [4, 2]
00000000: b583 95ba da96 a73a 2cf9 80ba e930 18bb
00000010: d925 a339 c2b8 8437 03b5 00bb a0ed 913a
-0.001140705 0.0012786046 -0.0009839884 -0.0023222512 0.0003111798 1.582166e-05 -0.0019639141 0.001113344

exp_avg_sq f4 [4, 2]
00000000: b29a 7238 0c8c 1d37 5e45 3739 ccff d637
00000010: d255 da36 9e9d 1b36 b645 9737 8d55 a836
5.7841367e-05 9.390536e-06 0.00017478081 2.5629903e-05 6.506897e-06 2.3188545e-06 1.8033064e-05 5.0167496e-06

exp_avg f4 [4]
00000000: 16e6 92ba dc58 90ba 4de2 9c39 e0f4 20bb
-0.0011207487 -0.001101281 0.00029923246 -0.002456002

exp_avg_sq f4 [4]
00000000: a1b3 ba38 192f 8b39 ed9f 7037 2474 0938
8.9026296e-05 0.00026547236 1.434235e-05 3.277151e-05

exp_avg f4 [8, 4]
00000000: 3bcd ccb8 b9f2 79b9 4c9d 6fb9 d3eb 5f38
00000010: d3f1 b337 6ddd bb38 becf 95b9 0248 65b8
00000020: 3534 25ba 7153 92ba cb7b 22bb 931b b2ba
00000030: 8cc8 093a 60d1 d739 1726 873a 04fb ad39
00000040: e046 a0ba e68f 23ba a560 abba d424 1b37
00000050: aa99 2839 f50c bb37 da18 db38 74bb 20b8
00000060: a86b 443a 3161 2a3a 29ba 923a a35d 0b39
00000070: bfd0 cdb8 92e1 bcb8 e588 073a 1a51 d839
-9.765705e-05 -0.00023836912 -0.00022851414 5.338697e-05 2.1451071e-05 8.9580986e-05 -0.00028574275 -5.4664917e-05
-0.000630203 -0.0011163783 -0.0024793025 -0.001358854 0.0005256019 0.00041163992 0.0010311034 0.00033184153
-0.0012228154 -0.0006239399 -0.0013075067 9.247295e-06 0.00016078973 2.229817e-05 0.00010447363 -3.8321552e-05
0.00074928487 0.0006499468 0.0011194396 0.00013290955 -9.814044e-05 -9.006554e-05 0.000517024 0.00041259156

exp_avg_sq f4 [8, 4]
00000000: faff c735 be77 d736 eac0 5b37 7c8d aa35
00000010: ec59 1837 08a7 b936 b0bb 2337 50fb 4c33
00000020: 2e9d d636 2161 0b37 952e e037 7bb6 f736
00000030: 3b9c 9536 3dc3 7236 5472 ea36 5632 b635
00000040: cf3e 5337 fd4d de36 4e83 da37 6253 1436
00000050: 2956 3837 e261 dc36 1076 3f37 bc2d 9c33
00000060: 5468 8636 5bfd f936 261e 9337 79be 5f35
00000070: 3a64 2d37 c8f6 a636 011e 5a37 b3a1 4135
1.4901154e-06 6.421439e-06 1.30983335e-05 1.2707164e-06 9.080843e-06 5.5328746e-06 9.7592565e-06 4.772602e-08
6.395995e-06 8.30766e-06 2.6724572e-05 7.382417e-06 4.4587337e-06 3.6174454e-06 6.987053e-06 1.3574706e-06
1.2591204e-05 6.6251946e-06 2.6048769e-05 2.2102254e-06 1.0987315e-05 6.567906e-06 1.1411976e-05 7.272635e-08
4.0056566e-06 7.4502727e-06 1.7537805e-05 8.335115e-07 1.0334939e-05 4.9759146e-06 1.3000798e-05 7.2133406e-07

exp_avg f4 [8]
00000000: 9aed 9fb9 f048 c2b6 ecda 19bb a822 893a
00000010: 34de d9ba d839 0839 af95 af3a d393 2439
-0.0003050387 -5.7901416e-06 -0.0023476435 0.0010462599 -0.0016622008 0.00012991519 0.001339605 0.00015695328

exp_avg_sq f4 [8]
00000000: 3875 8437 6948 ae37 b9f3 0638 a4af 5737
00000010: 2162 0e38 93b1 ce37 fcaa af37 00a3 c337
1.579021e-05 2.0776135e-05 3.2175074e-05 1.2855893e-05 3.3946828e-05 2.4639803e-05 2.0941246e-05 2.3321714e-05

exp_avg f4 [16, 8]
00000000: b2eb 3335 184c 8737 7c6d fe35 ef67 cc36
00000010: f158 0338 ed4e 4937 582e ff35 47d1 9837
00000020: f84a 9caf e7ea 85b2 c5bc 68b2 58db 05b2
00000030: cea6 d2b3 859c a9b3 5139 ccb1 93f6 99b2
00000040: 736e 2236 914d 4137 7ca0 3f34 6b9b 1937
00000050: ee8a 3437 2583 04b3 9449 5136 a42b 4137
00000060: a5d0 8fa4 1690 66a7 6d75 a5a5 6437 2da7
00000070: 024b c1a7 f74b c8a6 9090 4aa6 628d 86a7
00000080: 575d cdb6 173e 3cb6 5765 2a36 9af3 35b5
00000090: 485a 10b7 24a9 08b6 f2fa 90b6 83f8 91b6
000000a0: cc30 c539 e4f2 0d3b 480b 8939 2e7f 123b
000000b0: fc9b b7b9 a112 37ba 7c1a 0e3b 0b6a cc3a
000000c0: a4cb d7ba 8908 d43a 5aff 5cba c5b2 6d3b
000000d0: 6616 a23a 7f0f 45ba fa7d 253a 8656 623a
000000e0: 6043 0326 c0fa fcab 3047 faaa 323b b0ac
000000f0: f025 41ac b032 99ab a1fa 11ac b18a 0dac
00000100: 2ec2 9bb5 022d 8bb7 530d 21b5 e156 4fb7
00000110: d9d5 9db7 fe2a 15b6 23d4 88b6 28ab 90b7
00000120: 35ea 6dbb 2a95 20bc 3adf 97ba 7de4 11bc
00000130: 3df4 bebb 969b 1338 d4c9 e5bb b41b 16bc
00000140: d2dc e7ba a687 b1bb 511b 10ba 8407 88bb
00000150: 98bf 2fbb 8919 0a3a 2f8e 79bb 84cd a8bb
00000160: ee1f 6f33 7115 4536 e721 e635 4727 9235
00000170: 45dc 8837 03c4 4037 f115 5735 c8d8 6036
00000180: 5e8d e2a9 0321 f2ac 4836 48ac 0b8e d5ac
00000190: f7fc ecad d7e9 98ad abd2 56ac e26a 0bad
000001a0: 3dec 5e31 913b a734 8d2a dc33 a3f1 bd34
000001b0: 6aea 8235 afc0 1a35 cb7f 2b34 2441 bd34
000001c0: 2104 b335 001f b935 4cbe a0b4 3c8d 3935
000001d0: 4b07 3237 a02f d236 344a d6b5 e753 9a35
000001e0: dd72 2439 846e 1c3a 5a79 2939 9669 3b3a
000001f0: 1748 6b3a 37e7 053a a08a d439 4817 1e3a
6.702568e-07 1.6128688e-05 1.8956339e-06 6.0917732e-06 3.1315667e-05 1.199891e-05 1.9012468e-06 1.8217264e-05
-2.8429503e-10 -1.5590059e-08 -1.35470986e-08 -7.791492e-09 -9.8092286e-08 -7.8981465e-08 -5.9436975e-09 -1.7923673e-08
2.420417e-06 1.1521756e-05 1.7846645e-07 9.155697e-06 1.0761183e-05 -3.085292e-08 3.1186255e-06 1.1513857e-05
-6.236982e-17 -3.1997021e-15 -2.8702508e-16 -2.40386e-15 -5.3649585e-15 -1.3898378e-15 -7.0278747e-16 -3.734576e-15
-6.1203423e-06 -2.8050324e-06 2.5390962e-06 -6.778224e-07 -8.604089e-06 -2.0364032e-06 -4.3207483e-06 -4.3502673e-06
0.00037611125 0.0021659667 0.00026139081 0.0022353637 -0.00035020697 -0.0006983672 0.0021683266 0.0015595568
-0.0016463888 0.001617686 -0.00084303843 0.0036269885 0.0012366294 -0.0007517263 0.00063130225 0.0008634109
4.5541065e-16 -1.7975274e-12 -4.4458317e-13 -5.008793e-12 -2.744801e-12 -1.0885372e-12 -2.0744866e-12 -2.0114294e-12
-1.1604914e-06 -1.659105e-05 -5.9996563e-07 -1.23583895e-05 -1.8815439e-05 -2.2227755e-06 -4.077812e-06 -1.7245839e-05
-0.0036302928 -0.0098011885 -0.0011586912 -0.0089045735 -0.0058274553 3.5192432e-05 -0.007012585 -0.009161878
-0.0017689711 -0.005417782 -0.00054972345 -0.0041512866 -0.002681708 0.0005268087 -0.0038079133 -0.0051514525
5.5675564e-08 2.9367768e-06 1.7146202e-06 1.0889279e-06 1.6315034e-05 1.1489729e-05 8.012567e-07 3.3504784e-06
-1.00609394e-13 -6.8817187e-12 -2.8451842e-12 -6.069594e-12 -2.6942433e-11 -1.7384245e-11 -3.0528173e-12 -7.924968e-12
3.2439538e-09 3.1149514e-07 1.0252288e-07 3.5379807e-07 9.753978e-07 5.764986e-07 1.5972107e-07 3.525139e-07
1.3337741e-06 1.3792596e-06 -2.9940782e-07 6.9123394e-07 1.0611325e-05 6.264032e-06 -1.5965838e-06 1.1498313e-06
0.00015683049 0.0005967396 0.00016162303 0.00071492174 0.0008975281 0.0005108001 0.00040539075 0.0006030691

exp_avg_sq f4 [16, 8]
00000000: 6564 682c 5b9d bd31 ad19 f62f 7a07 8530
00000010: 61d8 5e33 aa1b 9e32 f122 6a2f f639 0232
00000020: 8391 0022 56d0 bd27 aaeb 8428 5df6 1027
00000030: 38df 0b2b 52ef f92a bd9a 0327 5781 fa27
00000040: 5c8d 0730 5dba 1232 bad5 e22c 7e90 d531
00000050: 2bbe 1532 443c a62d c582 0a30 0b54 1532
00000060: bfb5 6816 8681 801c 252b c51b c543 381c
00000070: 82de f01e 1ea0 6b1e 5e75 7a1b 6ee8 c21c
00000080: 27a4 d631 c297 8c33 a39a 0e30 8300 0233
00000090: b21b f133 30ff 1232 b25e cc31 08e1 9e33
000000a0: 1be8 0539 dfdd 9f39 6a2b 2c37 fc37 5839
000000b0: c493 3739 d790 a436 ff6e 2a39 ebe1 9a39
000000c0: a9c8 023a 4585 bd3a d764 6d38 2dfb 7b3a
000000d0: f630 743a bc9c a037 7a57 363a d9d7 b53a
000000e0: e3c1 da14 88b4 8a1b 171c 051a fdf8 231c
000000f0: 2306 1b1d 864c 621c 5f4a e31a d446 c11b
00000100: 0843 0a2f e06b 6233 1b9d 592f 0e90 e932
00000110: fb3e b933 b14c 5f31 db2b 7631 e299 8233
00000120: 3d37 fc39 dffa af3a 7f93 4537 91b8 8d3a
00000130: 857c 813a 9c25 5536 0071 0e3a fc19 ab3a
00000140: f404 6539 06ba 523a d0a8 4036 78d3 263a
00000150: 1480 453a 7ebb ae37 2db2 7639 7ba9 523a
00000160: fffa b429 2df0 882f a227 af2f 36bb b62e
00000170: 27ca 8932 f23f 4332 17dd 802e f104 b42f
00000180: 7ef5 8015 7341 a71b aa35 5e1a 7793 ee1b
00000190: e8c5 8b1d 9667 f81c 04a4 b71a 3960 dd1b
000001a0: 371b af27 d72f 9f2d 5603 432b efd5 8d2d
000001b0: 150f e62e 0993 b72d dc05 1c2c b80c e72d
000001c0: e23a 3432 df8f 5f33 72b5 922f 4f85 1d33
000001d0: 21e5 9633 3d1e ad31 64d7 0932 5791 6c33
000001e0: 39f5 e136 4640 d137 1b74 f034 9477 a237
000001f0: cfdb 0838 2a4c 7036 b5c2 ec36 d9eb d737
3.3024913e-12 5.518513e-09 4.4765383e-10 9.679149e-10 5.18852e-08 1.8406201e-08 2.129459e-10 7.580175e-09
1.7424268e-18 5.2683916e-15 1.4757147e-14 2.0117568e-15 4.96925e-13 4.4397347e-13 1.8263786e-15 6.952917e-15
4.93136e-10 8.540693e-09 6.4470347e-12 6.2155427e-09 8.716181e-09 1.8898778e-11 5.038994e-10 8.692051e-09
1.879816e-25 8.50381e-22 3.2618798e-22 6.0968083e-22 2.5503015e-20 1.2473908e-20 2.0717439e-22 1.2897925e-21
6.2468817e-09 6.5468626e-08 5.187905e-10 3.026845e-08 1.1227475e-07 8.556341e-09 5.947947e-09 7.398381e-08
0.00012770334 0.0003049215 1.0262107e-05 0.00020620221 0.00017507287 4.9044424e-06 0.00016253813 0.0002954149
0.0004989007 0.0014459273 5.6599118e-05 0.0009612318 0.0009315157 1.9146471e-05 0.0006955784 0.0013873532
2.208885e-26 2.294685e-22 2.7526446e-23 5.4253986e-22 2.0517252e-21 7.487603e-22 9.400515e-23 3.1974943e-22
1.2574841e-10 5.2717837e-08 1.979185e-10 2.7190278e-08 8.62619e-08 3.2494365e-09 3.582264e-09 6.081588e-08
0.0004810634 0.0013426206 1.1776457e-05 0.0010812451 0.0009879029 3.1761365e-06 0.00054337084 0.0013054009
0.00021840987 0.0008038584 2.8708491e-06 0.0006363909 0.0007534039 2.0829724e-05 0.00023526764 0.0008036119
8.0371467e-14 2.490891e-10 3.1860475e-10 8.309657e-11 1.6040827e-08 1.1365033e-08 5.8600395e-11 3.274532e-10
5.2086107e-26 2.7670128e-22 4.5951873e-23 3.9469094e-22 3.6997624e-21 1.643804e-21 7.595201e-23 3.6623566e-22
4.8601764e-15 1.8097452e-11 6.9282546e-13 1.612485e-11 1.0461868e-10 2.0869988e-11 2.2172186e-12 2.6267308e-11
1.0490767e-08 5.2052084e-08 2.668617e-10 3.6675655e-08 7.0265976e-08 5.0384004e-09 8.023424e-09 5.5080218e-08
6.73407e-06 2.4944671e-05 4.4787961e-07 1.9367588e-05 3.262964e-05 3.580712e-06 7.056015e-06 2.5739822e-05

exp_avg f4 [16]
00000000: a140 0638 264f f4b3 2b51 3337 09d1 d0a7
00000010: 915a afb6 a69b 963a 02da 593a 468b e1ac
00000020: bd3c a6b7 2b73 23bc dea4 a3bb 5e87 9337
00000030: 95dc 0dae 0984 a435 8713 ed36 ac85 bb3a
3.200828e-05 -1.13765324e-07 1.068813e-05 -5.7958234e-15 -5.2259497e-06 0.0011490479 0.0008310379 -6.410347e-12
-1.9817026e-05 -0.009976189 -0.004994019 1.75868e-05 -3.2255604e-11 1.225738e-06 7.0654237e-06 0.0014306805

exp_avg_sq f4 [16]
00000000: 1b8e 8233 a502 4e2b 7f18 2232 be66 281f
00000010: 7cf3 0334 f15a b939 aaa7 e33a 898f 911d
00000020: aedb d733 d579 be3a 93a2 753a f33a ba32
00000030: 737c ce1d 711c 1e2f 4d6d a833 fab3 2d38
6.0794456e-08 7.318957e-13 9.435211e-09 3.566037e-20 1.2288905e-07 0.00035353706 0.0017368693 3.8529592e-21
1.0051677e-07 0.0014532158 0.0009370234 2.1680057e-08 5.4656423e-21 1.4380121e-10 7.842991e-08 4.141403e-05

exp_avg f4 [8, 16]
00000000: 4a62 b737 7321 84b8 d554 9d37 9994 25b3
00000010: 5d0f e835 25fe 853b 287e 933b b88c 9bb4
00000020: 5064 8e36 d858 443c 58b1 5fbb 026d d538
00000030: a840 8db7 98fe 06b6 cfba de36 3e07 023c
00000040: d410 6e37 9519 87b8 8836 0d38 871c 8db3
00000050: e838 a635 3671 e23a 51bd 083b 24ec ad34
00000060: 3e82 1e36 f9ee a43b caa0 b5ba 2c0c 3b39
00000070: ceb2 0eb7 0f4f 6bb5 1865 8237 43be 103c
00000080: 7fe3 03b4 4848 6bb6 dc78 2234 4dff 6628
00000090: 97d6 6732 ee40 8939 6db2 7037 9786 9f33
000000a0: aa38 58b4 7e7b f33a 4919 b8ba ff78 14b4
000000b0: c282 32b5 0f03 cab0 25b6 f734 50e2 56b7
000000c0: 37eb e2b5 51c8 aa37 2574 f337 1e48 e933
000000d0: ccbb bc34 476d 863c f73d 83ba 1695 8635
000000e0: 7d2d 0bb7 a9d5 103c bcad 633c ee3c e039
000000f0: d418 86b4 1c58 f5b1 6415 2037 b216 c23c
00000100: 641d cc36 74b0 e638 934a 23b3 35c1 1f34
00000110: 206b da34 4634 dfb8 7c5b 173b f697 a3b4
00000120: de10 1938 5dda 3bba 9121 b53a 4930 84b8
00000130: 717a 0438 d63b 8536 aabb 08b7 bbd6 4639
00000140: 3804 8bb3 333d 1bb7 5294 b4b6 7b0e b533
00000150: 0d4b 0534 4f04 49ba 7c0e dcb9 276c 07b2
00000160: 9e27 ab34 091a 38bb f4e3 173b 0245 18b8
00000170: 07bf 7636 060e 4334 2eef 81b6 4968 f4b9
00000180: 93a0 42b6 d4f7 b6b5 bea0 ab37 aff7 ebb3
00000190: cdd5 34b5 5314 be3b 90ff b139 575c fe34
000001a0: 0d9c 7eb6 3d35 083c 741a 21ba a186 8f39
000001b0: 0d73 47b7 4806 0bb6 82d9 9537 e520 403c
000001c0: b722 9236 3b73 dbb8 56c0 cc37 64f1 1bb4
000001d0: 6ccc 5534 48c0 28ba 4f5e 593b e257 5834
000001e0: f184 9bb5 80b2 773b a1e2 13ba 34df c4b6
000001f0: 5f01 54b7 7200 83b5 7b21 c635 1883 583b
2.186107e-05 -6.300481e-05 1.8755361e-05 -3.8552205e-08 1.7289818e-06 0.0040891343 0.004501123 -2.8973386e-07
4.2436077e-06 0.011984073 -0.0034132805 0.00010176936 -1.6838618e-05 -2.011575e-06 6.637863e-06 0.007936297
1.4189824e-05 -6.442067e-05 3.3667806e-05 -6.571013e-08 1.2384526e-06 0.0017276171 0.0020864794 3.2395576e-07
2.3619646e-06 0.0050333706 -0.0013857123 0.00017838244 -8.505491e-06 -8.765937e-07 1.5544283e-05 0.008834424
-1.2283088e-07 -3.5059802e-06 1.5131394e-07 1.2822924e-14 1.3494762e-08 0.00026179053 1.4346658e-05 7.428496e-08
-2.0137182e-07 0.0018576232 -0.0014045622 -1.3827592e-07 -6.6500445e-07 -1.4698304e-09 4.6139863e-07 -1.28080865e-05
-1.6906769e-06 2.0358859e-05 2.9021941e-05 1.0863026e-07 3.515437e-07 0.01640953 -0.0010012974 1.0027168e-06
-8.295637e-06 0.008840003 0.013896402 0.00042770006 -2.497751e-07 -7.1404553e-09 9.541724e-06 0.023692463
6.0830953e-06 0.000110001216 -3.801922e-08 1.4878317e-07 4.0683608e-07 -0.00010643205 0.00230953 -3.0471682e-07
3.649375e-05 -0.00071660226 0.0013819208 -6.303244e-05 3.1585285e-05 3.9706747e-06 -8.149926e-06 0.00018962745
-6.473459e-08 -9.252969e-06 -5.381685e-06 8.431103e-08 1.2413894e-07 -0.00076681835 -0.00041972462 -7.882625e-09
3.1880057e-07 -0.002809169 0.0023176642 -3.6303893e-05 3.676805e-06 1.8165892e-07 -3.8723438e-06 -0.00046617005
-2.900172e-06 -1.3632184e-06 2.045964e-05 -1.09880936e-07 -6.7366346e-07 0.0058007627 0.0003395048 4.7378373e-07
-3.7939783e-06 0.008313474 -0.00061456044 0.00027375392 -1.1888112e-05 -2.071627e-06 1.786347e-05 0.011726593
4.3551804e-06 -0.00010464197 2.4408258e-05 -1.4523317e-07 1.9911539e-07 -0.00064373435 0.0033167785 2.0148539e-07
-1.1587091e-06 0.0037795603 -0.00056413753 -5.8672395e-06 -1.2636504e-05 -9.76039e-07 1.4761894e-06 0.0033037122

exp_avg_sq f4 [8, 16]
00000000: 3c7c 9731 0f2d f333 7375 f131 4fc3 432b
00000010: d2b0 722e c1b8 183b 0b7d 323a d57d 6b2e
00000020: f628 0f32 c8d6 183b 80a0 a63a 47d4 6134
00000030: a289 1f31 044e 272f b3fa f231 3a56 a33a
00000040: 3acc 3432 9a01 8034 dc34 4433 038c e32a
00000050: c1ed 672f a222 b03b 99a2 f539 8441 132c
00000060: 5cd2 9f32 943c 503b 37f0 313b acab a734
00000070: cf65 fa30 8419 872e 66a6 3732 d083 1e3b
00000080: fdea 902d f157 8031 6d43 9f2e 2ffd 6a23
00000090: 93de 422a 35d5 8139 df0f 5137 8910 352b
000000a0: 0a5d ac2d 1dea 2b39 1c98 0239 712d 082c
000000b0: b692 0a2c d774 d623 9302 ee29 7a77 5c34
000000c0: 93d4 f731 b2af 6c34 c44f 9333 8e57 242c
000000d0: 6304 5f2e 9638 2e3c 096a 043a e5a1 4f2d
000000e0: 3488 1f34 7f6d b73b c329 a23b 8599 5c35
000000f0: 41f7 6832 45df 2e30 c931 1633 c1b6 d03b
00000100: 4a4c 3530 0d6c 5c33 dff3 0531 5a09 662d
00000110: b6d1 852e cf53 213a 21d8 9d38 4e55 502f
00000120: a156 e132 fe13 f839 cd4a ea39 6872 0d34
00000130: d90f 1032 d396 3631 97d3 9b30 724e 8739
00000140: 5b49 772e 8447 e131 74ec db31 84a4 b02b
00000150: 0d7c 912c 75ac 213a ff59 3038 f3d0 722e
00000160: 3526 5732 dee6 e139 4a69 9439 4f5f 9733
00000170: 0db0 c12f c6cf 122f a23b 1c30 6ddb 2c39
00000180: fb3e 1e30 a346 1234 3796 7a32 6be7 8b2b
00000190: 86f4 042f ae48 de3b c5b1 6b39 8f34 a02e
000001a0: c7fe 6133 8cef 583b bbc9 7f3b ce0c 0c35
000001b0: d215 8431 6351 4730 0aea c532 3c69 633b
000001c0: f8f9 a030 4d96 2534 ecff 0e33 1a39 062c
000001d0: 5eb0 fc2e 8c49 8c3a 8cf0 1d3a ed34 132e
000001e0: a823 cb32 354c e03a 62c1 5f39 b75b 4134
000001f0: 8eb4 4a31 2ec4 4a2f 7ce8 2b30 1152 b039
4.408802e-09 1.13237654e-07 7.0273756e-09 6.954896e-13 5.5181477e-11 0.0023303481 0.0006808794 5.3544575e-11
8.333009e-09 0.002332138 0.0012712628 2.1031984e-07 2.321578e-09 1.5216278e-10 7.071628e-09 0.0012461611
1.0523815e-08 2.3843023e-07 4.568288e-08 4.0420453e-13 2.1093795e-10 0.0053752223 0.00046851186 2.0926325e-12
1.8605697e-08 0.0031774389 0.0027151236 3.1231082e-07 1.821883e-09 6.143622e-11 1.0689837e-08 0.0024187453
1.647526e-11 3.735288e-09 7.24246e-11 1.2738779e-17 1.7307882e-13 0.0002476365 1.2461066e-05 6.4327065e-13
1.9595454e-11 0.00016395045 0.00012454431 1.9351987e-12 1.969242e-12 2.325141e-17 1.056977e-13 2.0532562e-07
7.212813e-09 2.204313e-07 6.85973e-08 2.3354404e-12 5.0708226e-11 0.010633608 0.0005051201 1.18025355e-11
1.485758e-07 0.0055977697 0.004948826 8.2179787e-07 1.3560396e-08 6.3618116e-10 3.4969876e-08 0.006369442
6.595583e-10 5.1321013e-08 1.9492672e-09 1.3076063e-11 6.085392e-11 0.0006154151 7.5266005e-05 1.8947796e-10
2.6232842e-08 0.0004731714 0.0004468769 1.3173269e-07 8.3855065e-09 2.657022e-09 1.1337872e-09 0.00025807653
5.622645e-11 6.5564922e-09 6.4006205e-09 1.2551214e-12 4.1349203e-12 0.00061673607 4.2045485e-05 5.5210014e-11
1.2523334e-08 0.00043087354 0.00028307206 7.048822e-08 3.5231587e-10 1.3352439e-10 5.683721e-10 0.0001648494
5.7569566e-10 1.3623007e-07 1.458607e-08 9.940775e-13 1.2092202e-10 0.0067835664 0.00022477571 7.285294e-11
5.2618613e-08 0.0033101765 0.0039030153 5.21727e-07 3.8441863e-09 7.2511436e-10 2.3040247e-08 0.0034700176
1.1712578e-09 1.5421502e-07 3.329471e-08 1.9074243e-12 1.14909623e-10 0.0010703071 0.0006024919 3.3470938e-11
2.3648525e-08 0.0017112555 0.00021338978 1.8007891e-07 2.9497502e-09 1.844149e-10 6.253982e-10 0.0003363048

exp_avg f4 [8]
00000000: 42de 483b 41cb ac3b 2394 0fbb d53a f23c
00000010: 719e 1d3a 5b19 ed38 98a3 193c 3e3e 793b
0.0030650054 0.005273253 -0.0021908365 0.029569069 0.00060126843 0.000113057635 0.009377383 0.0038031484

exp_avg_sq f4 [8]
00000000: 8e96 753c 32cd 9a3c 6217 123b c21f 0e3d
00000010: a40a 813b bc2c 6d3b f463 bc3c c8ed d93b
0.014989508 0.018896673 0.002229177 0.034698255 0.003938036 0.0036189994 0.02299688 0.00665066

exp_avg f4 [4, 8]
00000000: 21e2 6539 8422 d2b9 367a c23a 67b5 2cbb
00000010: 971c 113a cd9d bf3a 66c5 903b fad0 22bb
00000020: 91d4 c4bb 9e51 4fbc 18bf 3cbc a93c 5dbb
00000030: 5144 253c 9b7f 85bb 1c03 8d3c 0790 e23b
00000040: b386 583b ad14 4d3c c458 cb3b 858b 643b
00000050: e325 0abc 7b82 e33a 4c84 6bbc 053f d0ba
00000060: d670 71ba 7d20 53bb 3f11 afba 3e47 79bb
00000070: 075a 813b af48 a53a a882 473c 3b0e 99bb
0.00021923381 -0.00040080037 0.0014837447 -0.0026353241 0.0005535571 0.0014619172 0.004418063 -0.0024843798
-0.006006785 -0.012653736 -0.01152017 -0.003375808 0.010087089 -0.0040740496 0.017213397 0.006914142
0.0033039271 0.0125171365 0.00620565 0.00348732 -0.008431884 0.0017357612 -0.014374804 -0.0015887922
-0.0009210234 -0.003221541 -0.001335658 -0.0038036848 0.0039474997 0.0012610162 0.012177147 -0.004670886

exp_avg_sq f4 [4, 8]
00000000: 8bfa 1438 e8b2 6538 7d18 0639 49bf 2338
00000010: 2495 2138 408d a538 441b 8d38 e796 bd38
00000020: 7b11 6a3b d6f6 3c3b 8dfa e43b 56f3 1f39
00000030: 8cf3 3d3b 0618 5f3b 13f1 563b 75c0 9c3b
00000040: e5e2 a73b 5afe 7d3b 16af 273c 9333 1d3a
00000050: 5324 7a3b bb7b ee3b a8f8 8f3b e28b db3b
00000060: ba4d 5a3a 299d 1d3a b58d e63a 515b 8b39
00000070: 212e 2e3a ce13 9e3a 72c4 783a b3d2 913a
3.5519286e-05 5.4764474e-05 0.00012788358 3.9040377e-05 3.852429e-05 7.894123e-05 6.7284825e-05 9.04033e-05
0.0035715986 0.002883365 0.006987876 0.00015254071 0.0028984277 0.0034041419 0.00327975 0.004783685
0.0051234835 0.0038756342 0.010234615 0.000599676 0.0038168624 0.0072779334 0.004393656 0.006700025
0.0008327622 0.00060124934 0.0017589839 0.00026580182 0.0006644447 0.0012060346 0.0009489722 0.0011125415

exp_avg f4 [4]
00000000: e693 22bb 28a0 1b3c 2eb9 d7bb ac24 ebba
-0.0024807393 0.009498633 -0.0065833544 -0.0017940006

exp_avg_sq f4 [4]
00000000: f1d6 4139 ba9f ed3b 19df 4c3c 13a5 173b
0.00018485986 0.007251707 0.0125043625 0.0023139163

exp_avg f4 [1, 4]
00000000: 375d 89bb 595e 393b e292 963b fe15 8f3b
-0.0041920203 0.0028284995 0.0045951465 0.0043666353

exp_avg_sq f4 [1, 4]
00000000: fc18 d33b 9d93 5c3b 27a9 173a 32dd ae3b
0.0064421874 0.003365732 0.00057853985 0.005336427

exp_avg f4 [4, 2]
00000000: 84f7 d2ba 7b63 a2bb 1288 b43a f70e e438
00000010: 4079 a1bb 2b7c a1bb 61cb 2b3b 81f8 0a3c
-0.0016095494 -0.0049557067 0.0013773462 0.000108746746 -0.004927784 -0.004928132 0.0026213753 0.0084820995

exp_avg_sq f4 [4, 2]
00000000: 27c8 3e3a 0ee5 643b 7805 2d37 b934 3037
00000010: 5edd 913a 8f29 153b b334 a43a 887b a43b
0.000727775 0.0034926566 1.0312877e-05 1.0502693e-05 0.0011128595 0.0022760367 0.0012527913 0.005019609

exp_avg f4 [4]
00000000: c5be a139 461d bd3a 43e8 a43b 9326 29bb
0.00030850447 0.001442828 0.0050325706 -0.0025810346

exp_avg_sq f4 [4]
00000000: 3604 173b 84b4 5b38 be94 143b 9cb7 203b
0.0023043281 5.2381787e-05 0.0022671665 0.0024523502

exp_avg f4 [1, 4]
00000000: 271c 4d3c d6bc 3f3b 247f 48bc c7e9 d9bb
0.012518919 0.0029256842 -0.012237344 -0.006650183

exp_avg_sq f4 [1, 4]
00000000: 188c 2c3a f380 f63a 118b bb3a 29b1 ab3a
0.0006582155 0.001880674 0.0014308413 0.0013099062
